…
-------val_data---- <class 'torchvision.datasets.folder.ImageFolder'>
-------train_data_loader---- <class 'torch.utils.data.dataloader.DataLoader'>
-----type(simplenet-------
 <class '__main__.SimpleNet'>
-----type(optimizer-------
 <class 'torch.optim.adam.Adam'>
--1-torch.cuda.memory_allocated---> 0.00 GB
--2-torch.cuda.memory_allocated---> 0.00 GB
--train--device----
 cuda
---targets---- tensor([0, 0, 0, 1, 0, 1, 1, 1, 1, 0, 0, 0, 1, 0, 0, 1, 0, 0, 0, 0, 0, 0, 0, 1,
        0, 0, 0, 1, 0, 1, 0, 1, 0, 1, 1, 1, 0, 0, 0, 1, 1, 0, 1, 0, 0, 0, 1, 1,
        1, 0, 0, 0, 1, 0, 0, 1, 0, 1, 1, 1, 0, 0, 1, 1])
--train>>-model--summary---- SimpleNet(
  (fc1): Linear(in_features=12288, out_features=84, bias=True)
  (fc2): Linear(in_features=84, out_features=50, bias=True)
  (fc3): Linear(in_features=50, out_features=2, bias=True)
)
--train>>-model-loss--- tensor(0.7088, device='cuda:0', grad_fn=<NllLossBackward0>)
---targets---- tensor([1, 1, 0, 0, 1, 0, 1, 1, 1, 1, 1, 0, 0, 0, 1, 1, 0, 1, 1, 1, 1, 1, 0, 1,
        0, 0, 0, 1, 1, 1, 1, 0, 1, 1, 1, 0, 1, 0, 0, 0, 0, 0, 1, 1, 1, 1, 0, 0,
        0, 0, 0, 1, 0, 0, 0, 0, 1, 0, 1, 0, 1, 1, 0, 1])
--train>>-model--summary---- SimpleNet(
  (fc1): Linear(in_features=12288, out_features=84, bias=True)
  (fc2): Linear(in_features=84, out_features=50, bias=True)
  (fc3): Linear(in_features=50, out_features=2, bias=True)
)
--train>>-model-loss--- tensor(1.2079, device='cuda:0', grad_fn=<NllLossBackward0>)
---targets---- tensor([0, 0, 0, 1, 0, 1, 0, 1, 1, 0, 1, 1, 1, 0, 0, 1, 0, 0, 0, 0, 1, 1, 0, 1,
        0, 1, 0, 1, 0, 0, 1, 1, 0, 0, 0, 1, 1, 1, 0, 1, 1, 0, 0, 1, 0, 1, 1, 1,
        1, 1, 1, 0, 1, 0, 0, 0, 0, 1, 0, 1, 0, 0, 1, 1])
--train>>-model--summary---- SimpleNet(
  (fc1): Linear(in_features=12288, out_features=84, bias=True)
  (fc2): Linear(in_features=84, out_features=50, bias=True)
  (fc3): Linear(in_features=50, out_features=2, bias=True)
)
--train>>-model-loss--- tensor(0.8009, device='cuda:0', grad_fn=<NllLossBackward0>)
---targets---- tensor([1, 1, 0, 0, 0, 1, 0, 1, 0, 1, 1, 0, 0, 1, 0, 1, 0, 0, 1, 1, 0, 0, 1, 0,
        0, 1, 0, 1, 1, 1, 1, 0, 0, 0, 1, 0, 0, 0, 1, 1, 1, 1, 0, 0, 0, 1, 1, 0,
        0, 0, 1, 1, 0, 1, 0, 1, 1, 1, 0, 0, 0, 1, 0, 0])
--train>>-model--summary---- SimpleNet(
  (fc1): Linear(in_features=12288, out_features=84, bias=True)
  (fc2): Linear(in_features=84, out_features=50, bias=True)
  (fc3): Linear(in_features=50, out_features=2, bias=True)
)
--train>>-model-loss--- tensor(0.4139, device='cuda:0', grad_fn=<NllLossBackward0>)
---targets---- tensor([1, 0, 1, 0, 1, 0, 1, 1, 0, 1, 0, 0, 1, 0, 1, 1, 0, 1, 1, 1, 1, 0, 0, 1,
        1, 0, 1, 1, 1, 0, 1, 0, 0, 1, 0, 1, 0, 0, 1, 1, 1, 1, 0, 1, 1, 1, 1, 0,
        1, 0, 0, 1, 0, 0, 0, 1, 1, 1, 0, 1, 0, 0, 0, 1])
--train>>-model--summary---- SimpleNet(
  (fc1): Linear(in_features=12288, out_features=84, bias=True)
  (fc2): Linear(in_features=84, out_features=50, bias=True)
  (fc3): Linear(in_features=50, out_features=2, bias=True)
)
--train>>-model-loss--- tensor(0.2051, device='cuda:0', grad_fn=<NllLossBackward0>)
---targets---- tensor([1, 1, 0, 1, 0, 1, 1, 1, 1, 0, 1, 0, 0, 1, 1, 0, 1, 0, 0, 0, 0, 0, 0, 1,
        1, 1, 0, 0, 1, 0, 0, 0, 0, 0, 0, 1, 0, 0, 1, 0, 0, 1, 0, 0, 0, 1, 0, 1,
        0, 0, 0, 0, 0, 0, 0, 1, 0, 1, 1, 1, 1, 0, 0, 1])
--train>>-model--summary---- SimpleNet(
  (fc1): Linear(in_features=12288, out_features=84, bias=True)
  (fc2): Linear(in_features=84, out_features=50, bias=True)
  (fc3): Linear(in_features=50, out_features=2, bias=True)
)
--train>>-model-loss--- tensor(0.7913, device='cuda:0', grad_fn=<NllLossBackward0>)
---targets---- tensor([0, 0, 1, 0, 0, 0, 1, 0, 0, 0, 0, 0, 0, 0, 1, 1, 1, 1, 0, 0, 0, 1, 1, 0,
        0, 1, 0, 0, 0, 1, 1, 1, 1, 0, 0, 1, 0, 1, 0, 1, 0, 0, 0, 1, 1, 0, 1, 0,
        1, 0, 0, 1, 0, 1, 0, 1, 1, 0, 1, 1, 1, 0, 1, 0])
--train>>-model--summary---- SimpleNet(
  (fc1): Linear(in_features=12288, out_features=84, bias=True)
  (fc2): Linear(in_features=84, out_features=50, bias=True)
  (fc3): Linear(in_features=50, out_features=2, bias=True)
)
--train>>-model-loss--- tensor(0.1367, device='cuda:0', grad_fn=<NllLossBackward0>)
---targets---- tensor([0, 0, 1, 0, 1, 1, 0, 0, 0, 0, 0, 0, 1, 0, 0, 0, 1, 0, 1, 1, 1, 1, 0, 0,
        1, 0, 0, 1, 0, 1, 1, 0, 0, 1, 0, 0, 1, 0, 1, 1, 0, 1, 1, 1, 1, 0, 1, 0,
        1, 1, 1, 0, 0, 1, 0, 0, 1, 1, 1, 0, 0, 1, 0, 0])
--train>>-model--summary---- SimpleNet(
  (fc1): Linear(in_features=12288, out_features=84, bias=True)
  (fc2): Linear(in_features=84, out_features=50, bias=True)
  (fc3): Linear(in_features=50, out_features=2, bias=True)
)
--train>>-model-loss--- tensor(0.2767, device='cuda:0', grad_fn=<NllLossBackward0>)
---targets---- tensor([0, 0, 0, 0, 1, 0, 0, 0, 1, 0, 1, 0, 1, 1, 0, 1, 0, 0, 0, 0, 0, 1, 1, 1,
        1, 1, 0, 1, 0, 1, 0, 1, 0, 0, 0, 0, 1, 0, 0, 1, 1, 1, 0, 0, 0, 1, 1, 0,
        0, 0, 1, 0, 0, 1, 0, 0, 1, 0, 0, 0, 1, 0, 0, 0])
--train>>-model--summary---- SimpleNet(
  (fc1): Linear(in_features=12288, out_features=84, bias=True)
  (fc2): Linear(in_features=84, out_features=50, bias=True)
  (fc3): Linear(in_features=50, out_features=2, bias=True)
)
--train>>-model-loss--- tensor(0.1600, device='cuda:0', grad_fn=<NllLossBackward0>)
---targets---- tensor([0, 0, 0, 1, 1, 0, 1, 0, 1, 0, 1, 0, 1, 0, 1, 0, 0, 0, 0, 1, 0, 0, 0, 0,
        0, 1, 0, 1, 0, 1, 0, 0, 1, 0, 0, 0, 0, 0, 0, 0, 0, 0, 1, 1, 1, 0, 1, 1,
        1, 0, 0, 0, 0, 0, 1, 0, 0, 0, 1, 1, 0, 1, 1, 1])
--train>>-model--summary---- SimpleNet(
  (fc1): Linear(in_features=12288, out_features=84, bias=True)
  (fc2): Linear(in_features=84, out_features=50, bias=True)
  (fc3): Linear(in_features=50, out_features=2, bias=True)
)
--train>>-model-loss--- tensor(0.1627, device='cuda:0', grad_fn=<NllLossBackward0>)
---targets---- tensor([1, 1, 0, 1, 1, 1, 1, 1, 0, 1, 0, 1, 0, 1, 1, 0, 1, 0, 0, 0, 0, 1, 0, 1,
        0, 0, 0, 0, 1, 0, 1, 0, 0, 0, 1, 1, 0, 0, 1, 0, 1, 1, 1, 1, 1, 0, 0, 1,
        0, 0, 0, 0, 1, 1, 1, 0, 1, 0, 1, 1, 0, 1, 0, 1])
--train>>-model--summary---- SimpleNet(
  (fc1): Linear(in_features=12288, out_features=84, bias=True)
  (fc2): Linear(in_features=84, out_features=50, bias=True)
  (fc3): Linear(in_features=50, out_features=2, bias=True)
)
--train>>-model-loss--- tensor(0.1903, device='cuda:0', grad_fn=<NllLossBackward0>)
---targets---- tensor([1, 0, 1, 0, 0, 0, 0, 0, 0, 0, 0, 1, 0, 1, 0, 1, 0, 1, 1, 1, 1, 1, 1, 0,
        0, 0, 1, 0, 1, 1, 1, 0, 1, 0, 0, 0, 0, 0, 1, 0, 0, 1, 1, 0, 1, 1, 0, 0,
        0, 0, 0, 1, 0, 1, 0, 1, 1, 1, 1, 0, 0, 1, 0, 0])
--train>>-model--summary---- SimpleNet(
  (fc1): Linear(in_features=12288, out_features=84, bias=True)
  (fc2): Linear(in_features=84, out_features=50, bias=True)
  (fc3): Linear(in_features=50, out_features=2, bias=True)
)
--train>>-model-loss--- tensor(0.0940, device='cuda:0', grad_fn=<NllLossBackward0>)
---targets---- tensor([1, 0, 1, 1, 1, 0, 0, 0, 0, 0, 1, 1, 0, 0, 0, 1, 1, 0, 0, 1, 1, 1, 1, 1,
        1, 1, 0, 1, 0, 1, 1, 0, 0, 0, 0, 1, 0, 0, 1, 1, 0, 1, 0, 0, 1, 1, 0, 0,
        0, 0, 0, 0, 0, 0, 1, 0, 0, 1, 0, 1, 1, 1, 1, 1])
--train>>-model--summary---- SimpleNet(
  (fc1): Linear(in_features=12288, out_features=84, bias=True)
  (fc2): Linear(in_features=84, out_features=50, bias=True)
  (fc3): Linear(in_features=50, out_features=2, bias=True)
)
--train>>-model-loss--- tensor(0.1455, device='cuda:0', grad_fn=<NllLossBackward0>)
---targets---- tensor([0, 0, 0, 1, 1, 1, 0, 1, 1, 1, 0, 1, 0, 1, 1, 0, 1, 0, 0, 0, 0, 0, 1, 0,
        1, 1, 0, 0, 1, 1, 0, 0, 1, 0, 0, 1, 0, 1, 0, 0, 1, 1, 1, 0, 1, 0, 0, 1,
        1, 1, 0, 1, 1, 1, 0, 0, 1, 0, 0, 0, 1, 0, 0, 1])
--train>>-model--summary---- SimpleNet(
  (fc1): Linear(in_features=12288, out_features=84, bias=True)
  (fc2): Linear(in_features=84, out_features=50, bias=True)
  (fc3): Linear(in_features=50, out_features=2, bias=True)
)
--train>>-model-loss--- tensor(0.3452, device='cuda:0', grad_fn=<NllLossBackward0>)
---targets---- tensor([1, 0, 1, 0, 1, 0, 0, 0, 0, 0, 1, 0, 0, 1, 1, 0, 1, 1, 1, 1, 1, 0, 1, 1,
        1, 0, 1, 1, 0, 1, 0, 0, 0, 0, 1, 1, 0, 1, 0, 1])
--train>>-model--summary---- SimpleNet(
  (fc1): Linear(in_features=12288, out_features=84, bias=True)
  (fc2): Linear(in_features=84, out_features=50, bias=True)
  (fc3): Linear(in_features=50, out_features=2, bias=True)
)
--train>>-model-loss--- tensor(0.1350, device='cuda:0', grad_fn=<NllLossBackward0>)
--------targets.shape------ torch.Size([64])
--------inputs.size(0)------ 64
--train>>-model--summary-2--- SimpleNet(
  (fc1): Linear(in_features=12288, out_features=84, bias=True)
  (fc2): Linear(in_features=84, out_features=50, bias=True)
  (fc3): Linear(in_features=50, out_features=2, bias=True)
)
--------output.size(0)------ 64
--------targets.shape------ torch.Size([64])
--------inputs.size(0)------ 64
--train>>-model--summary-2--- SimpleNet(
  (fc1): Linear(in_features=12288, out_features=84, bias=True)
  (fc2): Linear(in_features=84, out_features=50, bias=True)
  (fc3): Linear(in_features=50, out_features=2, bias=True)
)
--------output.size(0)------ 64
--------targets.shape------ torch.Size([64])
--------inputs.size(0)------ 64
--train>>-model--summary-2--- SimpleNet(
  (fc1): Linear(in_features=12288, out_features=84, bias=True)
  (fc2): Linear(in_features=84, out_features=50, bias=True)
  (fc3): Linear(in_features=50, out_features=2, bias=True)
)
--------output.size(0)------ 64
--------targets.shape------ torch.Size([64])
--------inputs.size(0)------ 64
--train>>-model--summary-2--- SimpleNet(
  (fc1): Linear(in_features=12288, out_features=84, bias=True)
  (fc2): Linear(in_features=84, out_features=50, bias=True)
  (fc3): Linear(in_features=50, out_features=2, bias=True)
)
--------output.size(0)------ 64
--------targets.shape------ torch.Size([64])
--------inputs.size(0)------ 64
--train>>-model--summary-2--- SimpleNet(
  (fc1): Linear(in_features=12288, out_features=84, bias=True)
  (fc2): Linear(in_features=84, out_features=50, bias=True)
  (fc3): Linear(in_features=50, out_features=2, bias=True)
)
--------output.size(0)------ 64
--------targets.shape------ torch.Size([64])
--------inputs.size(0)------ 64
--train>>-model--summary-2--- SimpleNet(
  (fc1): Linear(in_features=12288, out_features=84, bias=True)
  (fc2): Linear(in_features=84, out_features=50, bias=True)
  (fc3): Linear(in_features=50, out_features=2, bias=True)
)
--------output.size(0)------ 64
--------targets.shape------ torch.Size([64])
--------inputs.size(0)------ 64
--train>>-model--summary-2--- SimpleNet(
  (fc1): Linear(in_features=12288, out_features=84, bias=True)
  (fc2): Linear(in_features=84, out_features=50, bias=True)
  (fc3): Linear(in_features=50, out_features=2, bias=True)
)
--------output.size(0)------ 64
--------targets.shape------ torch.Size([64])
--------inputs.size(0)------ 64
--train>>-model--summary-2--- SimpleNet(
  (fc1): Linear(in_features=12288, out_features=84, bias=True)
  (fc2): Linear(in_features=84, out_features=50, bias=True)
  (fc3): Linear(in_features=50, out_features=2, bias=True)
)
--------output.size(0)------ 64
--------targets.shape------ torch.Size([64])
--------inputs.size(0)------ 64
--train>>-model--summary-2--- SimpleNet(
  (fc1): Linear(in_features=12288, out_features=84, bias=True)
  (fc2): Linear(in_features=84, out_features=50, bias=True)
  (fc3): Linear(in_features=50, out_features=2, bias=True)
)
--------output.size(0)------ 64
--------targets.shape------ torch.Size([64])
--------inputs.size(0)------ 64
--train>>-model--summary-2--- SimpleNet(
  (fc1): Linear(in_features=12288, out_features=84, bias=True)
  (fc2): Linear(in_features=84, out_features=50, bias=True)
  (fc3): Linear(in_features=50, out_features=2, bias=True)
)
--------output.size(0)------ 64
--------targets.shape------ torch.Size([64])
--------inputs.size(0)------ 64
--train>>-model--summary-2--- SimpleNet(
  (fc1): Linear(in_features=12288, out_features=84, bias=True)
  (fc2): Linear(in_features=84, out_features=50, bias=True)
  (fc3): Linear(in_features=50, out_features=2, bias=True)
)
--------output.size(0)------ 64
--------targets.shape------ torch.Size([64])
--------inputs.size(0)------ 64
--train>>-model--summary-2--- SimpleNet(
  (fc1): Linear(in_features=12288, out_features=84, bias=True)
  (fc2): Linear(in_features=84, out_features=50, bias=True)
  (fc3): Linear(in_features=50, out_features=2, bias=True)
)
--------output.size(0)------ 64
--------targets.shape------ torch.Size([64])
--------inputs.size(0)------ 64
--train>>-model--summary-2--- SimpleNet(
  (fc1): Linear(in_features=12288, out_features=84, bias=True)
  (fc2): Linear(in_features=84, out_features=50, bias=True)
  (fc3): Linear(in_features=50, out_features=2, bias=True)
)
--------output.size(0)------ 64
--------targets.shape------ torch.Size([64])
--------inputs.size(0)------ 64
--train>>-model--summary-2--- SimpleNet(
  (fc1): Linear(in_features=12288, out_features=84, bias=True)
  (fc2): Linear(in_features=84, out_features=50, bias=True)
  (fc3): Linear(in_features=50, out_features=2, bias=True)
)
--------output.size(0)------ 64
--------targets.shape------ torch.Size([40])
--------inputs.size(0)------ 40
--train>>-model--summary-2--- SimpleNet(
  (fc1): Linear(in_features=12288, out_features=84, bias=True)
  (fc2): Linear(in_features=84, out_features=50, bias=True)
  (fc3): Linear(in_features=50, out_features=2, bias=True)
)
--------output.size(0)------ 40
-TRAIN----torch.cuda.memory_allocated---> 0.02 GB
Epoch:1,TRAIN_Loss:0.39,VAL_Loss:0.12, Accuracy = 0.96
---targets---- tensor([0, 1, 0, 1, 0, 0, 1, 1, 1, 1, 1, 0, 1, 1, 0, 0, 0, 0, 0, 1, 0, 0, 1, 0,
        0, 0, 0, 0, 1, 0, 0, 0, 0, 0, 1, 1, 0, 1, 0, 0, 1, 0, 0, 0, 0, 0, 0, 1,
        1, 1, 1, 1, 1, 1, 0, 1, 0, 1, 1, 0, 1, 0, 0, 1])
--train>>-model--summary---- SimpleNet(
  (fc1): Linear(in_features=12288, out_features=84, bias=True)
  (fc2): Linear(in_features=84, out_features=50, bias=True)
  (fc3): Linear(in_features=50, out_features=2, bias=True)
)
--train>>-model-loss--- tensor(0.0938, device='cuda:0', grad_fn=<NllLossBackward0>)
---targets---- tensor([0, 0, 1, 0, 1, 1, 1, 0, 1, 0, 0, 1, 0, 1, 1, 1, 1, 0, 1, 0, 0, 0, 1, 1,
        0, 1, 0, 0, 0, 1, 0, 0, 0, 0, 0, 1, 0, 0, 0, 1, 0, 0, 0, 0, 0, 0, 1, 1,
        1, 1, 1, 0, 0, 1, 0, 1, 1, 0, 1, 1, 1, 1, 1, 1])
--train>>-model--summary---- SimpleNet(
  (fc1): Linear(in_features=12288, out_features=84, bias=True)
  (fc2): Linear(in_features=84, out_features=50, bias=True)
  (fc3): Linear(in_features=50, out_features=2, bias=True)
)
--train>>-model-loss--- tensor(0.0433, device='cuda:0', grad_fn=<NllLossBackward0>)
---targets---- tensor([1, 0, 1, 0, 0, 1, 1, 0, 1, 0, 0, 0, 0, 0, 0, 0, 0, 1, 0, 0, 0, 1, 1, 0,
        0, 0, 1, 0, 1, 0, 1, 0, 0, 1, 0, 1, 0, 0, 1, 0, 0, 1, 0, 1, 1, 1, 0, 1,
        1, 1, 0, 0, 1, 1, 1, 0, 0, 0, 1, 0, 1, 0, 1, 1])
--train>>-model--summary---- SimpleNet(
  (fc1): Linear(in_features=12288, out_features=84, bias=True)
  (fc2): Linear(in_features=84, out_features=50, bias=True)
  (fc3): Linear(in_features=50, out_features=2, bias=True)
)
--train>>-model-loss--- tensor(0.1421, device='cuda:0', grad_fn=<NllLossBackward0>)
---targets---- tensor([1, 0, 1, 1, 0, 1, 1, 1, 0, 0, 1, 0, 1, 0, 1, 0, 0, 1, 1, 1, 0, 0, 1, 1,
        1, 0, 0, 1, 1, 0, 1, 1, 1, 0, 1, 0, 1, 0, 1, 1, 1, 1, 1, 1, 0, 1, 0, 1,
        1, 0, 1, 1, 0, 0, 0, 0, 1, 0, 0, 1, 1, 1, 0, 0])
--train>>-model--summary---- SimpleNet(
  (fc1): Linear(in_features=12288, out_features=84, bias=True)
  (fc2): Linear(in_features=84, out_features=50, bias=True)
  (fc3): Linear(in_features=50, out_features=2, bias=True)
)
--train>>-model-loss--- tensor(0.0760, device='cuda:0', grad_fn=<NllLossBackward0>)
---targets---- tensor([1, 1, 0, 0, 0, 0, 1, 1, 1, 1, 0, 1, 1, 1, 1, 1, 0, 0, 1, 1, 0, 1, 0, 0,
        0, 0, 0, 0, 1, 0, 1, 1, 0, 0, 1, 0, 1, 0, 1, 1, 0, 0, 1, 0, 0, 0, 1, 1,
        1, 0, 0, 0, 1, 1, 1, 1, 0, 1, 1, 0, 0, 0, 0, 0])
--train>>-model--summary---- SimpleNet(
  (fc1): Linear(in_features=12288, out_features=84, bias=True)
  (fc2): Linear(in_features=84, out_features=50, bias=True)
  (fc3): Linear(in_features=50, out_features=2, bias=True)
)
--train>>-model-loss--- tensor(0.0641, device='cuda:0', grad_fn=<NllLossBackward0>)
---targets---- tensor([0, 1, 0, 0, 1, 0, 1, 0, 0, 1, 0, 0, 1, 0, 0, 0, 0, 0, 1, 1, 0, 0, 1, 1,
        1, 0, 1, 1, 1, 0, 1, 0, 0, 1, 0, 1, 0, 1, 0, 1, 0, 1, 0, 1, 0, 1, 0, 0,
        0, 0, 0, 1, 0, 1, 0, 0, 1, 1, 0, 0, 0, 0, 0, 1])
--train>>-model--summary---- SimpleNet(
  (fc1): Linear(in_features=12288, out_features=84, bias=True)
  (fc2): Linear(in_features=84, out_features=50, bias=True)
  (fc3): Linear(in_features=50, out_features=2, bias=True)
)
--train>>-model-loss--- tensor(0.0773, device='cuda:0', grad_fn=<NllLossBackward0>)
---targets---- tensor([0, 1, 1, 0, 1, 1, 0, 1, 0, 1, 1, 0, 1, 1, 1, 1, 0, 0, 1, 0, 1, 0, 0, 1,
        1, 1, 0, 1, 1, 0, 0, 0, 0, 0, 0, 1, 1, 0, 0, 1, 0, 0, 0, 1, 1, 1, 1, 1,
        1, 1, 1, 1, 1, 0, 1, 0, 1, 1, 0, 0, 1, 1, 0, 1])
--train>>-model--summary---- SimpleNet(
  (fc1): Linear(in_features=12288, out_features=84, bias=True)
  (fc2): Linear(in_features=84, out_features=50, bias=True)
  (fc3): Linear(in_features=50, out_features=2, bias=True)
)
--train>>-model-loss--- tensor(0.0067, device='cuda:0', grad_fn=<NllLossBackward0>)
---targets---- tensor([1, 1, 0, 1, 0, 1, 0, 1, 0, 1, 1, 1, 1, 0, 0, 1, 1, 1, 1, 0, 0, 1, 0, 0,
        1, 0, 1, 1, 1, 0, 1, 1, 1, 0, 1, 0, 1, 0, 1, 1, 0, 1, 0, 0, 0, 1, 1, 0,
        1, 1, 1, 0, 0, 0, 1, 0, 1, 0, 1, 1, 1, 0, 1, 1])
--train>>-model--summary---- SimpleNet(
  (fc1): Linear(in_features=12288, out_features=84, bias=True)
  (fc2): Linear(in_features=84, out_features=50, bias=True)
  (fc3): Linear(in_features=50, out_features=2, bias=True)
)
--train>>-model-loss--- tensor(0.0425, device='cuda:0', grad_fn=<NllLossBackward0>)
---targets---- tensor([0, 0, 0, 1, 1, 1, 1, 0, 1, 1, 0, 1, 0, 0, 1, 0, 0, 0, 0, 1, 0, 0, 1, 0,
        1, 1, 0, 0, 0, 0, 0, 0, 1, 1, 0, 0, 0, 1, 0, 1, 0, 1, 1, 1, 0, 0, 0, 1,
        0, 1, 0, 0, 1, 0, 1, 0, 1, 1, 0, 0, 0, 0, 0, 0])
--train>>-model--summary---- SimpleNet(
  (fc1): Linear(in_features=12288, out_features=84, bias=True)
  (fc2): Linear(in_features=84, out_features=50, bias=True)
  (fc3): Linear(in_features=50, out_features=2, bias=True)
)
--train>>-model-loss--- tensor(0.2231, device='cuda:0', grad_fn=<NllLossBackward0>)
---targets---- tensor([0, 0, 0, 1, 1, 0, 0, 1, 0, 0, 0, 0, 1, 0, 0, 0, 0, 0, 0, 1, 0, 0, 0, 0,
        1, 1, 0, 0, 1, 1, 0, 0, 0, 1, 1, 0, 1, 0, 0, 0, 1, 0, 0, 1, 1, 1, 1, 1,
        1, 0, 1, 0, 0, 0, 1, 1, 1, 0, 0, 1, 0, 0, 0, 0])
--train>>-model--summary---- SimpleNet(
  (fc1): Linear(in_features=12288, out_features=84, bias=True)
  (fc2): Linear(in_features=84, out_features=50, bias=True)
  (fc3): Linear(in_features=50, out_features=2, bias=True)
)
--train>>-model-loss--- tensor(0.0202, device='cuda:0', grad_fn=<NllLossBackward0>)
---targets---- tensor([0, 1, 1, 0, 1, 0, 1, 1, 0, 1, 1, 1, 0, 0, 0, 1, 0, 0, 1, 1, 1, 0, 1, 1,
        0, 1, 1, 1, 0, 1, 0, 0, 0, 1, 0, 1, 0, 1, 0, 0, 0, 1, 0, 0, 1, 1, 1, 0,
        0, 1, 1, 1, 0, 1, 0, 0, 1, 1, 0, 1, 0, 1, 1, 0])
--train>>-model--summary---- SimpleNet(
  (fc1): Linear(in_features=12288, out_features=84, bias=True)
  (fc2): Linear(in_features=84, out_features=50, bias=True)
  (fc3): Linear(in_features=50, out_features=2, bias=True)
)
--train>>-model-loss--- tensor(0.0995, device='cuda:0', grad_fn=<NllLossBackward0>)
---targets---- tensor([0, 1, 1, 0, 0, 1, 0, 1, 0, 1, 0, 1, 0, 0, 0, 0, 1, 1, 1, 1, 0, 0, 1, 0,
        0, 0, 0, 0, 1, 0, 0, 0, 1, 0, 1, 1, 0, 0, 0, 0, 0, 0, 1, 1, 0, 1, 0, 1,
        0, 1, 1, 1, 0, 0, 0, 1, 0, 1, 1, 1, 1, 0, 1, 0])
--train>>-model--summary---- SimpleNet(
  (fc1): Linear(in_features=12288, out_features=84, bias=True)
  (fc2): Linear(in_features=84, out_features=50, bias=True)
  (fc3): Linear(in_features=50, out_features=2, bias=True)
)
--train>>-model-loss--- tensor(0.0471, device='cuda:0', grad_fn=<NllLossBackward0>)
---targets---- tensor([0, 1, 0, 1, 1, 0, 0, 1, 1, 0, 0, 1, 0, 0, 1, 0, 1, 0, 0, 0, 1, 0, 1, 0,
        0, 0, 1, 0, 0, 0, 0, 0, 0, 0, 0, 1, 0, 0, 0, 0, 0, 0, 0, 1, 0, 0, 0, 1,
        1, 0, 1, 0, 0, 0, 1, 0, 1, 1, 1, 0, 0, 0, 0, 1])
--train>>-model--summary---- SimpleNet(
  (fc1): Linear(in_features=12288, out_features=84, bias=True)
  (fc2): Linear(in_features=84, out_features=50, bias=True)
  (fc3): Linear(in_features=50, out_features=2, bias=True)
)
--train>>-model-loss--- tensor(0.1417, device='cuda:0', grad_fn=<NllLossBackward0>)
---targets---- tensor([1, 1, 0, 0, 0, 0, 1, 1, 1, 0, 1, 0, 1, 0, 0, 1, 1, 1, 0, 0, 0, 0, 0, 1,
        1, 0, 0, 0, 1, 0, 0, 0, 1, 1, 0, 1, 0, 1, 0, 1, 1, 0, 1, 1, 0, 0, 0, 1,
        1, 1, 0, 1, 1, 0, 1, 1, 0, 1, 0, 1, 1, 0, 0, 0])
--train>>-model--summary---- SimpleNet(
  (fc1): Linear(in_features=12288, out_features=84, bias=True)
  (fc2): Linear(in_features=84, out_features=50, bias=True)
  (fc3): Linear(in_features=50, out_features=2, bias=True)
)
--train>>-model-loss--- tensor(0.0565, device='cuda:0', grad_fn=<NllLossBackward0>)
---targets---- tensor([0, 1, 0, 1, 0, 1, 1, 1, 1, 0, 0, 0, 1, 1, 1, 1, 0, 0, 1, 0, 0, 0, 0, 1,
        1, 0, 0, 0, 0, 1, 0, 0, 0, 0, 1, 0, 0, 0, 0, 1])
--train>>-model--summary---- SimpleNet(
  (fc1): Linear(in_features=12288, out_features=84, bias=True)
  (fc2): Linear(in_features=84, out_features=50, bias=True)
  (fc3): Linear(in_features=50, out_features=2, bias=True)
)
--train>>-model-loss--- tensor(0.1744, device='cuda:0', grad_fn=<NllLossBackward0>)
--------targets.shape------ torch.Size([64])
--------inputs.size(0)------ 64
--train>>-model--summary-2--- SimpleNet(
  (fc1): Linear(in_features=12288, out_features=84, bias=True)
  (fc2): Linear(in_features=84, out_features=50, bias=True)
  (fc3): Linear(in_features=50, out_features=2, bias=True)
)
--------output.size(0)------ 64
--------targets.shape------ torch.Size([64])
--------inputs.size(0)------ 64
--train>>-model--summary-2--- SimpleNet(
  (fc1): Linear(in_features=12288, out_features=84, bias=True)
  (fc2): Linear(in_features=84, out_features=50, bias=True)
  (fc3): Linear(in_features=50, out_features=2, bias=True)
)
--------output.size(0)------ 64
--------targets.shape------ torch.Size([64])
--------inputs.size(0)------ 64
--train>>-model--summary-2--- SimpleNet(
  (fc1): Linear(in_features=12288, out_features=84, bias=True)
  (fc2): Linear(in_features=84, out_features=50, bias=True)
  (fc3): Linear(in_features=50, out_features=2, bias=True)
)
--------output.size(0)------ 64
--------targets.shape------ torch.Size([64])
--------inputs.size(0)------ 64
--train>>-model--summary-2--- SimpleNet(
  (fc1): Linear(in_features=12288, out_features=84, bias=True)
  (fc2): Linear(in_features=84, out_features=50, bias=True)
  (fc3): Linear(in_features=50, out_features=2, bias=True)
)
--------output.size(0)------ 64
--------targets.shape------ torch.Size([64])
--------inputs.size(0)------ 64
--train>>-model--summary-2--- SimpleNet(
  (fc1): Linear(in_features=12288, out_features=84, bias=True)
  (fc2): Linear(in_features=84, out_features=50, bias=True)
  (fc3): Linear(in_features=50, out_features=2, bias=True)
)
--------output.size(0)------ 64
--------targets.shape------ torch.Size([64])
--------inputs.size(0)------ 64
--train>>-model--summary-2--- SimpleNet(
  (fc1): Linear(in_features=12288, out_features=84, bias=True)
  (fc2): Linear(in_features=84, out_features=50, bias=True)
  (fc3): Linear(in_features=50, out_features=2, bias=True)
)
--------output.size(0)------ 64
--------targets.shape------ torch.Size([64])
--------inputs.size(0)------ 64
--train>>-model--summary-2--- SimpleNet(
  (fc1): Linear(in_features=12288, out_features=84, bias=True)
  (fc2): Linear(in_features=84, out_features=50, bias=True)
  (fc3): Linear(in_features=50, out_features=2, bias=True)
)
--------output.size(0)------ 64
--------targets.shape------ torch.Size([64])
--------inputs.size(0)------ 64
--train>>-model--summary-2--- SimpleNet(
  (fc1): Linear(in_features=12288, out_features=84, bias=True)
  (fc2): Linear(in_features=84, out_features=50, bias=True)
  (fc3): Linear(in_features=50, out_features=2, bias=True)
)
--------output.size(0)------ 64
--------targets.shape------ torch.Size([64])
--------inputs.size(0)------ 64
--train>>-model--summary-2--- SimpleNet(
  (fc1): Linear(in_features=12288, out_features=84, bias=True)
  (fc2): Linear(in_features=84, out_features=50, bias=True)
  (fc3): Linear(in_features=50, out_features=2, bias=True)
)
--------output.size(0)------ 64
--------targets.shape------ torch.Size([64])
--------inputs.size(0)------ 64
--train>>-model--summary-2--- SimpleNet(
  (fc1): Linear(in_features=12288, out_features=84, bias=True)
  (fc2): Linear(in_features=84, out_features=50, bias=True)
  (fc3): Linear(in_features=50, out_features=2, bias=True)
)
--------output.size(0)------ 64
--------targets.shape------ torch.Size([64])
--------inputs.size(0)------ 64
--train>>-model--summary-2--- SimpleNet(
  (fc1): Linear(in_features=12288, out_features=84, bias=True)
  (fc2): Linear(in_features=84, out_features=50, bias=True)
  (fc3): Linear(in_features=50, out_features=2, bias=True)
)
--------output.size(0)------ 64
--------targets.shape------ torch.Size([64])
--------inputs.size(0)------ 64
--train>>-model--summary-2--- SimpleNet(
  (fc1): Linear(in_features=12288, out_features=84, bias=True)
  (fc2): Linear(in_features=84, out_features=50, bias=True)
  (fc3): Linear(in_features=50, out_features=2, bias=True)
)
--------output.size(0)------ 64
--------targets.shape------ torch.Size([64])
--------inputs.size(0)------ 64
--train>>-model--summary-2--- SimpleNet(
  (fc1): Linear(in_features=12288, out_features=84, bias=True)
  (fc2): Linear(in_features=84, out_features=50, bias=True)
  (fc3): Linear(in_features=50, out_features=2, bias=True)
)
--------output.size(0)------ 64
--------targets.shape------ torch.Size([64])
--------inputs.size(0)------ 64
--train>>-model--summary-2--- SimpleNet(
  (fc1): Linear(in_features=12288, out_features=84, bias=True)
  (fc2): Linear(in_features=84, out_features=50, bias=True)
  (fc3): Linear(in_features=50, out_features=2, bias=True)
)
--------output.size(0)------ 64
--------targets.shape------ torch.Size([40])
--------inputs.size(0)------ 40
--train>>-model--summary-2--- SimpleNet(
  (fc1): Linear(in_features=12288, out_features=84, bias=True)
  (fc2): Linear(in_features=84, out_features=50, bias=True)
  (fc3): Linear(in_features=50, out_features=2, bias=True)
)
--------output.size(0)------ 40
-TRAIN----torch.cuda.memory_allocated---> 0.02 GB
Epoch:2,TRAIN_Loss:0.08,VAL_Loss:0.05, Accuracy = 0.98
---targets---- tensor([0, 1, 0, 0, 0, 1, 1, 1, 0, 0, 0, 1, 1, 0, 1, 1, 1, 0, 1, 0, 0, 0, 1, 0,
        1, 0, 0, 0, 1, 0, 1, 1, 0, 0, 0, 0, 0, 0, 1, 1, 0, 0, 1, 1, 0, 1, 1, 1,
        0, 0, 1, 0, 0, 0, 0, 1, 0, 0, 0, 1, 0, 0, 0, 0])
--train>>-model--summary---- SimpleNet(
  (fc1): Linear(in_features=12288, out_features=84, bias=True)
  (fc2): Linear(in_features=84, out_features=50, bias=True)
  (fc3): Linear(in_features=50, out_features=2, bias=True)
)
--train>>-model-loss--- tensor(0.0069, device='cuda:0', grad_fn=<NllLossBackward0>)
---targets---- tensor([1, 0, 0, 1, 0, 1, 1, 0, 0, 1, 0, 1, 0, 0, 1, 0, 1, 1, 1, 0, 1, 1, 0, 0,
        0, 1, 1, 1, 0, 1, 1, 0, 1, 1, 0, 0, 0, 0, 0, 0, 0, 1, 1, 1, 0, 0, 0, 0,
        1, 0, 1, 0, 1, 1, 1, 1, 1, 0, 0, 1, 0, 1, 1, 1])
--train>>-model--summary---- SimpleNet(
  (fc1): Linear(in_features=12288, out_features=84, bias=True)
  (fc2): Linear(in_features=84, out_features=50, bias=True)
  (fc3): Linear(in_features=50, out_features=2, bias=True)
)
--train>>-model-loss--- tensor(0.0357, device='cuda:0', grad_fn=<NllLossBackward0>)
---targets---- tensor([0, 0, 1, 1, 0, 0, 0, 1, 0, 1, 1, 1, 0, 1, 0, 0, 0, 0, 0, 0, 1, 0, 0, 0,
        0, 0, 0, 1, 0, 1, 0, 0, 0, 1, 1, 1, 0, 0, 1, 0, 1, 1, 1, 0, 1, 0, 0, 0,
        1, 1, 0, 0, 1, 1, 1, 0, 0, 0, 0, 1, 0, 0, 1, 1])
--train>>-model--summary---- SimpleNet(
  (fc1): Linear(in_features=12288, out_features=84, bias=True)
  (fc2): Linear(in_features=84, out_features=50, bias=True)
  (fc3): Linear(in_features=50, out_features=2, bias=True)
)
--train>>-model-loss--- tensor(0.0230, device='cuda:0', grad_fn=<NllLossBackward0>)
---targets---- tensor([1, 1, 1, 1, 1, 1, 0, 0, 1, 0, 1, 1, 1, 0, 0, 1, 0, 1, 0, 0, 0, 1, 0, 0,
        0, 1, 0, 1, 1, 0, 0, 1, 1, 1, 0, 1, 0, 0, 0, 1, 0, 1, 1, 1, 1, 0, 0, 0,
        1, 0, 1, 1, 0, 0, 0, 1, 1, 1, 0, 1, 0, 0, 0, 0])
--train>>-model--summary---- SimpleNet(
  (fc1): Linear(in_features=12288, out_features=84, bias=True)
  (fc2): Linear(in_features=84, out_features=50, bias=True)
  (fc3): Linear(in_features=50, out_features=2, bias=True)
)
--train>>-model-loss--- tensor(0.0765, device='cuda:0', grad_fn=<NllLossBackward0>)
---targets---- tensor([0, 1, 1, 1, 1, 0, 1, 0, 1, 1, 1, 0, 0, 0, 1, 1, 1, 0, 0, 0, 1, 1, 0, 0,
        0, 0, 1, 0, 1, 1, 0, 0, 1, 0, 0, 1, 1, 0, 0, 0, 1, 0, 1, 0, 1, 1, 0, 0,
        0, 1, 0, 0, 1, 0, 0, 0, 0, 0, 1, 1, 0, 1, 0, 0])
--train>>-model--summary---- SimpleNet(
  (fc1): Linear(in_features=12288, out_features=84, bias=True)
  (fc2): Linear(in_features=84, out_features=50, bias=True)
  (fc3): Linear(in_features=50, out_features=2, bias=True)
)
--train>>-model-loss--- tensor(0.0390, device='cuda:0', grad_fn=<NllLossBackward0>)
---targets---- tensor([1, 1, 1, 0, 0, 0, 1, 0, 0, 0, 1, 0, 0, 1, 0, 0, 1, 1, 1, 1, 1, 1, 0, 0,
        0, 1, 1, 1, 0, 0, 1, 0, 1, 0, 1, 0, 0, 1, 0, 0, 1, 0, 0, 0, 0, 0, 0, 0,
        0, 0, 1, 0, 1, 0, 0, 0, 1, 0, 1, 1, 1, 1, 1, 0])
--train>>-model--summary---- SimpleNet(
  (fc1): Linear(in_features=12288, out_features=84, bias=True)
  (fc2): Linear(in_features=84, out_features=50, bias=True)
  (fc3): Linear(in_features=50, out_features=2, bias=True)
)
--train>>-model-loss--- tensor(0.0571, device='cuda:0', grad_fn=<NllLossBackward0>)
---targets---- tensor([0, 1, 0, 1, 0, 0, 0, 0, 1, 0, 1, 0, 0, 0, 1, 1, 0, 1, 0, 0, 0, 1, 0, 0,
        0, 1, 1, 1, 1, 1, 1, 0, 1, 1, 1, 0, 1, 0, 1, 0, 1, 0, 0, 1, 1, 0, 0, 1,
        0, 1, 1, 0, 1, 0, 1, 1, 1, 0, 1, 0, 0, 0, 0, 1])
--train>>-model--summary---- SimpleNet(
  (fc1): Linear(in_features=12288, out_features=84, bias=True)
  (fc2): Linear(in_features=84, out_features=50, bias=True)
  (fc3): Linear(in_features=50, out_features=2, bias=True)
)
--train>>-model-loss--- tensor(0.0597, device='cuda:0', grad_fn=<NllLossBackward0>)
---targets---- tensor([0, 0, 0, 0, 1, 0, 0, 0, 0, 0, 0, 1, 1, 1, 1, 1, 0, 1, 0, 1, 1, 1, 1, 1,
        1, 0, 1, 0, 0, 1, 0, 0, 0, 0, 1, 0, 0, 0, 0, 1, 0, 0, 0, 0, 1, 0, 0, 1,
        1, 1, 0, 0, 0, 0, 0, 1, 0, 1, 1, 1, 1, 0, 0, 0])
--train>>-model--summary---- SimpleNet(
  (fc1): Linear(in_features=12288, out_features=84, bias=True)
  (fc2): Linear(in_features=84, out_features=50, bias=True)
  (fc3): Linear(in_features=50, out_features=2, bias=True)
)
--train>>-model-loss--- tensor(0.0159, device='cuda:0', grad_fn=<NllLossBackward0>)
---targets---- tensor([0, 1, 1, 0, 0, 1, 0, 0, 0, 1, 0, 0, 1, 1, 1, 0, 0, 0, 0, 1, 1, 1, 1, 1,
        1, 0, 0, 1, 0, 0, 0, 1, 0, 1, 1, 0, 1, 0, 1, 1, 1, 1, 0, 1, 1, 0, 0, 0,
        0, 1, 0, 0, 0, 1, 0, 1, 0, 0, 1, 0, 1, 0, 1, 1])
--train>>-model--summary---- SimpleNet(
  (fc1): Linear(in_features=12288, out_features=84, bias=True)
  (fc2): Linear(in_features=84, out_features=50, bias=True)
  (fc3): Linear(in_features=50, out_features=2, bias=True)
)
--train>>-model-loss--- tensor(0.0228, device='cuda:0', grad_fn=<NllLossBackward0>)
---targets---- tensor([1, 0, 1, 1, 1, 1, 0, 1, 0, 1, 1, 1, 1, 0, 0, 0, 0, 1, 1, 0, 1, 1, 1, 1,
        1, 1, 1, 1, 0, 0, 0, 0, 0, 0, 1, 0, 1, 1, 1, 1, 0, 0, 0, 1, 0, 0, 0, 1,
        0, 1, 1, 1, 1, 1, 0, 0, 0, 1, 0, 1, 1, 0, 0, 0])
--train>>-model--summary---- SimpleNet(
  (fc1): Linear(in_features=12288, out_features=84, bias=True)
  (fc2): Linear(in_features=84, out_features=50, bias=True)
  (fc3): Linear(in_features=50, out_features=2, bias=True)
)
--train>>-model-loss--- tensor(0.0219, device='cuda:0', grad_fn=<NllLossBackward0>)
---targets---- tensor([0, 0, 0, 0, 1, 0, 0, 0, 0, 1, 0, 0, 0, 0, 0, 1, 0, 1, 0, 0, 0, 1, 0, 1,
        0, 1, 0, 1, 1, 0, 0, 0, 1, 0, 1, 0, 1, 1, 0, 1, 0, 0, 0, 0, 0, 1, 0, 1,
        1, 1, 0, 1, 0, 1, 1, 1, 0, 0, 0, 1, 1, 1, 1, 0])
--train>>-model--summary---- SimpleNet(
  (fc1): Linear(in_features=12288, out_features=84, bias=True)
  (fc2): Linear(in_features=84, out_features=50, bias=True)
  (fc3): Linear(in_features=50, out_features=2, bias=True)
)
--train>>-model-loss--- tensor(0.0081, device='cuda:0', grad_fn=<NllLossBackward0>)
---targets---- tensor([1, 1, 0, 1, 0, 1, 0, 1, 0, 1, 0, 1, 0, 1, 1, 1, 1, 0, 0, 1, 1, 0, 0, 0,
        1, 1, 0, 0, 0, 1, 1, 1, 1, 1, 0, 0, 0, 0, 0, 0, 1, 0, 0, 0, 0, 0, 0, 0,
        1, 1, 1, 1, 0, 0, 1, 0, 1, 1, 0, 0, 0, 1, 0, 0])
--train>>-model--summary---- SimpleNet(
  (fc1): Linear(in_features=12288, out_features=84, bias=True)
  (fc2): Linear(in_features=84, out_features=50, bias=True)
  (fc3): Linear(in_features=50, out_features=2, bias=True)
)
--train>>-model-loss--- tensor(0.0126, device='cuda:0', grad_fn=<NllLossBackward0>)
---targets---- tensor([1, 0, 1, 1, 0, 1, 0, 1, 1, 1, 1, 1, 0, 0, 1, 1, 0, 1, 1, 0, 0, 0, 1, 0,
        0, 1, 1, 0, 1, 1, 0, 1, 0, 0, 0, 1, 1, 1, 0, 1, 1, 1, 0, 1, 0, 0, 0, 1,
        1, 0, 0, 1, 1, 1, 0, 1, 1, 0, 0, 1, 0, 1, 1, 0])
--train>>-model--summary---- SimpleNet(
  (fc1): Linear(in_features=12288, out_features=84, bias=True)
  (fc2): Linear(in_features=84, out_features=50, bias=True)
  (fc3): Linear(in_features=50, out_features=2, bias=True)
)
--train>>-model-loss--- tensor(0.1371, device='cuda:0', grad_fn=<NllLossBackward0>)
---targets---- tensor([0, 0, 0, 1, 0, 0, 1, 0, 1, 1, 1, 1, 0, 1, 0, 0, 0, 0, 0, 0, 1, 1, 1, 1,
        0, 1, 0, 0, 1, 1, 1, 0, 1, 1, 1, 1, 0, 1, 0, 0, 0, 1, 0, 1, 1, 1, 1, 0,
        0, 1, 0, 1, 1, 1, 1, 1, 0, 1, 0, 0, 1, 0, 0, 1])
--train>>-model--summary---- SimpleNet(
  (fc1): Linear(in_features=12288, out_features=84, bias=True)
  (fc2): Linear(in_features=84, out_features=50, bias=True)
  (fc3): Linear(in_features=50, out_features=2, bias=True)
)
--train>>-model-loss--- tensor(0.0083, device='cuda:0', grad_fn=<NllLossBackward0>)
---targets---- tensor([1, 1, 1, 0, 1, 0, 1, 0, 0, 0, 0, 1, 0, 0, 0, 1, 0, 0, 0, 0, 1, 0, 0, 0,
        1, 0, 1, 1, 0, 1, 1, 1, 0, 0, 0, 0, 0, 1, 0, 0])
--train>>-model--summary---- SimpleNet(
  (fc1): Linear(in_features=12288, out_features=84, bias=True)
  (fc2): Linear(in_features=84, out_features=50, bias=True)
  (fc3): Linear(in_features=50, out_features=2, bias=True)
)
--train>>-model-loss--- tensor(0.0074, device='cuda:0', grad_fn=<NllLossBackward0>)
--------targets.shape------ torch.Size([64])
--------inputs.size(0)------ 64
--train>>-model--summary-2--- SimpleNet(
  (fc1): Linear(in_features=12288, out_features=84, bias=True)
  (fc2): Linear(in_features=84, out_features=50, bias=True)
  (fc3): Linear(in_features=50, out_features=2, bias=True)
)
--------output.size(0)------ 64
--------targets.shape------ torch.Size([64])
--------inputs.size(0)------ 64
--train>>-model--summary-2--- SimpleNet(
  (fc1): Linear(in_features=12288, out_features=84, bias=True)
  (fc2): Linear(in_features=84, out_features=50, bias=True)
  (fc3): Linear(in_features=50, out_features=2, bias=True)
)
--------output.size(0)------ 64
--------targets.shape------ torch.Size([64])
--------inputs.size(0)------ 64
--train>>-model--summary-2--- SimpleNet(
  (fc1): Linear(in_features=12288, out_features=84, bias=True)
  (fc2): Linear(in_features=84, out_features=50, bias=True)
  (fc3): Linear(in_features=50, out_features=2, bias=True)
)
--------output.size(0)------ 64
--------targets.shape------ torch.Size([64])
--------inputs.size(0)------ 64
--train>>-model--summary-2--- SimpleNet(
  (fc1): Linear(in_features=12288, out_features=84, bias=True)
  (fc2): Linear(in_features=84, out_features=50, bias=True)
  (fc3): Linear(in_features=50, out_features=2, bias=True)
)
--------output.size(0)------ 64
--------targets.shape------ torch.Size([64])
--------inputs.size(0)------ 64
--train>>-model--summary-2--- SimpleNet(
  (fc1): Linear(in_features=12288, out_features=84, bias=True)
  (fc2): Linear(in_features=84, out_features=50, bias=True)
  (fc3): Linear(in_features=50, out_features=2, bias=True)
)
--------output.size(0)------ 64
--------targets.shape------ torch.Size([64])
--------inputs.size(0)------ 64
--train>>-model--summary-2--- SimpleNet(
  (fc1): Linear(in_features=12288, out_features=84, bias=True)
  (fc2): Linear(in_features=84, out_features=50, bias=True)
  (fc3): Linear(in_features=50, out_features=2, bias=True)
)
--------output.size(0)------ 64
--------targets.shape------ torch.Size([64])
--------inputs.size(0)------ 64
--train>>-model--summary-2--- SimpleNet(
  (fc1): Linear(in_features=12288, out_features=84, bias=True)
  (fc2): Linear(in_features=84, out_features=50, bias=True)
  (fc3): Linear(in_features=50, out_features=2, bias=True)
)
--------output.size(0)------ 64
--------targets.shape------ torch.Size([64])
--------inputs.size(0)------ 64
--train>>-model--summary-2--- SimpleNet(
  (fc1): Linear(in_features=12288, out_features=84, bias=True)
  (fc2): Linear(in_features=84, out_features=50, bias=True)
  (fc3): Linear(in_features=50, out_features=2, bias=True)
)
--------output.size(0)------ 64
--------targets.shape------ torch.Size([64])
--------inputs.size(0)------ 64
--train>>-model--summary-2--- SimpleNet(
  (fc1): Linear(in_features=12288, out_features=84, bias=True)
  (fc2): Linear(in_features=84, out_features=50, bias=True)
  (fc3): Linear(in_features=50, out_features=2, bias=True)
)
--------output.size(0)------ 64
--------targets.shape------ torch.Size([64])
--------inputs.size(0)------ 64
--train>>-model--summary-2--- SimpleNet(
  (fc1): Linear(in_features=12288, out_features=84, bias=True)
  (fc2): Linear(in_features=84, out_features=50, bias=True)
  (fc3): Linear(in_features=50, out_features=2, bias=True)
)
--------output.size(0)------ 64
--------targets.shape------ torch.Size([64])
--------inputs.size(0)------ 64
--train>>-model--summary-2--- SimpleNet(
  (fc1): Linear(in_features=12288, out_features=84, bias=True)
  (fc2): Linear(in_features=84, out_features=50, bias=True)
  (fc3): Linear(in_features=50, out_features=2, bias=True)
)
--------output.size(0)------ 64
--------targets.shape------ torch.Size([64])
--------inputs.size(0)------ 64
--train>>-model--summary-2--- SimpleNet(
  (fc1): Linear(in_features=12288, out_features=84, bias=True)
  (fc2): Linear(in_features=84, out_features=50, bias=True)
  (fc3): Linear(in_features=50, out_features=2, bias=True)
)
--------output.size(0)------ 64
--------targets.shape------ torch.Size([64])
--------inputs.size(0)------ 64
--train>>-model--summary-2--- SimpleNet(
  (fc1): Linear(in_features=12288, out_features=84, bias=True)
  (fc2): Linear(in_features=84, out_features=50, bias=True)
  (fc3): Linear(in_features=50, out_features=2, bias=True)
)
--------output.size(0)------ 64
--------targets.shape------ torch.Size([64])
--------inputs.size(0)------ 64
--train>>-model--summary-2--- SimpleNet(
  (fc1): Linear(in_features=12288, out_features=84, bias=True)
  (fc2): Linear(in_features=84, out_features=50, bias=True)
  (fc3): Linear(in_features=50, out_features=2, bias=True)
)
--------output.size(0)------ 64
--------targets.shape------ torch.Size([40])
--------inputs.size(0)------ 40
--train>>-model--summary-2--- SimpleNet(
  (fc1): Linear(in_features=12288, out_features=84, bias=True)
  (fc2): Linear(in_features=84, out_features=50, bias=True)
  (fc3): Linear(in_features=50, out_features=2, bias=True)
)
--------output.size(0)------ 40
-TRAIN----torch.cuda.memory_allocated---> 0.02 GB
Epoch:3,TRAIN_Loss:0.04,VAL_Loss:0.02, Accuracy = 0.99
---targets---- tensor([0, 0, 0, 1, 0, 0, 1, 0, 0, 1, 0, 0, 1, 0, 1, 0, 0, 0, 0, 0, 1, 0, 1, 1,
        0, 0, 1, 0, 1, 1, 1, 1, 0, 0, 0, 0, 0, 1, 0, 0, 0, 0, 0, 0, 0, 0, 1, 1,
        0, 1, 1, 1, 0, 0, 0, 0, 0, 0, 1, 0, 0, 1, 0, 1])
--train>>-model--summary---- SimpleNet(
  (fc1): Linear(in_features=12288, out_features=84, bias=True)
  (fc2): Linear(in_features=84, out_features=50, bias=True)
  (fc3): Linear(in_features=50, out_features=2, bias=True)
)
--train>>-model-loss--- tensor(0.0131, device='cuda:0', grad_fn=<NllLossBackward0>)
---targets---- tensor([0, 0, 1, 1, 0, 1, 0, 0, 0, 1, 0, 1, 1, 0, 1, 0, 0, 1, 0, 1, 0, 0, 1, 1,
        0, 0, 0, 1, 0, 1, 1, 1, 1, 1, 0, 0, 1, 0, 1, 0, 1, 0, 1, 0, 0, 1, 0, 1,
        1, 1, 0, 1, 0, 0, 1, 0, 1, 1, 1, 0, 1, 0, 0, 0])
--train>>-model--summary---- SimpleNet(
  (fc1): Linear(in_features=12288, out_features=84, bias=True)
  (fc2): Linear(in_features=84, out_features=50, bias=True)
  (fc3): Linear(in_features=50, out_features=2, bias=True)
)
--train>>-model-loss--- tensor(0.0126, device='cuda:0', grad_fn=<NllLossBackward0>)
---targets---- tensor([0, 1, 0, 1, 0, 1, 0, 0, 1, 0, 1, 0, 1, 0, 1, 0, 0, 1, 0, 0, 0, 1, 1, 0,
        1, 1, 1, 0, 1, 1, 1, 1, 0, 1, 0, 0, 1, 0, 1, 1, 0, 1, 0, 0, 0, 0, 1, 1,
        1, 1, 1, 0, 1, 0, 1, 1, 1, 0, 1, 1, 0, 0, 0, 1])
--train>>-model--summary---- SimpleNet(
  (fc1): Linear(in_features=12288, out_features=84, bias=True)
  (fc2): Linear(in_features=84, out_features=50, bias=True)
  (fc3): Linear(in_features=50, out_features=2, bias=True)
)
--train>>-model-loss--- tensor(0.0157, device='cuda:0', grad_fn=<NllLossBackward0>)
---targets---- tensor([0, 0, 0, 0, 0, 1, 0, 0, 1, 0, 0, 0, 1, 1, 0, 0, 1, 1, 1, 0, 0, 0, 0, 1,
        0, 1, 1, 0, 0, 1, 1, 1, 0, 0, 0, 0, 0, 0, 1, 0, 1, 0, 1, 0, 1, 0, 0, 0,
        0, 0, 1, 1, 0, 1, 1, 0, 0, 1, 0, 0, 1, 0, 0, 1])
--train>>-model--summary---- SimpleNet(
  (fc1): Linear(in_features=12288, out_features=84, bias=True)
  (fc2): Linear(in_features=84, out_features=50, bias=True)
  (fc3): Linear(in_features=50, out_features=2, bias=True)
)
--train>>-model-loss--- tensor(0.0154, device='cuda:0', grad_fn=<NllLossBackward0>)
---targets---- tensor([0, 0, 1, 1, 1, 0, 0, 1, 0, 0, 1, 0, 0, 0, 1, 1, 0, 0, 1, 0, 1, 1, 0, 0,
        1, 1, 0, 0, 0, 1, 1, 0, 0, 0, 0, 0, 1, 0, 0, 0, 1, 0, 0, 0, 1, 0, 0, 1,
        0, 0, 0, 1, 1, 1, 1, 0, 1, 0, 0, 1, 0, 1, 1, 1])
--train>>-model--summary---- SimpleNet(
  (fc1): Linear(in_features=12288, out_features=84, bias=True)
  (fc2): Linear(in_features=84, out_features=50, bias=True)
  (fc3): Linear(in_features=50, out_features=2, bias=True)
)
--train>>-model-loss--- tensor(0.0282, device='cuda:0', grad_fn=<NllLossBackward0>)
---targets---- tensor([1, 0, 0, 1, 0, 1, 1, 1, 0, 1, 0, 1, 0, 1, 0, 1, 1, 0, 1, 0, 1, 1, 0, 1,
        0, 0, 0, 1, 0, 0, 1, 0, 0, 0, 1, 1, 0, 0, 0, 1, 1, 0, 0, 1, 1, 0, 0, 0,
        0, 1, 1, 0, 0, 1, 0, 0, 0, 1, 0, 1, 1, 0, 0, 1])
--train>>-model--summary---- SimpleNet(
  (fc1): Linear(in_features=12288, out_features=84, bias=True)
  (fc2): Linear(in_features=84, out_features=50, bias=True)
  (fc3): Linear(in_features=50, out_features=2, bias=True)
)
--train>>-model-loss--- tensor(0.0156, device='cuda:0', grad_fn=<NllLossBackward0>)
---targets---- tensor([0, 0, 0, 0, 1, 1, 1, 1, 1, 0, 1, 0, 1, 0, 1, 0, 1, 1, 1, 1, 1, 1, 0, 0,
        1, 0, 1, 1, 0, 1, 1, 0, 1, 0, 0, 0, 1, 1, 0, 1, 0, 0, 0, 0, 1, 0, 1, 1,
        0, 0, 0, 1, 0, 0, 0, 0, 1, 1, 1, 0, 0, 0, 1, 1])
--train>>-model--summary---- SimpleNet(
  (fc1): Linear(in_features=12288, out_features=84, bias=True)
  (fc2): Linear(in_features=84, out_features=50, bias=True)
  (fc3): Linear(in_features=50, out_features=2, bias=True)
)
--train>>-model-loss--- tensor(0.0276, device='cuda:0', grad_fn=<NllLossBackward0>)
---targets---- tensor([0, 1, 0, 0, 0, 0, 0, 1, 0, 0, 1, 1, 0, 0, 0, 0, 1, 1, 1, 1, 0, 0, 0, 1,
        0, 1, 1, 0, 1, 0, 1, 1, 0, 1, 1, 1, 0, 1, 0, 0, 1, 0, 0, 0, 1, 0, 1, 0,
        1, 1, 1, 1, 1, 1, 1, 1, 0, 1, 1, 0, 0, 0, 0, 1])
--train>>-model--summary---- SimpleNet(
  (fc1): Linear(in_features=12288, out_features=84, bias=True)
  (fc2): Linear(in_features=84, out_features=50, bias=True)
  (fc3): Linear(in_features=50, out_features=2, bias=True)
)
--train>>-model-loss--- tensor(0.0183, device='cuda:0', grad_fn=<NllLossBackward0>)
---targets---- tensor([1, 0, 1, 0, 0, 0, 0, 1, 1, 0, 0, 1, 0, 0, 0, 1, 0, 1, 0, 0, 1, 0, 1, 1,
        1, 1, 0, 1, 0, 1, 1, 0, 1, 0, 0, 1, 0, 1, 0, 0, 0, 0, 1, 0, 1, 1, 0, 1,
        1, 1, 1, 1, 1, 1, 1, 0, 1, 0, 0, 0, 0, 1, 1, 1])
--train>>-model--summary---- SimpleNet(
  (fc1): Linear(in_features=12288, out_features=84, bias=True)
  (fc2): Linear(in_features=84, out_features=50, bias=True)
  (fc3): Linear(in_features=50, out_features=2, bias=True)
)
--train>>-model-loss--- tensor(0.0235, device='cuda:0', grad_fn=<NllLossBackward0>)
---targets---- tensor([0, 1, 0, 1, 1, 0, 1, 0, 1, 1, 1, 0, 1, 0, 1, 0, 1, 0, 0, 0, 0, 1, 0, 0,
        1, 1, 0, 0, 0, 0, 0, 0, 1, 0, 0, 0, 0, 0, 0, 1, 0, 0, 1, 1, 1, 0, 0, 1,
        1, 0, 1, 1, 1, 0, 1, 1, 0, 1, 1, 1, 1, 1, 0, 0])
--train>>-model--summary---- SimpleNet(
  (fc1): Linear(in_features=12288, out_features=84, bias=True)
  (fc2): Linear(in_features=84, out_features=50, bias=True)
  (fc3): Linear(in_features=50, out_features=2, bias=True)
)
--train>>-model-loss--- tensor(0.0048, device='cuda:0', grad_fn=<NllLossBackward0>)
---targets---- tensor([0, 1, 0, 1, 0, 1, 0, 1, 0, 1, 0, 0, 0, 1, 1, 1, 1, 0, 0, 1, 1, 0, 1, 1,
        1, 0, 0, 0, 1, 1, 1, 1, 1, 0, 1, 1, 0, 1, 1, 0, 0, 1, 1, 1, 1, 1, 1, 0,
        0, 0, 1, 0, 0, 0, 0, 0, 0, 0, 0, 1, 1, 0, 0, 0])
--train>>-model--summary---- SimpleNet(
  (fc1): Linear(in_features=12288, out_features=84, bias=True)
  (fc2): Linear(in_features=84, out_features=50, bias=True)
  (fc3): Linear(in_features=50, out_features=2, bias=True)
)
--train>>-model-loss--- tensor(0.0033, device='cuda:0', grad_fn=<NllLossBackward0>)
---targets---- tensor([1, 1, 1, 1, 0, 0, 1, 1, 1, 1, 0, 0, 0, 0, 1, 1, 0, 0, 0, 1, 0, 1, 0, 1,
        1, 1, 0, 1, 0, 1, 0, 1, 0, 1, 0, 0, 1, 0, 1, 1, 0, 1, 1, 0, 1, 0, 1, 1,
        0, 0, 1, 0, 0, 0, 1, 0, 1, 0, 1, 1, 1, 0, 1, 0])
--train>>-model--summary---- SimpleNet(
  (fc1): Linear(in_features=12288, out_features=84, bias=True)
  (fc2): Linear(in_features=84, out_features=50, bias=True)
  (fc3): Linear(in_features=50, out_features=2, bias=True)
)
--train>>-model-loss--- tensor(0.0429, device='cuda:0', grad_fn=<NllLossBackward0>)
---targets---- tensor([1, 0, 1, 0, 0, 1, 0, 1, 0, 1, 0, 1, 0, 1, 0, 0, 1, 1, 1, 1, 0, 0, 1, 0,
        0, 1, 0, 1, 1, 0, 0, 0, 0, 0, 1, 0, 0, 0, 0, 1, 1, 1, 1, 0, 1, 0, 1, 0,
        0, 0, 1, 0, 0, 1, 0, 0, 0, 1, 0, 1, 1, 0, 0, 1])
--train>>-model--summary---- SimpleNet(
  (fc1): Linear(in_features=12288, out_features=84, bias=True)
  (fc2): Linear(in_features=84, out_features=50, bias=True)
  (fc3): Linear(in_features=50, out_features=2, bias=True)
)
--train>>-model-loss--- tensor(0.0898, device='cuda:0', grad_fn=<NllLossBackward0>)
---targets---- tensor([0, 1, 0, 1, 0, 0, 1, 1, 0, 0, 0, 0, 1, 1, 0, 1, 1, 0, 0, 1, 0, 1, 0, 0,
        1, 1, 0, 1, 0, 0, 0, 1, 1, 0, 1, 1, 0, 0, 0, 1, 1, 0, 0, 0, 0, 0, 1, 0,
        0, 1, 1, 0, 0, 1, 0, 1, 1, 0, 1, 0, 0, 0, 1, 1])
--train>>-model--summary---- SimpleNet(
  (fc1): Linear(in_features=12288, out_features=84, bias=True)
  (fc2): Linear(in_features=84, out_features=50, bias=True)
  (fc3): Linear(in_features=50, out_features=2, bias=True)
)
--train>>-model-loss--- tensor(0.0026, device='cuda:0', grad_fn=<NllLossBackward0>)
---targets---- tensor([1, 1, 0, 0, 0, 0, 1, 1, 0, 1, 0, 0, 1, 0, 0, 0, 1, 0, 1, 1, 1, 1, 0, 1,
        0, 0, 0, 1, 0, 0, 1, 1, 1, 1, 0, 0, 0, 1, 1, 0])
--train>>-model--summary---- SimpleNet(
  (fc1): Linear(in_features=12288, out_features=84, bias=True)
  (fc2): Linear(in_features=84, out_features=50, bias=True)
  (fc3): Linear(in_features=50, out_features=2, bias=True)
)
--train>>-model-loss--- tensor(0.0372, device='cuda:0', grad_fn=<NllLossBackward0>)
--------targets.shape------ torch.Size([64])
--------inputs.size(0)------ 64
--train>>-model--summary-2--- SimpleNet(
  (fc1): Linear(in_features=12288, out_features=84, bias=True)
  (fc2): Linear(in_features=84, out_features=50, bias=True)
  (fc3): Linear(in_features=50, out_features=2, bias=True)
)
--------output.size(0)------ 64
--------targets.shape------ torch.Size([64])
--------inputs.size(0)------ 64
--train>>-model--summary-2--- SimpleNet(
  (fc1): Linear(in_features=12288, out_features=84, bias=True)
  (fc2): Linear(in_features=84, out_features=50, bias=True)
  (fc3): Linear(in_features=50, out_features=2, bias=True)
)
--------output.size(0)------ 64
--------targets.shape------ torch.Size([64])
--------inputs.size(0)------ 64
--train>>-model--summary-2--- SimpleNet(
  (fc1): Linear(in_features=12288, out_features=84, bias=True)
  (fc2): Linear(in_features=84, out_features=50, bias=True)
  (fc3): Linear(in_features=50, out_features=2, bias=True)
)
--------output.size(0)------ 64
--------targets.shape------ torch.Size([64])
--------inputs.size(0)------ 64
--train>>-model--summary-2--- SimpleNet(
  (fc1): Linear(in_features=12288, out_features=84, bias=True)
  (fc2): Linear(in_features=84, out_features=50, bias=True)
  (fc3): Linear(in_features=50, out_features=2, bias=True)
)
--------output.size(0)------ 64
--------targets.shape------ torch.Size([64])
--------inputs.size(0)------ 64
--train>>-model--summary-2--- SimpleNet(
  (fc1): Linear(in_features=12288, out_features=84, bias=True)
  (fc2): Linear(in_features=84, out_features=50, bias=True)
  (fc3): Linear(in_features=50, out_features=2, bias=True)
)
--------output.size(0)------ 64
--------targets.shape------ torch.Size([64])
--------inputs.size(0)------ 64
--train>>-model--summary-2--- SimpleNet(
  (fc1): Linear(in_features=12288, out_features=84, bias=True)
  (fc2): Linear(in_features=84, out_features=50, bias=True)
  (fc3): Linear(in_features=50, out_features=2, bias=True)
)
--------output.size(0)------ 64
--------targets.shape------ torch.Size([64])
--------inputs.size(0)------ 64
--train>>-model--summary-2--- SimpleNet(
  (fc1): Linear(in_features=12288, out_features=84, bias=True)
  (fc2): Linear(in_features=84, out_features=50, bias=True)
  (fc3): Linear(in_features=50, out_features=2, bias=True)
)
--------output.size(0)------ 64
--------targets.shape------ torch.Size([64])
--------inputs.size(0)------ 64
--train>>-model--summary-2--- SimpleNet(
  (fc1): Linear(in_features=12288, out_features=84, bias=True)
  (fc2): Linear(in_features=84, out_features=50, bias=True)
  (fc3): Linear(in_features=50, out_features=2, bias=True)
)
--------output.size(0)------ 64
--------targets.shape------ torch.Size([64])
--------inputs.size(0)------ 64
--train>>-model--summary-2--- SimpleNet(
  (fc1): Linear(in_features=12288, out_features=84, bias=True)
  (fc2): Linear(in_features=84, out_features=50, bias=True)
  (fc3): Linear(in_features=50, out_features=2, bias=True)
)
--------output.size(0)------ 64
--------targets.shape------ torch.Size([64])
--------inputs.size(0)------ 64
--train>>-model--summary-2--- SimpleNet(
  (fc1): Linear(in_features=12288, out_features=84, bias=True)
  (fc2): Linear(in_features=84, out_features=50, bias=True)
  (fc3): Linear(in_features=50, out_features=2, bias=True)
)
--------output.size(0)------ 64
--------targets.shape------ torch.Size([64])
--------inputs.size(0)------ 64
--train>>-model--summary-2--- SimpleNet(
  (fc1): Linear(in_features=12288, out_features=84, bias=True)
  (fc2): Linear(in_features=84, out_features=50, bias=True)
  (fc3): Linear(in_features=50, out_features=2, bias=True)
)
--------output.size(0)------ 64
--------targets.shape------ torch.Size([64])
--------inputs.size(0)------ 64
--train>>-model--summary-2--- SimpleNet(
  (fc1): Linear(in_features=12288, out_features=84, bias=True)
  (fc2): Linear(in_features=84, out_features=50, bias=True)
  (fc3): Linear(in_features=50, out_features=2, bias=True)
)
--------output.size(0)------ 64
--------targets.shape------ torch.Size([64])
--------inputs.size(0)------ 64
--train>>-model--summary-2--- SimpleNet(
  (fc1): Linear(in_features=12288, out_features=84, bias=True)
  (fc2): Linear(in_features=84, out_features=50, bias=True)
  (fc3): Linear(in_features=50, out_features=2, bias=True)
)
--------output.size(0)------ 64
--------targets.shape------ torch.Size([64])
--------inputs.size(0)------ 64
--train>>-model--summary-2--- SimpleNet(
  (fc1): Linear(in_features=12288, out_features=84, bias=True)
  (fc2): Linear(in_features=84, out_features=50, bias=True)
  (fc3): Linear(in_features=50, out_features=2, bias=True)
)
--------output.size(0)------ 64
--------targets.shape------ torch.Size([40])
--------inputs.size(0)------ 40
--train>>-model--summary-2--- SimpleNet(
  (fc1): Linear(in_features=12288, out_features=84, bias=True)
  (fc2): Linear(in_features=84, out_features=50, bias=True)
  (fc3): Linear(in_features=50, out_features=2, bias=True)
)
--------output.size(0)------ 40
-TRAIN----torch.cuda.memory_allocated---> 0.02 GB
Epoch:4,TRAIN_Loss:0.02,VAL_Loss:0.05, Accuracy = 0.98
---targets---- tensor([0, 0, 1, 0, 1, 1, 0, 0, 0, 0, 1, 0, 0, 0, 1, 0, 1, 1, 1, 1, 0, 1, 1, 1,
        1, 0, 1, 1, 0, 1, 1, 0, 0, 0, 1, 1, 0, 1, 1, 1, 0, 1, 0, 0, 1, 1, 0, 1,
        0, 1, 0, 1, 0, 1, 0, 1, 0, 1, 1, 0, 0, 0, 0, 1])
--train>>-model--summary---- SimpleNet(
  (fc1): Linear(in_features=12288, out_features=84, bias=True)
  (fc2): Linear(in_features=84, out_features=50, bias=True)
  (fc3): Linear(in_features=50, out_features=2, bias=True)
)
--train>>-model-loss--- tensor(0.0111, device='cuda:0', grad_fn=<NllLossBackward0>)
---targets---- tensor([0, 1, 0, 1, 1, 0, 1, 1, 0, 1, 0, 0, 0, 1, 1, 1, 0, 1, 1, 1, 0, 0, 1, 1,
        0, 1, 1, 0, 0, 1, 0, 0, 1, 0, 1, 0, 1, 1, 0, 1, 0, 0, 1, 0, 1, 0, 0, 1,
        0, 0, 0, 1, 0, 1, 1, 0, 0, 0, 0, 1, 1, 0, 1, 1])
--train>>-model--summary---- SimpleNet(
  (fc1): Linear(in_features=12288, out_features=84, bias=True)
  (fc2): Linear(in_features=84, out_features=50, bias=True)
  (fc3): Linear(in_features=50, out_features=2, bias=True)
)
--train>>-model-loss--- tensor(0.0614, device='cuda:0', grad_fn=<NllLossBackward0>)
---targets---- tensor([1, 0, 1, 0, 1, 0, 0, 1, 0, 1, 0, 0, 0, 0, 0, 0, 0, 0, 0, 0, 1, 1, 0, 0,
        1, 1, 0, 0, 0, 1, 1, 1, 0, 1, 1, 1, 0, 0, 0, 1, 0, 0, 0, 0, 0, 0, 1, 0,
        1, 1, 0, 1, 1, 0, 0, 0, 1, 0, 0, 1, 1, 0, 0, 1])
--train>>-model--summary---- SimpleNet(
  (fc1): Linear(in_features=12288, out_features=84, bias=True)
  (fc2): Linear(in_features=84, out_features=50, bias=True)
  (fc3): Linear(in_features=50, out_features=2, bias=True)
)
--train>>-model-loss--- tensor(0.0419, device='cuda:0', grad_fn=<NllLossBackward0>)
---targets---- tensor([0, 0, 1, 0, 0, 1, 1, 0, 0, 0, 0, 0, 0, 1, 0, 1, 1, 0, 0, 0, 0, 0, 0, 0,
        1, 1, 0, 1, 1, 1, 0, 0, 0, 1, 1, 1, 0, 1, 1, 0, 1, 0, 0, 1, 0, 1, 0, 1,
        1, 1, 1, 0, 0, 0, 1, 0, 0, 1, 0, 0, 0, 0, 0, 0])
--train>>-model--summary---- SimpleNet(
  (fc1): Linear(in_features=12288, out_features=84, bias=True)
  (fc2): Linear(in_features=84, out_features=50, bias=True)
  (fc3): Linear(in_features=50, out_features=2, bias=True)
)
--train>>-model-loss--- tensor(0.0033, device='cuda:0', grad_fn=<NllLossBackward0>)
---targets---- tensor([0, 0, 0, 1, 0, 1, 1, 0, 0, 1, 1, 1, 1, 1, 0, 0, 0, 1, 0, 0, 0, 1, 1, 0,
        0, 1, 1, 0, 1, 0, 1, 1, 0, 0, 0, 1, 0, 0, 0, 0, 1, 1, 1, 1, 0, 1, 0, 1,
        1, 1, 1, 0, 0, 0, 0, 0, 1, 0, 1, 0, 0, 1, 0, 0])
--train>>-model--summary---- SimpleNet(
  (fc1): Linear(in_features=12288, out_features=84, bias=True)
  (fc2): Linear(in_features=84, out_features=50, bias=True)
  (fc3): Linear(in_features=50, out_features=2, bias=True)
)
--train>>-model-loss--- tensor(0.0036, device='cuda:0', grad_fn=<NllLossBackward0>)
---targets---- tensor([0, 1, 1, 0, 0, 0, 0, 1, 0, 0, 0, 1, 1, 0, 0, 0, 0, 1, 1, 1, 1, 1, 1, 1,
        0, 0, 0, 1, 1, 0, 0, 0, 1, 1, 1, 1, 1, 0, 0, 0, 0, 0, 0, 0, 0, 0, 1, 1,
        1, 1, 0, 1, 0, 1, 0, 0, 1, 1, 0, 0, 0, 0, 0, 0])
--train>>-model--summary---- SimpleNet(
  (fc1): Linear(in_features=12288, out_features=84, bias=True)
  (fc2): Linear(in_features=84, out_features=50, bias=True)
  (fc3): Linear(in_features=50, out_features=2, bias=True)
)
--train>>-model-loss--- tensor(0.0552, device='cuda:0', grad_fn=<NllLossBackward0>)
---targets---- tensor([1, 0, 0, 0, 0, 1, 0, 0, 0, 0, 1, 1, 0, 1, 1, 0, 1, 0, 1, 1, 1, 0, 1, 0,
        0, 1, 1, 0, 1, 0, 1, 0, 0, 0, 0, 1, 1, 1, 0, 0, 0, 1, 1, 1, 0, 0, 0, 1,
        1, 1, 0, 1, 0, 1, 1, 0, 0, 1, 1, 1, 0, 0, 0, 1])
--train>>-model--summary---- SimpleNet(
  (fc1): Linear(in_features=12288, out_features=84, bias=True)
  (fc2): Linear(in_features=84, out_features=50, bias=True)
  (fc3): Linear(in_features=50, out_features=2, bias=True)
)
--train>>-model-loss--- tensor(0.0254, device='cuda:0', grad_fn=<NllLossBackward0>)
---targets---- tensor([0, 0, 1, 0, 1, 0, 0, 0, 1, 0, 0, 1, 0, 1, 1, 0, 0, 1, 0, 0, 0, 1, 1, 1,
        0, 0, 1, 1, 0, 1, 1, 0, 0, 0, 0, 1, 0, 1, 0, 0, 1, 1, 0, 0, 0, 1, 1, 0,
        0, 0, 1, 1, 0, 1, 1, 1, 0, 0, 1, 0, 1, 0, 0, 0])
--train>>-model--summary---- SimpleNet(
  (fc1): Linear(in_features=12288, out_features=84, bias=True)
  (fc2): Linear(in_features=84, out_features=50, bias=True)
  (fc3): Linear(in_features=50, out_features=2, bias=True)
)
--train>>-model-loss--- tensor(0.0535, device='cuda:0', grad_fn=<NllLossBackward0>)
---targets---- tensor([1, 0, 1, 0, 1, 0, 0, 0, 1, 0, 1, 1, 0, 1, 0, 0, 0, 1, 0, 0, 1, 1, 1, 0,
        1, 0, 1, 0, 0, 0, 1, 0, 0, 1, 0, 1, 0, 0, 1, 1, 1, 0, 0, 0, 1, 0, 0, 0,
        1, 1, 0, 0, 0, 0, 1, 1, 0, 1, 0, 0, 1, 1, 1, 0])
--train>>-model--summary---- SimpleNet(
  (fc1): Linear(in_features=12288, out_features=84, bias=True)
  (fc2): Linear(in_features=84, out_features=50, bias=True)
  (fc3): Linear(in_features=50, out_features=2, bias=True)
)
--train>>-model-loss--- tensor(0.0040, device='cuda:0', grad_fn=<NllLossBackward0>)
---targets---- tensor([1, 0, 1, 0, 0, 0, 0, 0, 0, 1, 0, 0, 1, 1, 0, 0, 1, 1, 1, 0, 1, 1, 0, 1,
        0, 0, 1, 0, 1, 0, 0, 0, 0, 0, 1, 0, 1, 1, 0, 1, 1, 1, 1, 1, 0, 0, 0, 1,
        0, 1, 1, 0, 0, 1, 0, 0, 1, 0, 1, 0, 1, 1, 0, 1])
--train>>-model--summary---- SimpleNet(
  (fc1): Linear(in_features=12288, out_features=84, bias=True)
  (fc2): Linear(in_features=84, out_features=50, bias=True)
  (fc3): Linear(in_features=50, out_features=2, bias=True)
)
--train>>-model-loss--- tensor(0.0886, device='cuda:0', grad_fn=<NllLossBackward0>)
---targets---- tensor([0, 1, 0, 0, 1, 0, 1, 1, 1, 1, 0, 1, 0, 0, 1, 0, 1, 0, 1, 1, 0, 0, 0, 1,
        1, 1, 0, 0, 0, 1, 1, 1, 1, 1, 1, 0, 1, 0, 1, 1, 0, 1, 0, 0, 1, 0, 1, 0,
        1, 0, 1, 0, 1, 1, 0, 0, 1, 1, 0, 1, 0, 1, 0, 0])
--train>>-model--summary---- SimpleNet(
  (fc1): Linear(in_features=12288, out_features=84, bias=True)
  (fc2): Linear(in_features=84, out_features=50, bias=True)
  (fc3): Linear(in_features=50, out_features=2, bias=True)
)
--train>>-model-loss--- tensor(0.1407, device='cuda:0', grad_fn=<NllLossBackward0>)
---targets---- tensor([1, 0, 1, 1, 0, 1, 1, 0, 0, 0, 0, 1, 0, 1, 1, 1, 0, 1, 0, 0, 1, 0, 0, 1,
        0, 1, 1, 1, 1, 1, 1, 1, 0, 1, 0, 0, 1, 1, 0, 1, 0, 0, 1, 0, 1, 0, 1, 1,
        1, 1, 0, 1, 1, 1, 0, 0, 0, 0, 1, 0, 1, 0, 1, 1])
--train>>-model--summary---- SimpleNet(
  (fc1): Linear(in_features=12288, out_features=84, bias=True)
  (fc2): Linear(in_features=84, out_features=50, bias=True)
  (fc3): Linear(in_features=50, out_features=2, bias=True)
)
--train>>-model-loss--- tensor(0.0189, device='cuda:0', grad_fn=<NllLossBackward0>)
---targets---- tensor([0, 0, 0, 1, 0, 0, 0, 1, 0, 0, 1, 1, 1, 1, 0, 0, 0, 1, 1, 0, 1, 0, 0, 1,
        1, 0, 1, 1, 1, 1, 1, 0, 1, 0, 1, 0, 1, 0, 0, 1, 0, 1, 1, 0, 0, 1, 1, 1,
        0, 1, 0, 0, 1, 1, 0, 1, 0, 0, 1, 1, 1, 0, 1, 1])
--train>>-model--summary---- SimpleNet(
  (fc1): Linear(in_features=12288, out_features=84, bias=True)
  (fc2): Linear(in_features=84, out_features=50, bias=True)
  (fc3): Linear(in_features=50, out_features=2, bias=True)
)
--train>>-model-loss--- tensor(0.0806, device='cuda:0', grad_fn=<NllLossBackward0>)
---targets---- tensor([1, 1, 0, 0, 1, 1, 0, 1, 1, 0, 1, 0, 1, 1, 1, 0, 1, 0, 0, 1, 0, 0, 0, 0,
        1, 0, 0, 1, 0, 1, 0, 0, 1, 0, 0, 1, 0, 0, 1, 0, 1, 1, 1, 0, 1, 0, 1, 0,
        0, 0, 0, 1, 0, 0, 0, 1, 0, 0, 0, 0, 0, 0, 0, 1])
--train>>-model--summary---- SimpleNet(
  (fc1): Linear(in_features=12288, out_features=84, bias=True)
  (fc2): Linear(in_features=84, out_features=50, bias=True)
  (fc3): Linear(in_features=50, out_features=2, bias=True)
)
--train>>-model-loss--- tensor(0.0514, device='cuda:0', grad_fn=<NllLossBackward0>)
---targets---- tensor([1, 1, 1, 1, 0, 1, 0, 0, 0, 1, 0, 0, 1, 1, 1, 0, 0, 0, 0, 0, 0, 1, 1, 1,
        0, 1, 1, 0, 0, 0, 0, 1, 0, 1, 1, 0, 0, 0, 1, 0])
--train>>-model--summary---- SimpleNet(
  (fc1): Linear(in_features=12288, out_features=84, bias=True)
  (fc2): Linear(in_features=84, out_features=50, bias=True)
  (fc3): Linear(in_features=50, out_features=2, bias=True)
)
--train>>-model-loss--- tensor(0.0137, device='cuda:0', grad_fn=<NllLossBackward0>)
--------targets.shape------ torch.Size([64])
--------inputs.size(0)------ 64
--train>>-model--summary-2--- SimpleNet(
  (fc1): Linear(in_features=12288, out_features=84, bias=True)
  (fc2): Linear(in_features=84, out_features=50, bias=True)
  (fc3): Linear(in_features=50, out_features=2, bias=True)
)
--------output.size(0)------ 64
--------targets.shape------ torch.Size([64])
--------inputs.size(0)------ 64
--train>>-model--summary-2--- SimpleNet(
  (fc1): Linear(in_features=12288, out_features=84, bias=True)
  (fc2): Linear(in_features=84, out_features=50, bias=True)
  (fc3): Linear(in_features=50, out_features=2, bias=True)
)
--------output.size(0)------ 64
--------targets.shape------ torch.Size([64])
--------inputs.size(0)------ 64
--train>>-model--summary-2--- SimpleNet(
  (fc1): Linear(in_features=12288, out_features=84, bias=True)
  (fc2): Linear(in_features=84, out_features=50, bias=True)
  (fc3): Linear(in_features=50, out_features=2, bias=True)
)
--------output.size(0)------ 64
--------targets.shape------ torch.Size([64])
--------inputs.size(0)------ 64
--train>>-model--summary-2--- SimpleNet(
  (fc1): Linear(in_features=12288, out_features=84, bias=True)
  (fc2): Linear(in_features=84, out_features=50, bias=True)
  (fc3): Linear(in_features=50, out_features=2, bias=True)
)
--------output.size(0)------ 64
--------targets.shape------ torch.Size([64])
--------inputs.size(0)------ 64
--train>>-model--summary-2--- SimpleNet(
  (fc1): Linear(in_features=12288, out_features=84, bias=True)
  (fc2): Linear(in_features=84, out_features=50, bias=True)
  (fc3): Linear(in_features=50, out_features=2, bias=True)
)
--------output.size(0)------ 64
--------targets.shape------ torch.Size([64])
--------inputs.size(0)------ 64
--train>>-model--summary-2--- SimpleNet(
  (fc1): Linear(in_features=12288, out_features=84, bias=True)
  (fc2): Linear(in_features=84, out_features=50, bias=True)
  (fc3): Linear(in_features=50, out_features=2, bias=True)
)
--------output.size(0)------ 64
--------targets.shape------ torch.Size([64])
--------inputs.size(0)------ 64
--train>>-model--summary-2--- SimpleNet(
  (fc1): Linear(in_features=12288, out_features=84, bias=True)
  (fc2): Linear(in_features=84, out_features=50, bias=True)
  (fc3): Linear(in_features=50, out_features=2, bias=True)
)
--------output.size(0)------ 64
--------targets.shape------ torch.Size([64])
--------inputs.size(0)------ 64
--train>>-model--summary-2--- SimpleNet(
  (fc1): Linear(in_features=12288, out_features=84, bias=True)
  (fc2): Linear(in_features=84, out_features=50, bias=True)
  (fc3): Linear(in_features=50, out_features=2, bias=True)
)
--------output.size(0)------ 64
--------targets.shape------ torch.Size([64])
--------inputs.size(0)------ 64
--train>>-model--summary-2--- SimpleNet(
  (fc1): Linear(in_features=12288, out_features=84, bias=True)
  (fc2): Linear(in_features=84, out_features=50, bias=True)
  (fc3): Linear(in_features=50, out_features=2, bias=True)
)
--------output.size(0)------ 64
--------targets.shape------ torch.Size([64])
--------inputs.size(0)------ 64
--train>>-model--summary-2--- SimpleNet(
  (fc1): Linear(in_features=12288, out_features=84, bias=True)
  (fc2): Linear(in_features=84, out_features=50, bias=True)
  (fc3): Linear(in_features=50, out_features=2, bias=True)
)
--------output.size(0)------ 64
--------targets.shape------ torch.Size([64])
--------inputs.size(0)------ 64
--train>>-model--summary-2--- SimpleNet(
  (fc1): Linear(in_features=12288, out_features=84, bias=True)
  (fc2): Linear(in_features=84, out_features=50, bias=True)
  (fc3): Linear(in_features=50, out_features=2, bias=True)
)
--------output.size(0)------ 64
--------targets.shape------ torch.Size([64])
--------inputs.size(0)------ 64
--train>>-model--summary-2--- SimpleNet(
  (fc1): Linear(in_features=12288, out_features=84, bias=True)
  (fc2): Linear(in_features=84, out_features=50, bias=True)
  (fc3): Linear(in_features=50, out_features=2, bias=True)
)
--------output.size(0)------ 64
--------targets.shape------ torch.Size([64])
--------inputs.size(0)------ 64
--train>>-model--summary-2--- SimpleNet(
  (fc1): Linear(in_features=12288, out_features=84, bias=True)
  (fc2): Linear(in_features=84, out_features=50, bias=True)
  (fc3): Linear(in_features=50, out_features=2, bias=True)
)
--------output.size(0)------ 64
--------targets.shape------ torch.Size([64])
--------inputs.size(0)------ 64
--train>>-model--summary-2--- SimpleNet(
  (fc1): Linear(in_features=12288, out_features=84, bias=True)
  (fc2): Linear(in_features=84, out_features=50, bias=True)
  (fc3): Linear(in_features=50, out_features=2, bias=True)
)
--------output.size(0)------ 64
--------targets.shape------ torch.Size([40])
--------inputs.size(0)------ 40
--train>>-model--summary-2--- SimpleNet(
  (fc1): Linear(in_features=12288, out_features=84, bias=True)
  (fc2): Linear(in_features=84, out_features=50, bias=True)
  (fc3): Linear(in_features=50, out_features=2, bias=True)
)
--------output.size(0)------ 40
-TRAIN----torch.cuda.memory_allocated---> 0.02 GB
Epoch:5,TRAIN_Loss:0.04,VAL_Loss:0.01, Accuracy = 1.00
---targets---- tensor([0, 1, 0, 0, 1, 0, 0, 0, 0, 0, 0, 1, 1, 1, 0, 0, 0, 0, 1, 1, 1, 0, 0, 0,
        1, 1, 1, 0, 1, 0, 1, 0, 1, 1, 0, 1, 0, 1, 0, 0, 0, 1, 1, 1, 0, 0, 1, 0,
        0, 0, 0, 0, 0, 0, 0, 0, 0, 1, 0, 0, 0, 0, 0, 0])
--train>>-model--summary---- SimpleNet(
  (fc1): Linear(in_features=12288, out_features=84, bias=True)
  (fc2): Linear(in_features=84, out_features=50, bias=True)
  (fc3): Linear(in_features=50, out_features=2, bias=True)
)
--train>>-model-loss--- tensor(0.0048, device='cuda:0', grad_fn=<NllLossBackward0>)
---targets---- tensor([0, 0, 1, 0, 0, 0, 0, 1, 0, 0, 1, 0, 0, 0, 1, 0, 0, 1, 1, 1, 0, 0, 1, 0,
        1, 0, 0, 1, 0, 0, 0, 0, 0, 0, 0, 0, 1, 0, 1, 0, 1, 0, 1, 0, 1, 0, 0, 0,
        1, 0, 0, 0, 1, 1, 0, 0, 1, 1, 0, 0, 0, 1, 1, 0])
--train>>-model--summary---- SimpleNet(
  (fc1): Linear(in_features=12288, out_features=84, bias=True)
  (fc2): Linear(in_features=84, out_features=50, bias=True)
  (fc3): Linear(in_features=50, out_features=2, bias=True)
)
--train>>-model-loss--- tensor(0.0024, device='cuda:0', grad_fn=<NllLossBackward0>)
---targets---- tensor([0, 1, 1, 0, 0, 0, 1, 0, 0, 0, 0, 0, 0, 1, 0, 0, 1, 0, 1, 0, 0, 1, 0, 1,
        0, 1, 1, 1, 0, 1, 0, 0, 1, 1, 0, 1, 1, 0, 0, 0, 1, 1, 0, 1, 0, 1, 0, 0,
        1, 1, 1, 0, 1, 0, 0, 1, 0, 0, 0, 1, 0, 1, 1, 0])
--train>>-model--summary---- SimpleNet(
  (fc1): Linear(in_features=12288, out_features=84, bias=True)
  (fc2): Linear(in_features=84, out_features=50, bias=True)
  (fc3): Linear(in_features=50, out_features=2, bias=True)
)
--train>>-model-loss--- tensor(0.0009, device='cuda:0', grad_fn=<NllLossBackward0>)
---targets---- tensor([0, 1, 0, 0, 0, 0, 0, 1, 0, 0, 1, 1, 0, 1, 0, 0, 0, 1, 0, 0, 1, 0, 0, 1,
        1, 1, 1, 0, 0, 0, 1, 1, 1, 1, 1, 0, 0, 0, 1, 0, 1, 1, 0, 1, 0, 1, 0, 1,
        0, 0, 0, 1, 0, 0, 0, 0, 1, 1, 0, 1, 1, 1, 1, 1])
--train>>-model--summary---- SimpleNet(
  (fc1): Linear(in_features=12288, out_features=84, bias=True)
  (fc2): Linear(in_features=84, out_features=50, bias=True)
  (fc3): Linear(in_features=50, out_features=2, bias=True)
)
--train>>-model-loss--- tensor(0.0207, device='cuda:0', grad_fn=<NllLossBackward0>)
---targets---- tensor([1, 0, 1, 1, 0, 1, 0, 0, 1, 1, 0, 0, 0, 1, 0, 1, 1, 1, 0, 0, 1, 0, 0, 0,
        0, 1, 1, 0, 1, 0, 0, 1, 0, 0, 1, 0, 0, 0, 0, 0, 1, 1, 0, 1, 0, 0, 0, 0,
        0, 1, 0, 1, 0, 0, 1, 0, 0, 1, 0, 1, 0, 1, 1, 0])
--train>>-model--summary---- SimpleNet(
  (fc1): Linear(in_features=12288, out_features=84, bias=True)
  (fc2): Linear(in_features=84, out_features=50, bias=True)
  (fc3): Linear(in_features=50, out_features=2, bias=True)
)
--train>>-model-loss--- tensor(0.0011, device='cuda:0', grad_fn=<NllLossBackward0>)
---targets---- tensor([0, 1, 0, 0, 1, 0, 1, 0, 0, 0, 1, 0, 1, 1, 1, 0, 1, 1, 0, 0, 1, 0, 0, 0,
        1, 1, 0, 1, 1, 1, 1, 0, 0, 0, 0, 0, 0, 0, 1, 0, 0, 1, 1, 0, 0, 0, 0, 1,
        1, 1, 0, 1, 1, 0, 0, 1, 0, 0, 1, 0, 0, 1, 0, 1])
--train>>-model--summary---- SimpleNet(
  (fc1): Linear(in_features=12288, out_features=84, bias=True)
  (fc2): Linear(in_features=84, out_features=50, bias=True)
  (fc3): Linear(in_features=50, out_features=2, bias=True)
)
--train>>-model-loss--- tensor(0.0130, device='cuda:0', grad_fn=<NllLossBackward0>)
---targets---- tensor([1, 1, 0, 0, 0, 0, 0, 0, 1, 1, 0, 1, 1, 0, 1, 0, 0, 1, 1, 1, 0, 0, 1, 0,
        0, 1, 1, 1, 1, 1, 0, 1, 0, 0, 0, 0, 0, 1, 1, 1, 0, 0, 1, 0, 1, 1, 1, 1,
        0, 0, 0, 1, 0, 0, 1, 0, 1, 0, 0, 1, 1, 1, 0, 0])
--train>>-model--summary---- SimpleNet(
  (fc1): Linear(in_features=12288, out_features=84, bias=True)
  (fc2): Linear(in_features=84, out_features=50, bias=True)
  (fc3): Linear(in_features=50, out_features=2, bias=True)
)
--train>>-model-loss--- tensor(0.0013, device='cuda:0', grad_fn=<NllLossBackward0>)
---targets---- tensor([1, 1, 0, 0, 1, 1, 1, 0, 0, 0, 1, 0, 1, 0, 0, 1, 0, 1, 1, 1, 1, 1, 0, 1,
        0, 1, 1, 0, 0, 1, 1, 1, 1, 0, 0, 1, 0, 1, 1, 1, 0, 0, 1, 1, 0, 1, 0, 1,
        1, 0, 1, 0, 1, 0, 0, 0, 0, 0, 1, 0, 1, 0, 1, 1])
--train>>-model--summary---- SimpleNet(
  (fc1): Linear(in_features=12288, out_features=84, bias=True)
  (fc2): Linear(in_features=84, out_features=50, bias=True)
  (fc3): Linear(in_features=50, out_features=2, bias=True)
)
--train>>-model-loss--- tensor(0.0342, device='cuda:0', grad_fn=<NllLossBackward0>)
---targets---- tensor([1, 0, 0, 1, 1, 0, 0, 1, 0, 0, 0, 0, 0, 0, 0, 0, 0, 0, 0, 1, 1, 0, 0, 1,
        0, 0, 1, 0, 1, 1, 0, 1, 0, 1, 1, 0, 1, 1, 1, 0, 1, 0, 0, 0, 1, 0, 0, 1,
        0, 1, 0, 0, 0, 0, 1, 1, 0, 1, 0, 0, 1, 1, 1, 1])
--train>>-model--summary---- SimpleNet(
  (fc1): Linear(in_features=12288, out_features=84, bias=True)
  (fc2): Linear(in_features=84, out_features=50, bias=True)
  (fc3): Linear(in_features=50, out_features=2, bias=True)
)
--train>>-model-loss--- tensor(0.0088, device='cuda:0', grad_fn=<NllLossBackward0>)
---targets---- tensor([1, 1, 1, 0, 1, 0, 1, 1, 0, 0, 1, 1, 0, 0, 1, 0, 0, 1, 1, 1, 1, 0, 0, 1,
        1, 0, 0, 0, 1, 0, 0, 1, 0, 0, 0, 0, 1, 1, 0, 1, 1, 1, 1, 1, 1, 1, 0, 0,
        0, 0, 1, 1, 0, 0, 0, 0, 1, 1, 0, 1, 0, 0, 0, 0])
--train>>-model--summary---- SimpleNet(
  (fc1): Linear(in_features=12288, out_features=84, bias=True)
  (fc2): Linear(in_features=84, out_features=50, bias=True)
  (fc3): Linear(in_features=50, out_features=2, bias=True)
)
--train>>-model-loss--- tensor(0.0243, device='cuda:0', grad_fn=<NllLossBackward0>)
---targets---- tensor([0, 1, 0, 0, 1, 1, 1, 1, 1, 0, 1, 0, 0, 0, 1, 1, 0, 1, 0, 0, 0, 1, 1, 1,
        1, 1, 1, 1, 1, 1, 1, 0, 1, 0, 0, 1, 1, 1, 1, 0, 0, 1, 1, 0, 0, 0, 0, 0,
        1, 0, 1, 0, 1, 0, 0, 0, 1, 0, 0, 1, 0, 1, 0, 1])
--train>>-model--summary---- SimpleNet(
  (fc1): Linear(in_features=12288, out_features=84, bias=True)
  (fc2): Linear(in_features=84, out_features=50, bias=True)
  (fc3): Linear(in_features=50, out_features=2, bias=True)
)
--train>>-model-loss--- tensor(0.0064, device='cuda:0', grad_fn=<NllLossBackward0>)
---targets---- tensor([0, 1, 1, 0, 1, 1, 0, 1, 0, 1, 0, 1, 0, 0, 0, 1, 1, 1, 1, 0, 0, 1, 0, 0,
        0, 0, 0, 0, 1, 0, 1, 1, 1, 1, 0, 1, 0, 0, 1, 1, 1, 1, 1, 0, 0, 1, 1, 0,
        1, 1, 1, 0, 0, 0, 1, 1, 1, 1, 0, 0, 0, 0, 0, 0])
--train>>-model--summary---- SimpleNet(
  (fc1): Linear(in_features=12288, out_features=84, bias=True)
  (fc2): Linear(in_features=84, out_features=50, bias=True)
  (fc3): Linear(in_features=50, out_features=2, bias=True)
)
--train>>-model-loss--- tensor(0.0375, device='cuda:0', grad_fn=<NllLossBackward0>)
---targets---- tensor([1, 0, 0, 0, 0, 0, 1, 1, 0, 0, 1, 0, 1, 0, 0, 1, 1, 0, 0, 0, 0, 1, 1, 0,
        1, 1, 0, 0, 1, 1, 0, 1, 0, 0, 0, 1, 1, 0, 1, 0, 0, 1, 1, 1, 1, 1, 1, 0,
        1, 1, 1, 1, 1, 0, 0, 1, 1, 0, 1, 1, 1, 1, 1, 0])
--train>>-model--summary---- SimpleNet(
  (fc1): Linear(in_features=12288, out_features=84, bias=True)
  (fc2): Linear(in_features=84, out_features=50, bias=True)
  (fc3): Linear(in_features=50, out_features=2, bias=True)
)
--train>>-model-loss--- tensor(0.0104, device='cuda:0', grad_fn=<NllLossBackward0>)
---targets---- tensor([1, 0, 0, 0, 1, 1, 0, 1, 0, 0, 0, 1, 1, 1, 1, 1, 0, 1, 0, 1, 0, 0, 1, 1,
        1, 1, 1, 0, 0, 0, 1, 0, 0, 1, 1, 1, 0, 0, 0, 0, 1, 1, 0, 0, 0, 0, 1, 0,
        1, 0, 1, 0, 0, 1, 1, 1, 0, 1, 0, 1, 1, 0, 0, 1])
--train>>-model--summary---- SimpleNet(
  (fc1): Linear(in_features=12288, out_features=84, bias=True)
  (fc2): Linear(in_features=84, out_features=50, bias=True)
  (fc3): Linear(in_features=50, out_features=2, bias=True)
)
--train>>-model-loss--- tensor(0.0077, device='cuda:0', grad_fn=<NllLossBackward0>)
---targets---- tensor([0, 0, 1, 1, 0, 0, 1, 1, 1, 1, 1, 0, 0, 1, 0, 0, 1, 0, 0, 1, 0, 1, 1, 1,
        0, 1, 0, 1, 1, 0, 1, 1, 0, 1, 0, 1, 0, 0, 1, 1])
--train>>-model--summary---- SimpleNet(
  (fc1): Linear(in_features=12288, out_features=84, bias=True)
  (fc2): Linear(in_features=84, out_features=50, bias=True)
  (fc3): Linear(in_features=50, out_features=2, bias=True)
)
--train>>-model-loss--- tensor(0.0044, device='cuda:0', grad_fn=<NllLossBackward0>)
--------targets.shape------ torch.Size([64])
--------inputs.size(0)------ 64
--train>>-model--summary-2--- SimpleNet(
  (fc1): Linear(in_features=12288, out_features=84, bias=True)
  (fc2): Linear(in_features=84, out_features=50, bias=True)
  (fc3): Linear(in_features=50, out_features=2, bias=True)
)
--------output.size(0)------ 64
--------targets.shape------ torch.Size([64])
--------inputs.size(0)------ 64
--train>>-model--summary-2--- SimpleNet(
  (fc1): Linear(in_features=12288, out_features=84, bias=True)
  (fc2): Linear(in_features=84, out_features=50, bias=True)
  (fc3): Linear(in_features=50, out_features=2, bias=True)
)
--------output.size(0)------ 64
--------targets.shape------ torch.Size([64])
--------inputs.size(0)------ 64
--train>>-model--summary-2--- SimpleNet(
  (fc1): Linear(in_features=12288, out_features=84, bias=True)
  (fc2): Linear(in_features=84, out_features=50, bias=True)
  (fc3): Linear(in_features=50, out_features=2, bias=True)
)
--------output.size(0)------ 64
--------targets.shape------ torch.Size([64])
--------inputs.size(0)------ 64
--train>>-model--summary-2--- SimpleNet(
  (fc1): Linear(in_features=12288, out_features=84, bias=True)
  (fc2): Linear(in_features=84, out_features=50, bias=True)
  (fc3): Linear(in_features=50, out_features=2, bias=True)
)
--------output.size(0)------ 64
--------targets.shape------ torch.Size([64])
--------inputs.size(0)------ 64
--train>>-model--summary-2--- SimpleNet(
  (fc1): Linear(in_features=12288, out_features=84, bias=True)
  (fc2): Linear(in_features=84, out_features=50, bias=True)
  (fc3): Linear(in_features=50, out_features=2, bias=True)
)
--------output.size(0)------ 64
--------targets.shape------ torch.Size([64])
--------inputs.size(0)------ 64
--train>>-model--summary-2--- SimpleNet(
  (fc1): Linear(in_features=12288, out_features=84, bias=True)
  (fc2): Linear(in_features=84, out_features=50, bias=True)
  (fc3): Linear(in_features=50, out_features=2, bias=True)
)
--------output.size(0)------ 64
--------targets.shape------ torch.Size([64])
--------inputs.size(0)------ 64
--train>>-model--summary-2--- SimpleNet(
  (fc1): Linear(in_features=12288, out_features=84, bias=True)
  (fc2): Linear(in_features=84, out_features=50, bias=True)
  (fc3): Linear(in_features=50, out_features=2, bias=True)
)
--------output.size(0)------ 64
--------targets.shape------ torch.Size([64])
--------inputs.size(0)------ 64
--train>>-model--summary-2--- SimpleNet(
  (fc1): Linear(in_features=12288, out_features=84, bias=True)
  (fc2): Linear(in_features=84, out_features=50, bias=True)
  (fc3): Linear(in_features=50, out_features=2, bias=True)
)
--------output.size(0)------ 64
--------targets.shape------ torch.Size([64])
--------inputs.size(0)------ 64
--train>>-model--summary-2--- SimpleNet(
  (fc1): Linear(in_features=12288, out_features=84, bias=True)
  (fc2): Linear(in_features=84, out_features=50, bias=True)
  (fc3): Linear(in_features=50, out_features=2, bias=True)
)
--------output.size(0)------ 64
--------targets.shape------ torch.Size([64])
--------inputs.size(0)------ 64
--train>>-model--summary-2--- SimpleNet(
  (fc1): Linear(in_features=12288, out_features=84, bias=True)
  (fc2): Linear(in_features=84, out_features=50, bias=True)
  (fc3): Linear(in_features=50, out_features=2, bias=True)
)
--------output.size(0)------ 64
--------targets.shape------ torch.Size([64])
--------inputs.size(0)------ 64
--train>>-model--summary-2--- SimpleNet(
  (fc1): Linear(in_features=12288, out_features=84, bias=True)
  (fc2): Linear(in_features=84, out_features=50, bias=True)
  (fc3): Linear(in_features=50, out_features=2, bias=True)
)
--------output.size(0)------ 64
--------targets.shape------ torch.Size([64])
--------inputs.size(0)------ 64
--train>>-model--summary-2--- SimpleNet(
  (fc1): Linear(in_features=12288, out_features=84, bias=True)
  (fc2): Linear(in_features=84, out_features=50, bias=True)
  (fc3): Linear(in_features=50, out_features=2, bias=True)
)
--------output.size(0)------ 64
--------targets.shape------ torch.Size([64])
--------inputs.size(0)------ 64
--train>>-model--summary-2--- SimpleNet(
  (fc1): Linear(in_features=12288, out_features=84, bias=True)
  (fc2): Linear(in_features=84, out_features=50, bias=True)
  (fc3): Linear(in_features=50, out_features=2, bias=True)
)
--------output.size(0)------ 64
--------targets.shape------ torch.Size([64])
--------inputs.size(0)------ 64
--train>>-model--summary-2--- SimpleNet(
  (fc1): Linear(in_features=12288, out_features=84, bias=True)
  (fc2): Linear(in_features=84, out_features=50, bias=True)
  (fc3): Linear(in_features=50, out_features=2, bias=True)
)
--------output.size(0)------ 64
--------targets.shape------ torch.Size([40])
--------inputs.size(0)------ 40
--train>>-model--summary-2--- SimpleNet(
  (fc1): Linear(in_features=12288, out_features=84, bias=True)
  (fc2): Linear(in_features=84, out_features=50, bias=True)
  (fc3): Linear(in_features=50, out_features=2, bias=True)
)
--------output.size(0)------ 40
-TRAIN----torch.cuda.memory_allocated---> 0.02 GB
Epoch:6,TRAIN_Loss:0.01,VAL_Loss:0.01, Accuracy = 1.00
---targets---- tensor([1, 1, 0, 1, 0, 0, 0, 1, 0, 1, 1, 0, 0, 0, 1, 1, 1, 0, 1, 1, 1, 0, 0, 0,
        0, 0, 0, 0, 0, 0, 1, 0, 1, 0, 0, 0, 1, 0, 0, 0, 0, 1, 1, 0, 1, 1, 0, 1,
        0, 1, 0, 0, 0, 1, 1, 0, 1, 1, 0, 0, 0, 0, 1, 0])
--train>>-model--summary---- SimpleNet(
  (fc1): Linear(in_features=12288, out_features=84, bias=True)
  (fc2): Linear(in_features=84, out_features=50, bias=True)
  (fc3): Linear(in_features=50, out_features=2, bias=True)
)
--train>>-model-loss--- tensor(0.0080, device='cuda:0', grad_fn=<NllLossBackward0>)
---targets---- tensor([0, 1, 0, 0, 0, 1, 0, 1, 0, 1, 0, 1, 1, 0, 1, 1, 1, 1, 1, 0, 0, 1, 0, 0,
        0, 1, 0, 1, 0, 1, 0, 1, 0, 0, 0, 0, 0, 0, 1, 1, 0, 0, 0, 1, 1, 1, 1, 0,
        0, 0, 1, 1, 1, 1, 0, 0, 1, 1, 1, 0, 1, 1, 0, 0])
--train>>-model--summary---- SimpleNet(
  (fc1): Linear(in_features=12288, out_features=84, bias=True)
  (fc2): Linear(in_features=84, out_features=50, bias=True)
  (fc3): Linear(in_features=50, out_features=2, bias=True)
)
--train>>-model-loss--- tensor(0.0052, device='cuda:0', grad_fn=<NllLossBackward0>)
---targets---- tensor([0, 1, 1, 0, 0, 0, 0, 0, 1, 0, 1, 1, 1, 1, 0, 1, 0, 0, 1, 1, 0, 1, 0, 0,
        0, 1, 0, 0, 1, 0, 0, 0, 1, 0, 0, 0, 1, 0, 0, 0, 0, 1, 1, 0, 0, 1, 0, 0,
        0, 0, 1, 1, 1, 0, 1, 1, 0, 0, 0, 0, 0, 1, 1, 1])
--train>>-model--summary---- SimpleNet(
  (fc1): Linear(in_features=12288, out_features=84, bias=True)
  (fc2): Linear(in_features=84, out_features=50, bias=True)
  (fc3): Linear(in_features=50, out_features=2, bias=True)
)
--train>>-model-loss--- tensor(0.0375, device='cuda:0', grad_fn=<NllLossBackward0>)
---targets---- tensor([0, 1, 1, 1, 0, 1, 0, 0, 1, 0, 0, 0, 0, 0, 1, 1, 0, 1, 0, 1, 0, 0, 0, 0,
        1, 0, 0, 0, 0, 1, 1, 0, 0, 0, 0, 0, 1, 1, 1, 0, 1, 1, 0, 1, 0, 0, 1, 1,
        0, 1, 1, 0, 0, 1, 0, 1, 0, 1, 0, 0, 1, 1, 1, 0])
--train>>-model--summary---- SimpleNet(
  (fc1): Linear(in_features=12288, out_features=84, bias=True)
  (fc2): Linear(in_features=84, out_features=50, bias=True)
  (fc3): Linear(in_features=50, out_features=2, bias=True)
)
--train>>-model-loss--- tensor(0.0041, device='cuda:0', grad_fn=<NllLossBackward0>)
---targets---- tensor([0, 1, 0, 0, 1, 1, 0, 0, 1, 0, 1, 1, 0, 0, 0, 1, 1, 1, 1, 1, 0, 0, 0, 0,
        0, 0, 0, 1, 1, 1, 0, 1, 0, 0, 0, 0, 1, 1, 0, 1, 1, 1, 1, 1, 0, 1, 0, 0,
        1, 1, 1, 1, 0, 1, 1, 0, 0, 0, 1, 1, 0, 1, 1, 1])
--train>>-model--summary---- SimpleNet(
  (fc1): Linear(in_features=12288, out_features=84, bias=True)
  (fc2): Linear(in_features=84, out_features=50, bias=True)
  (fc3): Linear(in_features=50, out_features=2, bias=True)
)
--train>>-model-loss--- tensor(0.0015, device='cuda:0', grad_fn=<NllLossBackward0>)
---targets---- tensor([1, 0, 1, 0, 1, 1, 1, 0, 0, 1, 0, 0, 1, 1, 1, 1, 0, 1, 0, 1, 0, 1, 1, 1,
        0, 0, 0, 0, 0, 0, 1, 0, 0, 0, 0, 0, 1, 0, 0, 1, 0, 0, 0, 1, 0, 0, 1, 0,
        1, 1, 1, 0, 0, 0, 1, 1, 0, 1, 0, 1, 0, 1, 1, 1])
--train>>-model--summary---- SimpleNet(
  (fc1): Linear(in_features=12288, out_features=84, bias=True)
  (fc2): Linear(in_features=84, out_features=50, bias=True)
  (fc3): Linear(in_features=50, out_features=2, bias=True)
)
--train>>-model-loss--- tensor(0.0043, device='cuda:0', grad_fn=<NllLossBackward0>)
---targets---- tensor([0, 0, 0, 0, 1, 1, 1, 1, 0, 0, 0, 0, 0, 1, 1, 0, 1, 1, 1, 1, 0, 1, 1, 1,
        0, 0, 0, 1, 1, 1, 0, 0, 1, 0, 1, 0, 0, 0, 1, 0, 1, 0, 0, 1, 0, 0, 1, 1,
        1, 1, 0, 0, 0, 1, 0, 0, 1, 1, 0, 1, 0, 1, 1, 0])
--train>>-model--summary---- SimpleNet(
  (fc1): Linear(in_features=12288, out_features=84, bias=True)
  (fc2): Linear(in_features=84, out_features=50, bias=True)
  (fc3): Linear(in_features=50, out_features=2, bias=True)
)
--train>>-model-loss--- tensor(0.0006, device='cuda:0', grad_fn=<NllLossBackward0>)
---targets---- tensor([1, 0, 1, 1, 0, 0, 0, 1, 0, 0, 1, 1, 1, 1, 1, 1, 0, 1, 0, 1, 0, 1, 1, 0,
        1, 0, 0, 1, 0, 1, 1, 0, 0, 0, 0, 1, 0, 1, 0, 0, 1, 1, 0, 0, 0, 1, 0, 1,
        1, 0, 1, 0, 0, 1, 0, 0, 1, 0, 1, 1, 1, 1, 0, 1])
--train>>-model--summary---- SimpleNet(
  (fc1): Linear(in_features=12288, out_features=84, bias=True)
  (fc2): Linear(in_features=84, out_features=50, bias=True)
  (fc3): Linear(in_features=50, out_features=2, bias=True)
)
--train>>-model-loss--- tensor(0.0014, device='cuda:0', grad_fn=<NllLossBackward0>)
---targets---- tensor([0, 0, 1, 1, 1, 1, 0, 1, 0, 0, 1, 1, 1, 0, 0, 0, 0, 0, 0, 1, 1, 0, 1, 1,
        0, 0, 0, 0, 1, 0, 0, 1, 1, 0, 0, 0, 0, 0, 1, 1, 1, 0, 1, 1, 1, 1, 0, 0,
        0, 0, 0, 1, 1, 0, 1, 1, 1, 0, 0, 1, 1, 0, 0, 0])
--train>>-model--summary---- SimpleNet(
  (fc1): Linear(in_features=12288, out_features=84, bias=True)
  (fc2): Linear(in_features=84, out_features=50, bias=True)
  (fc3): Linear(in_features=50, out_features=2, bias=True)
)
--train>>-model-loss--- tensor(0.0485, device='cuda:0', grad_fn=<NllLossBackward0>)
---targets---- tensor([1, 0, 1, 0, 1, 1, 1, 0, 1, 1, 0, 0, 0, 0, 1, 0, 0, 1, 0, 0, 1, 0, 1, 1,
        1, 1, 0, 0, 1, 1, 1, 0, 0, 0, 0, 1, 1, 1, 0, 0, 0, 0, 1, 0, 1, 0, 1, 1,
        0, 1, 1, 1, 1, 0, 0, 0, 1, 1, 1, 0, 0, 0, 0, 1])
--train>>-model--summary---- SimpleNet(
  (fc1): Linear(in_features=12288, out_features=84, bias=True)
  (fc2): Linear(in_features=84, out_features=50, bias=True)
  (fc3): Linear(in_features=50, out_features=2, bias=True)
)
--train>>-model-loss--- tensor(0.0008, device='cuda:0', grad_fn=<NllLossBackward0>)
---targets---- tensor([0, 1, 0, 0, 1, 1, 1, 0, 1, 1, 1, 0, 0, 0, 0, 0, 1, 0, 1, 0, 1, 0, 0, 0,
        1, 0, 1, 1, 0, 1, 0, 0, 0, 1, 0, 1, 1, 1, 0, 1, 1, 1, 0, 1, 0, 0, 0, 1,
        1, 0, 1, 1, 0, 0, 0, 0, 1, 0, 1, 0, 0, 1, 0, 0])
--train>>-model--summary---- SimpleNet(
  (fc1): Linear(in_features=12288, out_features=84, bias=True)
  (fc2): Linear(in_features=84, out_features=50, bias=True)
  (fc3): Linear(in_features=50, out_features=2, bias=True)
)
--train>>-model-loss--- tensor(0.0083, device='cuda:0', grad_fn=<NllLossBackward0>)
---targets---- tensor([0, 0, 1, 0, 0, 1, 1, 0, 1, 1, 1, 1, 0, 1, 0, 0, 0, 0, 0, 0, 1, 1, 1, 0,
        0, 0, 1, 1, 1, 1, 0, 0, 0, 1, 1, 0, 0, 1, 0, 1, 0, 0, 0, 0, 0, 1, 1, 0,
        0, 0, 1, 0, 1, 1, 0, 1, 1, 1, 1, 1, 1, 1, 1, 1])
--train>>-model--summary---- SimpleNet(
  (fc1): Linear(in_features=12288, out_features=84, bias=True)
  (fc2): Linear(in_features=84, out_features=50, bias=True)
  (fc3): Linear(in_features=50, out_features=2, bias=True)
)
--train>>-model-loss--- tensor(0.0016, device='cuda:0', grad_fn=<NllLossBackward0>)
---targets---- tensor([0, 0, 0, 0, 1, 1, 0, 0, 1, 1, 0, 1, 1, 0, 1, 0, 0, 1, 0, 0, 0, 1, 0, 0,
        1, 0, 0, 1, 0, 1, 1, 0, 1, 0, 0, 1, 1, 1, 0, 1, 1, 1, 1, 1, 1, 0, 0, 1,
        0, 1, 1, 0, 1, 0, 0, 0, 0, 1, 0, 0, 1, 1, 0, 1])
--train>>-model--summary---- SimpleNet(
  (fc1): Linear(in_features=12288, out_features=84, bias=True)
  (fc2): Linear(in_features=84, out_features=50, bias=True)
  (fc3): Linear(in_features=50, out_features=2, bias=True)
)
--train>>-model-loss--- tensor(0.0030, device='cuda:0', grad_fn=<NllLossBackward0>)
---targets---- tensor([0, 0, 1, 0, 0, 0, 0, 0, 0, 1, 0, 0, 0, 0, 1, 1, 0, 1, 1, 0, 1, 0, 0, 0,
        0, 1, 1, 1, 0, 0, 0, 0, 0, 1, 1, 0, 1, 0, 1, 0, 1, 0, 1, 0, 1, 0, 0, 1,
        0, 1, 0, 0, 0, 0, 0, 1, 0, 1, 1, 0, 0, 1, 1, 0])
--train>>-model--summary---- SimpleNet(
  (fc1): Linear(in_features=12288, out_features=84, bias=True)
  (fc2): Linear(in_features=84, out_features=50, bias=True)
  (fc3): Linear(in_features=50, out_features=2, bias=True)
)
--train>>-model-loss--- tensor(0.0054, device='cuda:0', grad_fn=<NllLossBackward0>)
---targets---- tensor([1, 0, 0, 1, 0, 1, 1, 1, 1, 0, 0, 1, 0, 0, 0, 0, 0, 0, 1, 0, 0, 1, 1, 1,
        1, 0, 1, 0, 0, 0, 1, 0, 0, 1, 0, 1, 1, 1, 0, 0])
--train>>-model--summary---- SimpleNet(
  (fc1): Linear(in_features=12288, out_features=84, bias=True)
  (fc2): Linear(in_features=84, out_features=50, bias=True)
  (fc3): Linear(in_features=50, out_features=2, bias=True)
)
--train>>-model-loss--- tensor(0.0059, device='cuda:0', grad_fn=<NllLossBackward0>)
--------targets.shape------ torch.Size([64])
--------inputs.size(0)------ 64
--train>>-model--summary-2--- SimpleNet(
  (fc1): Linear(in_features=12288, out_features=84, bias=True)
  (fc2): Linear(in_features=84, out_features=50, bias=True)
  (fc3): Linear(in_features=50, out_features=2, bias=True)
)
--------output.size(0)------ 64
--------targets.shape------ torch.Size([64])
--------inputs.size(0)------ 64
--train>>-model--summary-2--- SimpleNet(
  (fc1): Linear(in_features=12288, out_features=84, bias=True)
  (fc2): Linear(in_features=84, out_features=50, bias=True)
  (fc3): Linear(in_features=50, out_features=2, bias=True)
)
--------output.size(0)------ 64
--------targets.shape------ torch.Size([64])
--------inputs.size(0)------ 64
--train>>-model--summary-2--- SimpleNet(
  (fc1): Linear(in_features=12288, out_features=84, bias=True)
  (fc2): Linear(in_features=84, out_features=50, bias=True)
  (fc3): Linear(in_features=50, out_features=2, bias=True)
)
--------output.size(0)------ 64
--------targets.shape------ torch.Size([64])
--------inputs.size(0)------ 64
--train>>-model--summary-2--- SimpleNet(
  (fc1): Linear(in_features=12288, out_features=84, bias=True)
  (fc2): Linear(in_features=84, out_features=50, bias=True)
  (fc3): Linear(in_features=50, out_features=2, bias=True)
)
--------output.size(0)------ 64
--------targets.shape------ torch.Size([64])
--------inputs.size(0)------ 64
--train>>-model--summary-2--- SimpleNet(
  (fc1): Linear(in_features=12288, out_features=84, bias=True)
  (fc2): Linear(in_features=84, out_features=50, bias=True)
  (fc3): Linear(in_features=50, out_features=2, bias=True)
)
--------output.size(0)------ 64
--------targets.shape------ torch.Size([64])
--------inputs.size(0)------ 64
--train>>-model--summary-2--- SimpleNet(
  (fc1): Linear(in_features=12288, out_features=84, bias=True)
  (fc2): Linear(in_features=84, out_features=50, bias=True)
  (fc3): Linear(in_features=50, out_features=2, bias=True)
)
--------output.size(0)------ 64
--------targets.shape------ torch.Size([64])
--------inputs.size(0)------ 64
--train>>-model--summary-2--- SimpleNet(
  (fc1): Linear(in_features=12288, out_features=84, bias=True)
  (fc2): Linear(in_features=84, out_features=50, bias=True)
  (fc3): Linear(in_features=50, out_features=2, bias=True)
)
--------output.size(0)------ 64
--------targets.shape------ torch.Size([64])
--------inputs.size(0)------ 64
--train>>-model--summary-2--- SimpleNet(
  (fc1): Linear(in_features=12288, out_features=84, bias=True)
  (fc2): Linear(in_features=84, out_features=50, bias=True)
  (fc3): Linear(in_features=50, out_features=2, bias=True)
)
--------output.size(0)------ 64
--------targets.shape------ torch.Size([64])
--------inputs.size(0)------ 64
--train>>-model--summary-2--- SimpleNet(
  (fc1): Linear(in_features=12288, out_features=84, bias=True)
  (fc2): Linear(in_features=84, out_features=50, bias=True)
  (fc3): Linear(in_features=50, out_features=2, bias=True)
)
--------output.size(0)------ 64
--------targets.shape------ torch.Size([64])
--------inputs.size(0)------ 64
--train>>-model--summary-2--- SimpleNet(
  (fc1): Linear(in_features=12288, out_features=84, bias=True)
  (fc2): Linear(in_features=84, out_features=50, bias=True)
  (fc3): Linear(in_features=50, out_features=2, bias=True)
)
--------output.size(0)------ 64
--------targets.shape------ torch.Size([64])
--------inputs.size(0)------ 64
--train>>-model--summary-2--- SimpleNet(
  (fc1): Linear(in_features=12288, out_features=84, bias=True)
  (fc2): Linear(in_features=84, out_features=50, bias=True)
  (fc3): Linear(in_features=50, out_features=2, bias=True)
)
--------output.size(0)------ 64
--------targets.shape------ torch.Size([64])
--------inputs.size(0)------ 64
--train>>-model--summary-2--- SimpleNet(
  (fc1): Linear(in_features=12288, out_features=84, bias=True)
  (fc2): Linear(in_features=84, out_features=50, bias=True)
  (fc3): Linear(in_features=50, out_features=2, bias=True)
)
--------output.size(0)------ 64
--------targets.shape------ torch.Size([64])
--------inputs.size(0)------ 64
--train>>-model--summary-2--- SimpleNet(
  (fc1): Linear(in_features=12288, out_features=84, bias=True)
  (fc2): Linear(in_features=84, out_features=50, bias=True)
  (fc3): Linear(in_features=50, out_features=2, bias=True)
)
--------output.size(0)------ 64
--------targets.shape------ torch.Size([64])
--------inputs.size(0)------ 64
--train>>-model--summary-2--- SimpleNet(
  (fc1): Linear(in_features=12288, out_features=84, bias=True)
  (fc2): Linear(in_features=84, out_features=50, bias=True)
  (fc3): Linear(in_features=50, out_features=2, bias=True)
)
--------output.size(0)------ 64
--------targets.shape------ torch.Size([40])
--------inputs.size(0)------ 40
--train>>-model--summary-2--- SimpleNet(
  (fc1): Linear(in_features=12288, out_features=84, bias=True)
  (fc2): Linear(in_features=84, out_features=50, bias=True)
  (fc3): Linear(in_features=50, out_features=2, bias=True)
)
--------output.size(0)------ 40
-TRAIN----torch.cuda.memory_allocated---> 0.02 GB
Epoch:7,TRAIN_Loss:0.01,VAL_Loss:0.00, Accuracy = 1.00
---targets---- tensor([0, 0, 0, 1, 0, 0, 0, 0, 0, 0, 1, 1, 0, 0, 1, 0, 0, 1, 0, 0, 1, 1, 1, 1,
        1, 0, 0, 1, 1, 0, 0, 0, 1, 1, 1, 0, 0, 0, 0, 1, 0, 0, 1, 1, 0, 1, 0, 1,
        1, 1, 0, 1, 1, 1, 0, 0, 0, 0, 0, 1, 1, 1, 1, 1])
--train>>-model--summary---- SimpleNet(
  (fc1): Linear(in_features=12288, out_features=84, bias=True)
  (fc2): Linear(in_features=84, out_features=50, bias=True)
  (fc3): Linear(in_features=50, out_features=2, bias=True)
)
--train>>-model-loss--- tensor(0.0016, device='cuda:0', grad_fn=<NllLossBackward0>)
---targets---- tensor([0, 0, 0, 1, 0, 0, 1, 0, 0, 1, 1, 1, 0, 0, 1, 1, 1, 1, 1, 0, 0, 0, 1, 0,
        1, 1, 0, 1, 0, 0, 1, 0, 1, 0, 0, 1, 1, 0, 0, 0, 1, 1, 0, 1, 1, 0, 0, 0,
        0, 1, 1, 0, 0, 1, 0, 1, 0, 0, 1, 0, 1, 1, 1, 1])
--train>>-model--summary---- SimpleNet(
  (fc1): Linear(in_features=12288, out_features=84, bias=True)
  (fc2): Linear(in_features=84, out_features=50, bias=True)
  (fc3): Linear(in_features=50, out_features=2, bias=True)
)
--train>>-model-loss--- tensor(0.0058, device='cuda:0', grad_fn=<NllLossBackward0>)
---targets---- tensor([1, 0, 0, 0, 0, 1, 1, 0, 1, 1, 0, 0, 1, 1, 0, 0, 1, 0, 1, 1, 0, 0, 1, 0,
        0, 0, 1, 1, 1, 0, 1, 1, 0, 1, 0, 1, 1, 0, 1, 0, 1, 0, 1, 0, 1, 1, 0, 0,
        0, 1, 0, 0, 0, 1, 0, 1, 1, 1, 1, 1, 0, 0, 1, 1])
--train>>-model--summary---- SimpleNet(
  (fc1): Linear(in_features=12288, out_features=84, bias=True)
  (fc2): Linear(in_features=84, out_features=50, bias=True)
  (fc3): Linear(in_features=50, out_features=2, bias=True)
)
--train>>-model-loss--- tensor(0.0021, device='cuda:0', grad_fn=<NllLossBackward0>)
---targets---- tensor([0, 0, 1, 0, 0, 0, 1, 0, 1, 1, 1, 1, 0, 1, 0, 0, 1, 0, 1, 0, 0, 0, 0, 1,
        0, 1, 0, 0, 0, 0, 1, 0, 0, 0, 1, 0, 0, 0, 1, 0, 0, 0, 1, 0, 1, 0, 1, 0,
        1, 0, 0, 1, 0, 1, 1, 0, 1, 0, 0, 1, 0, 1, 0, 0])
--train>>-model--summary---- SimpleNet(
  (fc1): Linear(in_features=12288, out_features=84, bias=True)
  (fc2): Linear(in_features=84, out_features=50, bias=True)
  (fc3): Linear(in_features=50, out_features=2, bias=True)
)
--train>>-model-loss--- tensor(0.0050, device='cuda:0', grad_fn=<NllLossBackward0>)
---targets---- tensor([0, 0, 1, 0, 0, 0, 0, 0, 0, 1, 1, 0, 1, 1, 1, 1, 1, 1, 1, 1, 1, 1, 0, 0,
        0, 1, 0, 1, 0, 0, 1, 0, 1, 1, 1, 0, 1, 0, 1, 0, 0, 1, 0, 0, 0, 1, 1, 1,
        1, 1, 1, 1, 1, 0, 1, 0, 1, 1, 1, 1, 0, 0, 0, 1])
--train>>-model--summary---- SimpleNet(
  (fc1): Linear(in_features=12288, out_features=84, bias=True)
  (fc2): Linear(in_features=84, out_features=50, bias=True)
  (fc3): Linear(in_features=50, out_features=2, bias=True)
)
--train>>-model-loss--- tensor(0.0033, device='cuda:0', grad_fn=<NllLossBackward0>)
---targets---- tensor([1, 1, 0, 1, 1, 1, 0, 1, 1, 0, 1, 0, 1, 0, 0, 0, 1, 0, 1, 0, 0, 0, 1, 0,
        1, 1, 0, 1, 1, 1, 0, 1, 1, 1, 0, 1, 0, 1, 1, 1, 1, 0, 1, 1, 1, 1, 1, 0,
        0, 1, 1, 0, 0, 0, 0, 0, 0, 1, 1, 1, 0, 1, 1, 0])
--train>>-model--summary---- SimpleNet(
  (fc1): Linear(in_features=12288, out_features=84, bias=True)
  (fc2): Linear(in_features=84, out_features=50, bias=True)
  (fc3): Linear(in_features=50, out_features=2, bias=True)
)
--train>>-model-loss--- tensor(0.0003, device='cuda:0', grad_fn=<NllLossBackward0>)
---targets---- tensor([0, 1, 1, 0, 1, 0, 0, 0, 0, 0, 1, 0, 1, 0, 0, 0, 0, 0, 1, 1, 0, 0, 1, 0,
        1, 0, 0, 1, 1, 1, 0, 0, 1, 0, 1, 0, 0, 1, 0, 1, 0, 0, 1, 1, 1, 0, 1, 0,
        1, 1, 0, 0, 0, 0, 0, 1, 1, 0, 0, 1, 1, 1, 1, 1])
--train>>-model--summary---- SimpleNet(
  (fc1): Linear(in_features=12288, out_features=84, bias=True)
  (fc2): Linear(in_features=84, out_features=50, bias=True)
  (fc3): Linear(in_features=50, out_features=2, bias=True)
)
--train>>-model-loss--- tensor(0.0013, device='cuda:0', grad_fn=<NllLossBackward0>)
---targets---- tensor([0, 1, 1, 0, 0, 0, 0, 0, 1, 0, 0, 0, 0, 1, 1, 0, 0, 0, 0, 0, 0, 0, 1, 0,
        0, 1, 1, 0, 1, 0, 0, 0, 1, 0, 0, 1, 1, 1, 1, 1, 1, 0, 0, 0, 0, 1, 1, 1,
        0, 0, 1, 1, 1, 1, 0, 0, 0, 1, 1, 1, 0, 0, 1, 0])
--train>>-model--summary---- SimpleNet(
  (fc1): Linear(in_features=12288, out_features=84, bias=True)
  (fc2): Linear(in_features=84, out_features=50, bias=True)
  (fc3): Linear(in_features=50, out_features=2, bias=True)
)
--train>>-model-loss--- tensor(0.0352, device='cuda:0', grad_fn=<NllLossBackward0>)
---targets---- tensor([1, 0, 0, 0, 1, 0, 1, 0, 1, 0, 0, 1, 1, 1, 0, 0, 0, 0, 0, 1, 0, 1, 1, 0,
        1, 0, 0, 0, 1, 0, 0, 1, 1, 1, 1, 0, 0, 0, 1, 1, 1, 0, 1, 1, 0, 1, 1, 0,
        1, 1, 0, 1, 0, 1, 1, 0, 1, 1, 0, 1, 1, 1, 1, 0])
--train>>-model--summary---- SimpleNet(
  (fc1): Linear(in_features=12288, out_features=84, bias=True)
  (fc2): Linear(in_features=84, out_features=50, bias=True)
  (fc3): Linear(in_features=50, out_features=2, bias=True)
)
--train>>-model-loss--- tensor(0.0098, device='cuda:0', grad_fn=<NllLossBackward0>)
---targets---- tensor([1, 0, 1, 0, 0, 0, 0, 0, 1, 0, 0, 0, 0, 1, 1, 0, 1, 1, 0, 0, 0, 1, 0, 0,
        1, 0, 0, 1, 1, 1, 0, 1, 1, 1, 0, 1, 1, 1, 0, 0, 0, 0, 0, 0, 0, 1, 0, 1,
        1, 0, 1, 0, 1, 1, 0, 0, 0, 0, 0, 0, 1, 0, 1, 0])
--train>>-model--summary---- SimpleNet(
  (fc1): Linear(in_features=12288, out_features=84, bias=True)
  (fc2): Linear(in_features=84, out_features=50, bias=True)
  (fc3): Linear(in_features=50, out_features=2, bias=True)
)
--train>>-model-loss--- tensor(0.0022, device='cuda:0', grad_fn=<NllLossBackward0>)
---targets---- tensor([0, 0, 1, 1, 1, 1, 1, 1, 1, 1, 1, 0, 1, 0, 0, 0, 1, 0, 0, 0, 0, 1, 0, 0,
        0, 1, 0, 1, 0, 1, 1, 1, 0, 0, 0, 0, 0, 1, 0, 1, 0, 1, 0, 1, 1, 1, 0, 0,
        0, 0, 1, 0, 1, 0, 1, 0, 0, 0, 1, 1, 0, 0, 1, 0])
--train>>-model--summary---- SimpleNet(
  (fc1): Linear(in_features=12288, out_features=84, bias=True)
  (fc2): Linear(in_features=84, out_features=50, bias=True)
  (fc3): Linear(in_features=50, out_features=2, bias=True)
)
--train>>-model-loss--- tensor(0.0038, device='cuda:0', grad_fn=<NllLossBackward0>)
---targets---- tensor([0, 1, 1, 0, 1, 0, 1, 0, 0, 0, 0, 0, 0, 1, 1, 0, 0, 1, 1, 1, 1, 1, 0, 0,
        1, 0, 0, 1, 1, 1, 1, 0, 1, 1, 0, 0, 1, 1, 0, 1, 0, 0, 1, 0, 0, 0, 0, 1,
        0, 0, 0, 1, 1, 0, 0, 1, 0, 0, 1, 0, 0, 0, 0, 0])
--train>>-model--summary---- SimpleNet(
  (fc1): Linear(in_features=12288, out_features=84, bias=True)
  (fc2): Linear(in_features=84, out_features=50, bias=True)
  (fc3): Linear(in_features=50, out_features=2, bias=True)
)
--train>>-model-loss--- tensor(0.0028, device='cuda:0', grad_fn=<NllLossBackward0>)
---targets---- tensor([0, 1, 1, 1, 0, 1, 0, 1, 0, 0, 0, 1, 0, 1, 0, 1, 1, 0, 1, 1, 0, 0, 1, 1,
        1, 0, 1, 1, 0, 0, 1, 1, 0, 0, 0, 1, 0, 0, 0, 1, 0, 0, 0, 0, 0, 1, 0, 0,
        1, 1, 0, 1, 0, 1, 0, 0, 1, 0, 1, 1, 0, 1, 1, 1])
--train>>-model--summary---- SimpleNet(
  (fc1): Linear(in_features=12288, out_features=84, bias=True)
  (fc2): Linear(in_features=84, out_features=50, bias=True)
  (fc3): Linear(in_features=50, out_features=2, bias=True)
)
--train>>-model-loss--- tensor(0.0062, device='cuda:0', grad_fn=<NllLossBackward0>)
---targets---- tensor([0, 0, 1, 0, 1, 0, 1, 1, 0, 0, 1, 1, 0, 1, 0, 0, 1, 0, 0, 0, 0, 1, 1, 1,
        0, 0, 1, 0, 0, 0, 0, 1, 1, 1, 1, 0, 1, 0, 0, 0, 0, 0, 1, 0, 0, 0, 1, 1,
        0, 1, 1, 1, 0, 0, 1, 0, 1, 0, 1, 0, 0, 0, 0, 1])
--train>>-model--summary---- SimpleNet(
  (fc1): Linear(in_features=12288, out_features=84, bias=True)
  (fc2): Linear(in_features=84, out_features=50, bias=True)
  (fc3): Linear(in_features=50, out_features=2, bias=True)
)
--train>>-model-loss--- tensor(0.0018, device='cuda:0', grad_fn=<NllLossBackward0>)
---targets---- tensor([1, 0, 1, 1, 1, 1, 0, 1, 0, 0, 0, 1, 0, 0, 1, 1, 0, 0, 0, 0, 0, 0, 0, 1,
        0, 0, 0, 0, 0, 1, 0, 0, 1, 0, 1, 0, 0, 0, 1, 0])
--train>>-model--summary---- SimpleNet(
  (fc1): Linear(in_features=12288, out_features=84, bias=True)
  (fc2): Linear(in_features=84, out_features=50, bias=True)
  (fc3): Linear(in_features=50, out_features=2, bias=True)
)
--train>>-model-loss--- tensor(0.0010, device='cuda:0', grad_fn=<NllLossBackward0>)
--------targets.shape------ torch.Size([64])
--------inputs.size(0)------ 64
--train>>-model--summary-2--- SimpleNet(
  (fc1): Linear(in_features=12288, out_features=84, bias=True)
  (fc2): Linear(in_features=84, out_features=50, bias=True)
  (fc3): Linear(in_features=50, out_features=2, bias=True)
)
--------output.size(0)------ 64
--------targets.shape------ torch.Size([64])
--------inputs.size(0)------ 64
--train>>-model--summary-2--- SimpleNet(
  (fc1): Linear(in_features=12288, out_features=84, bias=True)
  (fc2): Linear(in_features=84, out_features=50, bias=True)
  (fc3): Linear(in_features=50, out_features=2, bias=True)
)
--------output.size(0)------ 64
--------targets.shape------ torch.Size([64])
--------inputs.size(0)------ 64
--train>>-model--summary-2--- SimpleNet(
  (fc1): Linear(in_features=12288, out_features=84, bias=True)
  (fc2): Linear(in_features=84, out_features=50, bias=True)
  (fc3): Linear(in_features=50, out_features=2, bias=True)
)
--------output.size(0)------ 64
--------targets.shape------ torch.Size([64])
--------inputs.size(0)------ 64
--train>>-model--summary-2--- SimpleNet(
  (fc1): Linear(in_features=12288, out_features=84, bias=True)
  (fc2): Linear(in_features=84, out_features=50, bias=True)
  (fc3): Linear(in_features=50, out_features=2, bias=True)
)
--------output.size(0)------ 64
--------targets.shape------ torch.Size([64])
--------inputs.size(0)------ 64
--train>>-model--summary-2--- SimpleNet(
  (fc1): Linear(in_features=12288, out_features=84, bias=True)
  (fc2): Linear(in_features=84, out_features=50, bias=True)
  (fc3): Linear(in_features=50, out_features=2, bias=True)
)
--------output.size(0)------ 64
--------targets.shape------ torch.Size([64])
--------inputs.size(0)------ 64
--train>>-model--summary-2--- SimpleNet(
  (fc1): Linear(in_features=12288, out_features=84, bias=True)
  (fc2): Linear(in_features=84, out_features=50, bias=True)
  (fc3): Linear(in_features=50, out_features=2, bias=True)
)
--------output.size(0)------ 64
--------targets.shape------ torch.Size([64])
--------inputs.size(0)------ 64
--train>>-model--summary-2--- SimpleNet(
  (fc1): Linear(in_features=12288, out_features=84, bias=True)
  (fc2): Linear(in_features=84, out_features=50, bias=True)
  (fc3): Linear(in_features=50, out_features=2, bias=True)
)
--------output.size(0)------ 64
--------targets.shape------ torch.Size([64])
--------inputs.size(0)------ 64
--train>>-model--summary-2--- SimpleNet(
  (fc1): Linear(in_features=12288, out_features=84, bias=True)
  (fc2): Linear(in_features=84, out_features=50, bias=True)
  (fc3): Linear(in_features=50, out_features=2, bias=True)
)
--------output.size(0)------ 64
--------targets.shape------ torch.Size([64])
--------inputs.size(0)------ 64
--train>>-model--summary-2--- SimpleNet(
  (fc1): Linear(in_features=12288, out_features=84, bias=True)
  (fc2): Linear(in_features=84, out_features=50, bias=True)
  (fc3): Linear(in_features=50, out_features=2, bias=True)
)
--------output.size(0)------ 64
--------targets.shape------ torch.Size([64])
--------inputs.size(0)------ 64
--train>>-model--summary-2--- SimpleNet(
  (fc1): Linear(in_features=12288, out_features=84, bias=True)
  (fc2): Linear(in_features=84, out_features=50, bias=True)
  (fc3): Linear(in_features=50, out_features=2, bias=True)
)
--------output.size(0)------ 64
--------targets.shape------ torch.Size([64])
--------inputs.size(0)------ 64
--train>>-model--summary-2--- SimpleNet(
  (fc1): Linear(in_features=12288, out_features=84, bias=True)
  (fc2): Linear(in_features=84, out_features=50, bias=True)
  (fc3): Linear(in_features=50, out_features=2, bias=True)
)
--------output.size(0)------ 64
--------targets.shape------ torch.Size([64])
--------inputs.size(0)------ 64
--train>>-model--summary-2--- SimpleNet(
  (fc1): Linear(in_features=12288, out_features=84, bias=True)
  (fc2): Linear(in_features=84, out_features=50, bias=True)
  (fc3): Linear(in_features=50, out_features=2, bias=True)
)
--------output.size(0)------ 64
--------targets.shape------ torch.Size([64])
--------inputs.size(0)------ 64
--train>>-model--summary-2--- SimpleNet(
  (fc1): Linear(in_features=12288, out_features=84, bias=True)
  (fc2): Linear(in_features=84, out_features=50, bias=True)
  (fc3): Linear(in_features=50, out_features=2, bias=True)
)
--------output.size(0)------ 64
--------targets.shape------ torch.Size([64])
--------inputs.size(0)------ 64
--train>>-model--summary-2--- SimpleNet(
  (fc1): Linear(in_features=12288, out_features=84, bias=True)
  (fc2): Linear(in_features=84, out_features=50, bias=True)
  (fc3): Linear(in_features=50, out_features=2, bias=True)
)
--------output.size(0)------ 64
--------targets.shape------ torch.Size([40])
--------inputs.size(0)------ 40
--train>>-model--summary-2--- SimpleNet(
  (fc1): Linear(in_features=12288, out_features=84, bias=True)
  (fc2): Linear(in_features=84, out_features=50, bias=True)
  (fc3): Linear(in_features=50, out_features=2, bias=True)
)
--------output.size(0)------ 40
-TRAIN----torch.cuda.memory_allocated---> 0.02 GB
Epoch:8,TRAIN_Loss:0.01,VAL_Loss:0.00, Accuracy = 1.00
---targets---- tensor([1, 1, 0, 1, 0, 1, 0, 1, 0, 0, 1, 1, 0, 0, 0, 0, 0, 0, 0, 0, 1, 1, 0, 1,
        1, 0, 1, 1, 0, 0, 1, 0, 1, 1, 1, 0, 0, 0, 0, 1, 1, 1, 1, 1, 0, 0, 0, 1,
        1, 1, 0, 0, 1, 1, 1, 0, 0, 1, 0, 0, 0, 0, 0, 0])
--train>>-model--summary---- SimpleNet(
  (fc1): Linear(in_features=12288, out_features=84, bias=True)
  (fc2): Linear(in_features=84, out_features=50, bias=True)
  (fc3): Linear(in_features=50, out_features=2, bias=True)
)
--train>>-model-loss--- tensor(0.0012, device='cuda:0', grad_fn=<NllLossBackward0>)
---targets---- tensor([1, 1, 0, 0, 1, 1, 0, 1, 0, 0, 0, 0, 0, 0, 0, 0, 0, 0, 0, 0, 1, 1, 1, 1,
        0, 1, 1, 0, 1, 0, 1, 1, 0, 0, 1, 1, 0, 1, 0, 1, 0, 1, 1, 0, 0, 1, 1, 0,
        0, 0, 1, 0, 1, 1, 1, 1, 0, 1, 0, 1, 0, 1, 0, 0])
--train>>-model--summary---- SimpleNet(
  (fc1): Linear(in_features=12288, out_features=84, bias=True)
  (fc2): Linear(in_features=84, out_features=50, bias=True)
  (fc3): Linear(in_features=50, out_features=2, bias=True)
)
--train>>-model-loss--- tensor(0.0049, device='cuda:0', grad_fn=<NllLossBackward0>)
---targets---- tensor([1, 0, 0, 0, 0, 0, 0, 1, 1, 1, 0, 0, 0, 0, 0, 1, 1, 1, 1, 1, 0, 0, 1, 1,
        0, 0, 1, 0, 0, 1, 0, 1, 1, 1, 0, 0, 0, 1, 0, 0, 0, 0, 1, 1, 1, 0, 0, 0,
        0, 1, 0, 0, 0, 1, 0, 1, 1, 0, 1, 0, 1, 0, 1, 0])
--train>>-model--summary---- SimpleNet(
  (fc1): Linear(in_features=12288, out_features=84, bias=True)
  (fc2): Linear(in_features=84, out_features=50, bias=True)
  (fc3): Linear(in_features=50, out_features=2, bias=True)
)
--train>>-model-loss--- tensor(0.0022, device='cuda:0', grad_fn=<NllLossBackward0>)
---targets---- tensor([0, 1, 0, 1, 0, 1, 0, 0, 0, 0, 1, 0, 1, 0, 0, 1, 0, 1, 1, 0, 1, 1, 0, 0,
        0, 1, 0, 0, 1, 0, 0, 0, 0, 1, 0, 1, 0, 0, 1, 1, 0, 1, 0, 0, 1, 1, 0, 0,
        0, 0, 0, 1, 0, 1, 0, 0, 1, 0, 0, 1, 0, 0, 1, 0])
--train>>-model--summary---- SimpleNet(
  (fc1): Linear(in_features=12288, out_features=84, bias=True)
  (fc2): Linear(in_features=84, out_features=50, bias=True)
  (fc3): Linear(in_features=50, out_features=2, bias=True)
)
--train>>-model-loss--- tensor(0.0004, device='cuda:0', grad_fn=<NllLossBackward0>)
---targets---- tensor([0, 1, 1, 0, 0, 1, 0, 0, 1, 1, 0, 1, 1, 1, 0, 1, 1, 1, 1, 0, 0, 0, 1, 0,
        1, 1, 0, 1, 1, 1, 0, 1, 1, 1, 1, 0, 0, 1, 0, 0, 0, 0, 1, 0, 0, 1, 1, 1,
        0, 0, 0, 0, 0, 0, 1, 1, 1, 1, 1, 0, 1, 1, 1, 0])
--train>>-model--summary---- SimpleNet(
  (fc1): Linear(in_features=12288, out_features=84, bias=True)
  (fc2): Linear(in_features=84, out_features=50, bias=True)
  (fc3): Linear(in_features=50, out_features=2, bias=True)
)
--train>>-model-loss--- tensor(0.0016, device='cuda:0', grad_fn=<NllLossBackward0>)
---targets---- tensor([1, 1, 0, 0, 1, 0, 0, 1, 1, 1, 0, 0, 0, 0, 1, 0, 1, 0, 1, 0, 0, 0, 0, 1,
        1, 0, 0, 0, 0, 1, 1, 0, 0, 0, 1, 1, 0, 1, 1, 0, 0, 1, 1, 0, 1, 0, 1, 1,
        1, 0, 0, 0, 0, 0, 0, 0, 0, 0, 0, 0, 0, 0, 0, 0])
--train>>-model--summary---- SimpleNet(
  (fc1): Linear(in_features=12288, out_features=84, bias=True)
  (fc2): Linear(in_features=84, out_features=50, bias=True)
  (fc3): Linear(in_features=50, out_features=2, bias=True)
)
--train>>-model-loss--- tensor(0.0031, device='cuda:0', grad_fn=<NllLossBackward0>)
---targets---- tensor([1, 0, 0, 1, 1, 1, 0, 1, 0, 0, 0, 0, 1, 1, 1, 0, 0, 0, 1, 0, 0, 1, 1, 0,
        0, 1, 0, 1, 0, 0, 1, 1, 0, 1, 1, 1, 1, 1, 0, 0, 0, 1, 0, 1, 1, 1, 1, 0,
        1, 0, 0, 0, 1, 1, 0, 1, 0, 0, 1, 1, 0, 1, 0, 1])
--train>>-model--summary---- SimpleNet(
  (fc1): Linear(in_features=12288, out_features=84, bias=True)
  (fc2): Linear(in_features=84, out_features=50, bias=True)
  (fc3): Linear(in_features=50, out_features=2, bias=True)
)
--train>>-model-loss--- tensor(0.0028, device='cuda:0', grad_fn=<NllLossBackward0>)
---targets---- tensor([1, 1, 1, 0, 0, 1, 0, 0, 0, 0, 1, 1, 0, 1, 1, 1, 0, 1, 0, 0, 0, 1, 0, 1,
        1, 0, 0, 1, 0, 0, 1, 0, 0, 0, 0, 1, 1, 0, 0, 1, 0, 1, 1, 0, 0, 0, 0, 0,
        1, 1, 1, 0, 0, 0, 0, 0, 1, 0, 1, 1, 0, 0, 0, 0])
--train>>-model--summary---- SimpleNet(
  (fc1): Linear(in_features=12288, out_features=84, bias=True)
  (fc2): Linear(in_features=84, out_features=50, bias=True)
  (fc3): Linear(in_features=50, out_features=2, bias=True)
)
--train>>-model-loss--- tensor(0.0007, device='cuda:0', grad_fn=<NllLossBackward0>)
---targets---- tensor([1, 0, 0, 0, 1, 0, 0, 1, 0, 0, 1, 1, 1, 1, 0, 1, 0, 0, 1, 1, 0, 1, 0, 0,
        0, 1, 0, 1, 1, 1, 1, 0, 1, 1, 0, 0, 0, 0, 0, 0, 1, 1, 0, 0, 1, 0, 1, 1,
        1, 0, 0, 0, 1, 0, 1, 1, 0, 1, 0, 0, 0, 1, 1, 0])
--train>>-model--summary---- SimpleNet(
  (fc1): Linear(in_features=12288, out_features=84, bias=True)
  (fc2): Linear(in_features=84, out_features=50, bias=True)
  (fc3): Linear(in_features=50, out_features=2, bias=True)
)
--train>>-model-loss--- tensor(0.0193, device='cuda:0', grad_fn=<NllLossBackward0>)
---targets---- tensor([1, 0, 1, 1, 0, 1, 0, 1, 1, 0, 1, 1, 0, 1, 1, 1, 0, 0, 1, 1, 0, 0, 1, 0,
        0, 1, 1, 0, 0, 1, 1, 1, 0, 1, 0, 0, 1, 1, 0, 0, 1, 1, 1, 0, 0, 0, 1, 1,
        0, 0, 0, 1, 1, 0, 0, 0, 0, 0, 1, 0, 1, 1, 1, 1])
--train>>-model--summary---- SimpleNet(
  (fc1): Linear(in_features=12288, out_features=84, bias=True)
  (fc2): Linear(in_features=84, out_features=50, bias=True)
  (fc3): Linear(in_features=50, out_features=2, bias=True)
)
--train>>-model-loss--- tensor(0.0009, device='cuda:0', grad_fn=<NllLossBackward0>)
---targets---- tensor([1, 1, 1, 1, 1, 1, 1, 0, 1, 0, 1, 0, 1, 1, 1, 1, 1, 0, 0, 0, 0, 1, 1, 0,
        0, 0, 1, 0, 1, 0, 1, 1, 1, 1, 1, 0, 1, 1, 0, 0, 0, 0, 0, 1, 1, 0, 1, 0,
        1, 1, 0, 0, 0, 1, 1, 0, 0, 0, 1, 1, 0, 0, 1, 1])
--train>>-model--summary---- SimpleNet(
  (fc1): Linear(in_features=12288, out_features=84, bias=True)
  (fc2): Linear(in_features=84, out_features=50, bias=True)
  (fc3): Linear(in_features=50, out_features=2, bias=True)
)
--train>>-model-loss--- tensor(0.0003, device='cuda:0', grad_fn=<NllLossBackward0>)
---targets---- tensor([0, 0, 1, 0, 0, 0, 0, 1, 0, 1, 1, 0, 1, 0, 0, 0, 1, 1, 0, 0, 1, 1, 1, 0,
        0, 0, 0, 0, 1, 0, 1, 0, 1, 0, 0, 0, 1, 0, 1, 1, 1, 1, 0, 0, 1, 0, 0, 0,
        0, 1, 1, 0, 1, 0, 1, 0, 1, 1, 1, 1, 1, 1, 0, 0])
--train>>-model--summary---- SimpleNet(
  (fc1): Linear(in_features=12288, out_features=84, bias=True)
  (fc2): Linear(in_features=84, out_features=50, bias=True)
  (fc3): Linear(in_features=50, out_features=2, bias=True)
)
--train>>-model-loss--- tensor(0.0027, device='cuda:0', grad_fn=<NllLossBackward0>)
---targets---- tensor([0, 1, 0, 1, 0, 0, 1, 0, 0, 0, 1, 1, 0, 0, 0, 1, 1, 0, 0, 0, 1, 1, 0, 0,
        0, 1, 0, 0, 1, 1, 0, 1, 0, 0, 0, 1, 0, 1, 1, 1, 1, 0, 0, 1, 1, 0, 1, 1,
        0, 0, 0, 0, 0, 1, 1, 1, 1, 1, 1, 0, 0, 0, 0, 1])
--train>>-model--summary---- SimpleNet(
  (fc1): Linear(in_features=12288, out_features=84, bias=True)
  (fc2): Linear(in_features=84, out_features=50, bias=True)
  (fc3): Linear(in_features=50, out_features=2, bias=True)
)
--train>>-model-loss--- tensor(0.0247, device='cuda:0', grad_fn=<NllLossBackward0>)
---targets---- tensor([0, 1, 0, 0, 0, 1, 1, 1, 0, 0, 0, 1, 0, 1, 1, 1, 1, 1, 1, 0, 1, 1, 1, 1,
        1, 0, 0, 0, 1, 1, 1, 1, 0, 0, 1, 1, 0, 0, 0, 0, 0, 0, 0, 1, 0, 0, 0, 0,
        0, 0, 1, 1, 0, 0, 0, 0, 0, 1, 1, 1, 0, 0, 0, 0])
--train>>-model--summary---- SimpleNet(
  (fc1): Linear(in_features=12288, out_features=84, bias=True)
  (fc2): Linear(in_features=84, out_features=50, bias=True)
  (fc3): Linear(in_features=50, out_features=2, bias=True)
)
--train>>-model-loss--- tensor(0.0023, device='cuda:0', grad_fn=<NllLossBackward0>)
---targets---- tensor([1, 1, 0, 1, 0, 0, 0, 1, 0, 0, 1, 1, 0, 1, 0, 1, 1, 1, 1, 1, 0, 0, 0, 0,
        0, 0, 1, 1, 0, 0, 1, 1, 1, 1, 1, 1, 1, 0, 1, 0])
--train>>-model--summary---- SimpleNet(
  (fc1): Linear(in_features=12288, out_features=84, bias=True)
  (fc2): Linear(in_features=84, out_features=50, bias=True)
  (fc3): Linear(in_features=50, out_features=2, bias=True)
)
--train>>-model-loss--- tensor(0.0005, device='cuda:0', grad_fn=<NllLossBackward0>)
--------targets.shape------ torch.Size([64])
--------inputs.size(0)------ 64
--train>>-model--summary-2--- SimpleNet(
  (fc1): Linear(in_features=12288, out_features=84, bias=True)
  (fc2): Linear(in_features=84, out_features=50, bias=True)
  (fc3): Linear(in_features=50, out_features=2, bias=True)
)
--------output.size(0)------ 64
--------targets.shape------ torch.Size([64])
--------inputs.size(0)------ 64
--train>>-model--summary-2--- SimpleNet(
  (fc1): Linear(in_features=12288, out_features=84, bias=True)
  (fc2): Linear(in_features=84, out_features=50, bias=True)
  (fc3): Linear(in_features=50, out_features=2, bias=True)
)
--------output.size(0)------ 64
--------targets.shape------ torch.Size([64])
--------inputs.size(0)------ 64
--train>>-model--summary-2--- SimpleNet(
  (fc1): Linear(in_features=12288, out_features=84, bias=True)
  (fc2): Linear(in_features=84, out_features=50, bias=True)
  (fc3): Linear(in_features=50, out_features=2, bias=True)
)
--------output.size(0)------ 64
--------targets.shape------ torch.Size([64])
--------inputs.size(0)------ 64
--train>>-model--summary-2--- SimpleNet(
  (fc1): Linear(in_features=12288, out_features=84, bias=True)
  (fc2): Linear(in_features=84, out_features=50, bias=True)
  (fc3): Linear(in_features=50, out_features=2, bias=True)
)
--------output.size(0)------ 64
--------targets.shape------ torch.Size([64])
--------inputs.size(0)------ 64
--train>>-model--summary-2--- SimpleNet(
  (fc1): Linear(in_features=12288, out_features=84, bias=True)
  (fc2): Linear(in_features=84, out_features=50, bias=True)
  (fc3): Linear(in_features=50, out_features=2, bias=True)
)
--------output.size(0)------ 64
--------targets.shape------ torch.Size([64])
--------inputs.size(0)------ 64
--train>>-model--summary-2--- SimpleNet(
  (fc1): Linear(in_features=12288, out_features=84, bias=True)
  (fc2): Linear(in_features=84, out_features=50, bias=True)
  (fc3): Linear(in_features=50, out_features=2, bias=True)
)
--------output.size(0)------ 64
--------targets.shape------ torch.Size([64])
--------inputs.size(0)------ 64
--train>>-model--summary-2--- SimpleNet(
  (fc1): Linear(in_features=12288, out_features=84, bias=True)
  (fc2): Linear(in_features=84, out_features=50, bias=True)
  (fc3): Linear(in_features=50, out_features=2, bias=True)
)
--------output.size(0)------ 64
--------targets.shape------ torch.Size([64])
--------inputs.size(0)------ 64
--train>>-model--summary-2--- SimpleNet(
  (fc1): Linear(in_features=12288, out_features=84, bias=True)
  (fc2): Linear(in_features=84, out_features=50, bias=True)
  (fc3): Linear(in_features=50, out_features=2, bias=True)
)
--------output.size(0)------ 64
--------targets.shape------ torch.Size([64])
--------inputs.size(0)------ 64
--train>>-model--summary-2--- SimpleNet(
  (fc1): Linear(in_features=12288, out_features=84, bias=True)
  (fc2): Linear(in_features=84, out_features=50, bias=True)
  (fc3): Linear(in_features=50, out_features=2, bias=True)
)
--------output.size(0)------ 64
--------targets.shape------ torch.Size([64])
--------inputs.size(0)------ 64
--train>>-model--summary-2--- SimpleNet(
  (fc1): Linear(in_features=12288, out_features=84, bias=True)
  (fc2): Linear(in_features=84, out_features=50, bias=True)
  (fc3): Linear(in_features=50, out_features=2, bias=True)
)
--------output.size(0)------ 64
--------targets.shape------ torch.Size([64])
--------inputs.size(0)------ 64
--train>>-model--summary-2--- SimpleNet(
  (fc1): Linear(in_features=12288, out_features=84, bias=True)
  (fc2): Linear(in_features=84, out_features=50, bias=True)
  (fc3): Linear(in_features=50, out_features=2, bias=True)
)
--------output.size(0)------ 64
--------targets.shape------ torch.Size([64])
--------inputs.size(0)------ 64
--train>>-model--summary-2--- SimpleNet(
  (fc1): Linear(in_features=12288, out_features=84, bias=True)
  (fc2): Linear(in_features=84, out_features=50, bias=True)
  (fc3): Linear(in_features=50, out_features=2, bias=True)
)
--------output.size(0)------ 64
--------targets.shape------ torch.Size([64])
--------inputs.size(0)------ 64
--train>>-model--summary-2--- SimpleNet(
  (fc1): Linear(in_features=12288, out_features=84, bias=True)
  (fc2): Linear(in_features=84, out_features=50, bias=True)
  (fc3): Linear(in_features=50, out_features=2, bias=True)
)
--------output.size(0)------ 64
--------targets.shape------ torch.Size([64])
--------inputs.size(0)------ 64
--train>>-model--summary-2--- SimpleNet(
  (fc1): Linear(in_features=12288, out_features=84, bias=True)
  (fc2): Linear(in_features=84, out_features=50, bias=True)
  (fc3): Linear(in_features=50, out_features=2, bias=True)
)
--------output.size(0)------ 64
--------targets.shape------ torch.Size([40])
--------inputs.size(0)------ 40
--train>>-model--summary-2--- SimpleNet(
  (fc1): Linear(in_features=12288, out_features=84, bias=True)
  (fc2): Linear(in_features=84, out_features=50, bias=True)
  (fc3): Linear(in_features=50, out_features=2, bias=True)
)
--------output.size(0)------ 40
-TRAIN----torch.cuda.memory_allocated---> 0.02 GB
Epoch:9,TRAIN_Loss:0.00,VAL_Loss:0.00, Accuracy = 1.00
---targets---- tensor([0, 0, 1, 0, 1, 0, 1, 0, 0, 1, 0, 1, 0, 1, 0, 1, 1, 0, 1, 0, 1, 0, 1, 1,
        1, 0, 1, 1, 1, 0, 1, 0, 1, 1, 1, 0, 0, 1, 1, 0, 0, 1, 0, 1, 0, 1, 1, 0,
        1, 1, 1, 0, 1, 0, 1, 1, 1, 1, 1, 0, 1, 0, 1, 0])
--train>>-model--summary---- SimpleNet(
  (fc1): Linear(in_features=12288, out_features=84, bias=True)
  (fc2): Linear(in_features=84, out_features=50, bias=True)
  (fc3): Linear(in_features=50, out_features=2, bias=True)
)
--train>>-model-loss--- tensor(0.0007, device='cuda:0', grad_fn=<NllLossBackward0>)
---targets---- tensor([1, 0, 1, 1, 1, 1, 1, 0, 0, 1, 1, 1, 0, 1, 0, 0, 1, 0, 0, 1, 0, 1, 0, 1,
        0, 0, 0, 1, 1, 0, 0, 0, 1, 1, 1, 1, 0, 1, 1, 0, 1, 0, 0, 1, 1, 0, 1, 0,
        1, 0, 0, 1, 0, 1, 1, 0, 1, 0, 1, 0, 0, 1, 0, 1])
--train>>-model--summary---- SimpleNet(
  (fc1): Linear(in_features=12288, out_features=84, bias=True)
  (fc2): Linear(in_features=84, out_features=50, bias=True)
  (fc3): Linear(in_features=50, out_features=2, bias=True)
)
--train>>-model-loss--- tensor(0.0039, device='cuda:0', grad_fn=<NllLossBackward0>)
---targets---- tensor([0, 1, 1, 1, 1, 0, 1, 1, 1, 1, 1, 0, 1, 0, 1, 0, 0, 1, 0, 0, 0, 1, 1, 1,
        0, 1, 1, 1, 0, 1, 1, 1, 0, 1, 0, 0, 0, 0, 1, 0, 1, 1, 0, 1, 1, 0, 0, 0,
        0, 0, 0, 0, 0, 0, 0, 1, 1, 0, 1, 0, 0, 1, 0, 0])
--train>>-model--summary---- SimpleNet(
  (fc1): Linear(in_features=12288, out_features=84, bias=True)
  (fc2): Linear(in_features=84, out_features=50, bias=True)
  (fc3): Linear(in_features=50, out_features=2, bias=True)
)
--train>>-model-loss--- tensor(0.0072, device='cuda:0', grad_fn=<NllLossBackward0>)
---targets---- tensor([0, 0, 0, 0, 1, 0, 0, 0, 1, 0, 1, 0, 1, 0, 1, 1, 1, 0, 1, 1, 1, 0, 0, 0,
        0, 1, 1, 0, 1, 1, 0, 0, 0, 0, 1, 0, 1, 1, 0, 1, 0, 0, 0, 1, 1, 0, 1, 0,
        0, 1, 1, 0, 0, 0, 1, 1, 1, 1, 0, 0, 0, 0, 1, 0])
--train>>-model--summary---- SimpleNet(
  (fc1): Linear(in_features=12288, out_features=84, bias=True)
  (fc2): Linear(in_features=84, out_features=50, bias=True)
  (fc3): Linear(in_features=50, out_features=2, bias=True)
)
--train>>-model-loss--- tensor(0.0100, device='cuda:0', grad_fn=<NllLossBackward0>)
---targets---- tensor([0, 0, 1, 0, 1, 0, 0, 0, 1, 1, 0, 0, 0, 0, 1, 0, 1, 1, 0, 0, 0, 1, 1, 0,
        1, 0, 0, 1, 0, 1, 1, 0, 0, 0, 1, 1, 1, 0, 0, 0, 1, 1, 1, 1, 0, 1, 1, 1,
        0, 0, 1, 0, 0, 0, 0, 0, 0, 1, 0, 1, 1, 1, 1, 0])
--train>>-model--summary---- SimpleNet(
  (fc1): Linear(in_features=12288, out_features=84, bias=True)
  (fc2): Linear(in_features=84, out_features=50, bias=True)
  (fc3): Linear(in_features=50, out_features=2, bias=True)
)
--train>>-model-loss--- tensor(0.0024, device='cuda:0', grad_fn=<NllLossBackward0>)
---targets---- tensor([0, 1, 1, 0, 1, 0, 1, 1, 0, 1, 1, 1, 1, 1, 0, 0, 0, 1, 0, 0, 1, 1, 0, 1,
        1, 0, 1, 0, 0, 1, 0, 0, 0, 0, 0, 1, 1, 0, 0, 1, 0, 0, 0, 1, 1, 0, 0, 1,
        0, 1, 0, 1, 0, 1, 0, 0, 1, 0, 0, 0, 0, 0, 0, 0])
--train>>-model--summary---- SimpleNet(
  (fc1): Linear(in_features=12288, out_features=84, bias=True)
  (fc2): Linear(in_features=84, out_features=50, bias=True)
  (fc3): Linear(in_features=50, out_features=2, bias=True)
)
--train>>-model-loss--- tensor(0.0004, device='cuda:0', grad_fn=<NllLossBackward0>)
---targets---- tensor([0, 1, 0, 0, 0, 1, 0, 1, 0, 1, 1, 0, 1, 0, 1, 1, 0, 1, 0, 1, 1, 0, 0, 1,
        0, 0, 1, 1, 1, 1, 0, 1, 0, 1, 1, 0, 1, 1, 0, 1, 0, 1, 0, 1, 0, 0, 0, 1,
        1, 0, 1, 0, 0, 1, 0, 0, 1, 0, 0, 0, 0, 1, 1, 1])
--train>>-model--summary---- SimpleNet(
  (fc1): Linear(in_features=12288, out_features=84, bias=True)
  (fc2): Linear(in_features=84, out_features=50, bias=True)
  (fc3): Linear(in_features=50, out_features=2, bias=True)
)
--train>>-model-loss--- tensor(0.0015, device='cuda:0', grad_fn=<NllLossBackward0>)
---targets---- tensor([0, 0, 0, 1, 0, 1, 0, 0, 0, 1, 0, 0, 1, 0, 0, 1, 0, 1, 0, 1, 0, 1, 0, 0,
        1, 0, 0, 0, 0, 0, 0, 0, 1, 1, 0, 1, 1, 1, 0, 0, 0, 0, 1, 0, 1, 0, 1, 0,
        1, 1, 0, 1, 0, 1, 1, 1, 1, 0, 0, 0, 0, 0, 1, 0])
--train>>-model--summary---- SimpleNet(
  (fc1): Linear(in_features=12288, out_features=84, bias=True)
  (fc2): Linear(in_features=84, out_features=50, bias=True)
  (fc3): Linear(in_features=50, out_features=2, bias=True)
)
--train>>-model-loss--- tensor(0.0009, device='cuda:0', grad_fn=<NllLossBackward0>)
---targets---- tensor([0, 1, 0, 0, 1, 1, 1, 1, 1, 0, 1, 0, 1, 0, 1, 1, 1, 1, 1, 0, 0, 1, 1, 0,
        1, 1, 0, 0, 1, 1, 1, 1, 0, 1, 0, 1, 1, 0, 1, 0, 0, 0, 1, 0, 0, 1, 1, 1,
        1, 1, 0, 1, 1, 0, 0, 0, 1, 0, 1, 0, 0, 0, 0, 0])
--train>>-model--summary---- SimpleNet(
  (fc1): Linear(in_features=12288, out_features=84, bias=True)
  (fc2): Linear(in_features=84, out_features=50, bias=True)
  (fc3): Linear(in_features=50, out_features=2, bias=True)
)
--train>>-model-loss--- tensor(0.0016, device='cuda:0', grad_fn=<NllLossBackward0>)
---targets---- tensor([0, 0, 0, 1, 1, 1, 0, 1, 1, 0, 0, 1, 1, 1, 0, 0, 0, 0, 1, 0, 1, 0, 1, 1,
        1, 1, 1, 0, 1, 1, 0, 0, 0, 0, 1, 1, 1, 1, 1, 0, 1, 1, 0, 0, 0, 1, 1, 1,
        1, 0, 1, 0, 0, 0, 0, 0, 1, 1, 0, 0, 1, 0, 1, 0])
--train>>-model--summary---- SimpleNet(
  (fc1): Linear(in_features=12288, out_features=84, bias=True)
  (fc2): Linear(in_features=84, out_features=50, bias=True)
  (fc3): Linear(in_features=50, out_features=2, bias=True)
)
--train>>-model-loss--- tensor(0.0004, device='cuda:0', grad_fn=<NllLossBackward0>)
---targets---- tensor([0, 1, 0, 1, 0, 0, 1, 1, 0, 0, 1, 1, 1, 0, 1, 0, 0, 0, 0, 1, 1, 1, 0, 1,
        1, 1, 0, 0, 1, 1, 0, 0, 0, 0, 1, 1, 0, 1, 0, 0, 0, 1, 0, 0, 0, 0, 1, 0,
        0, 1, 0, 0, 0, 0, 0, 0, 0, 1, 1, 1, 1, 0, 1, 1])
--train>>-model--summary---- SimpleNet(
  (fc1): Linear(in_features=12288, out_features=84, bias=True)
  (fc2): Linear(in_features=84, out_features=50, bias=True)
  (fc3): Linear(in_features=50, out_features=2, bias=True)
)
--train>>-model-loss--- tensor(0.0001, device='cuda:0', grad_fn=<NllLossBackward0>)
---targets---- tensor([0, 0, 0, 0, 0, 1, 0, 0, 1, 1, 1, 0, 0, 0, 0, 0, 1, 0, 1, 1, 0, 0, 0, 0,
        1, 0, 0, 1, 0, 0, 0, 0, 1, 1, 0, 0, 1, 0, 1, 1, 0, 0, 0, 0, 1, 0, 0, 0,
        1, 1, 0, 1, 1, 1, 0, 1, 1, 0, 1, 1, 0, 0, 0, 1])
--train>>-model--summary---- SimpleNet(
  (fc1): Linear(in_features=12288, out_features=84, bias=True)
  (fc2): Linear(in_features=84, out_features=50, bias=True)
  (fc3): Linear(in_features=50, out_features=2, bias=True)
)
--train>>-model-loss--- tensor(0.0012, device='cuda:0', grad_fn=<NllLossBackward0>)
---targets---- tensor([0, 0, 0, 0, 1, 0, 1, 0, 0, 0, 0, 0, 0, 1, 0, 1, 0, 1, 0, 0, 0, 1, 1, 1,
        1, 1, 0, 0, 0, 1, 1, 0, 1, 1, 1, 0, 0, 0, 0, 0, 0, 1, 0, 1, 0, 1, 0, 0,
        1, 0, 1, 0, 0, 1, 0, 1, 0, 1, 0, 0, 1, 0, 0, 1])
--train>>-model--summary---- SimpleNet(
  (fc1): Linear(in_features=12288, out_features=84, bias=True)
  (fc2): Linear(in_features=84, out_features=50, bias=True)
  (fc3): Linear(in_features=50, out_features=2, bias=True)
)
--train>>-model-loss--- tensor(0.0008, device='cuda:0', grad_fn=<NllLossBackward0>)
---targets---- tensor([1, 0, 0, 0, 0, 1, 1, 0, 0, 1, 1, 0, 0, 1, 1, 1, 0, 0, 0, 1, 0, 0, 0, 0,
        1, 0, 0, 1, 1, 0, 0, 1, 1, 0, 1, 0, 0, 0, 1, 0, 0, 1, 0, 1, 1, 0, 0, 1,
        1, 0, 1, 0, 1, 1, 0, 1, 0, 1, 0, 0, 0, 1, 1, 1])
--train>>-model--summary---- SimpleNet(
  (fc1): Linear(in_features=12288, out_features=84, bias=True)
  (fc2): Linear(in_features=84, out_features=50, bias=True)
  (fc3): Linear(in_features=50, out_features=2, bias=True)
)
--train>>-model-loss--- tensor(0.0027, device='cuda:0', grad_fn=<NllLossBackward0>)
---targets---- tensor([0, 1, 0, 1, 0, 1, 1, 1, 0, 0, 1, 1, 1, 1, 1, 0, 1, 0, 0, 0, 1, 0, 0, 0,
        0, 0, 0, 0, 1, 0, 0, 1, 1, 0, 0, 0, 0, 1, 1, 0])
--train>>-model--summary---- SimpleNet(
  (fc1): Linear(in_features=12288, out_features=84, bias=True)
  (fc2): Linear(in_features=84, out_features=50, bias=True)
  (fc3): Linear(in_features=50, out_features=2, bias=True)
)
--train>>-model-loss--- tensor(0.0011, device='cuda:0', grad_fn=<NllLossBackward0>)
--------targets.shape------ torch.Size([64])
--------inputs.size(0)------ 64
--train>>-model--summary-2--- SimpleNet(
  (fc1): Linear(in_features=12288, out_features=84, bias=True)
  (fc2): Linear(in_features=84, out_features=50, bias=True)
  (fc3): Linear(in_features=50, out_features=2, bias=True)
)
--------output.size(0)------ 64
--------targets.shape------ torch.Size([64])
--------inputs.size(0)------ 64
--train>>-model--summary-2--- SimpleNet(
  (fc1): Linear(in_features=12288, out_features=84, bias=True)
  (fc2): Linear(in_features=84, out_features=50, bias=True)
  (fc3): Linear(in_features=50, out_features=2, bias=True)
)
--------output.size(0)------ 64
--------targets.shape------ torch.Size([64])
--------inputs.size(0)------ 64
--train>>-model--summary-2--- SimpleNet(
  (fc1): Linear(in_features=12288, out_features=84, bias=True)
  (fc2): Linear(in_features=84, out_features=50, bias=True)
  (fc3): Linear(in_features=50, out_features=2, bias=True)
)
--------output.size(0)------ 64
--------targets.shape------ torch.Size([64])
--------inputs.size(0)------ 64
--train>>-model--summary-2--- SimpleNet(
  (fc1): Linear(in_features=12288, out_features=84, bias=True)
  (fc2): Linear(in_features=84, out_features=50, bias=True)
  (fc3): Linear(in_features=50, out_features=2, bias=True)
)
--------output.size(0)------ 64
--------targets.shape------ torch.Size([64])
--------inputs.size(0)------ 64
--train>>-model--summary-2--- SimpleNet(
  (fc1): Linear(in_features=12288, out_features=84, bias=True)
  (fc2): Linear(in_features=84, out_features=50, bias=True)
  (fc3): Linear(in_features=50, out_features=2, bias=True)
)
--------output.size(0)------ 64
--------targets.shape------ torch.Size([64])
--------inputs.size(0)------ 64
--train>>-model--summary-2--- SimpleNet(
  (fc1): Linear(in_features=12288, out_features=84, bias=True)
  (fc2): Linear(in_features=84, out_features=50, bias=True)
  (fc3): Linear(in_features=50, out_features=2, bias=True)
)
--------output.size(0)------ 64
--------targets.shape------ torch.Size([64])
--------inputs.size(0)------ 64
--train>>-model--summary-2--- SimpleNet(
  (fc1): Linear(in_features=12288, out_features=84, bias=True)
  (fc2): Linear(in_features=84, out_features=50, bias=True)
  (fc3): Linear(in_features=50, out_features=2, bias=True)
)
--------output.size(0)------ 64
--------targets.shape------ torch.Size([64])
--------inputs.size(0)------ 64
--train>>-model--summary-2--- SimpleNet(
  (fc1): Linear(in_features=12288, out_features=84, bias=True)
  (fc2): Linear(in_features=84, out_features=50, bias=True)
  (fc3): Linear(in_features=50, out_features=2, bias=True)
)
--------output.size(0)------ 64
--------targets.shape------ torch.Size([64])
--------inputs.size(0)------ 64
--train>>-model--summary-2--- SimpleNet(
  (fc1): Linear(in_features=12288, out_features=84, bias=True)
  (fc2): Linear(in_features=84, out_features=50, bias=True)
  (fc3): Linear(in_features=50, out_features=2, bias=True)
)
--------output.size(0)------ 64
--------targets.shape------ torch.Size([64])
--------inputs.size(0)------ 64
--train>>-model--summary-2--- SimpleNet(
  (fc1): Linear(in_features=12288, out_features=84, bias=True)
  (fc2): Linear(in_features=84, out_features=50, bias=True)
  (fc3): Linear(in_features=50, out_features=2, bias=True)
)
--------output.size(0)------ 64
--------targets.shape------ torch.Size([64])
--------inputs.size(0)------ 64
--train>>-model--summary-2--- SimpleNet(
  (fc1): Linear(in_features=12288, out_features=84, bias=True)
  (fc2): Linear(in_features=84, out_features=50, bias=True)
  (fc3): Linear(in_features=50, out_features=2, bias=True)
)
--------output.size(0)------ 64
--------targets.shape------ torch.Size([64])
--------inputs.size(0)------ 64
--train>>-model--summary-2--- SimpleNet(
  (fc1): Linear(in_features=12288, out_features=84, bias=True)
  (fc2): Linear(in_features=84, out_features=50, bias=True)
  (fc3): Linear(in_features=50, out_features=2, bias=True)
)
--------output.size(0)------ 64
--------targets.shape------ torch.Size([64])
--------inputs.size(0)------ 64
--train>>-model--summary-2--- SimpleNet(
  (fc1): Linear(in_features=12288, out_features=84, bias=True)
  (fc2): Linear(in_features=84, out_features=50, bias=True)
  (fc3): Linear(in_features=50, out_features=2, bias=True)
)
--------output.size(0)------ 64
--------targets.shape------ torch.Size([64])
--------inputs.size(0)------ 64
--train>>-model--summary-2--- SimpleNet(
  (fc1): Linear(in_features=12288, out_features=84, bias=True)
  (fc2): Linear(in_features=84, out_features=50, bias=True)
  (fc3): Linear(in_features=50, out_features=2, bias=True)
)
--------output.size(0)------ 64
--------targets.shape------ torch.Size([40])
--------inputs.size(0)------ 40
--train>>-model--summary-2--- SimpleNet(
  (fc1): Linear(in_features=12288, out_features=84, bias=True)
  (fc2): Linear(in_features=84, out_features=50, bias=True)
  (fc3): Linear(in_features=50, out_features=2, bias=True)
)
--------output.size(0)------ 40
-TRAIN----torch.cuda.memory_allocated---> 0.02 GB
Epoch:10,TRAIN_Loss:0.00,VAL_Loss:0.01, Accuracy = 1.00
