…
-------val_data---- <class 'torchvision.datasets.folder.ImageFolder'>
-------train_data_loader---- <class 'torch.utils.data.dataloader.DataLoader'>
-----type(simplenet-------
 <class '__main__.SimpleNet'>
-----type(optimizer-------
 <class 'torch.optim.adam.Adam'>
--1-torch.cuda.memory_allocated---> 0.00 GB
--2-torch.cuda.memory_allocated---> 0.00 GB
--train--device----
 cuda
---targets---- tensor([1, 0, 0, 0, 1, 0, 0, 1, 1, 0, 1, 0, 1, 0, 0, 1, 0, 0, 1, 1, 0, 1, 1, 1,
        1, 0, 0, 1, 0, 1, 1, 1, 1, 0, 0, 1, 0, 1, 0, 0, 0, 0, 1, 0, 1, 0, 0, 1,
        0, 0, 0, 0, 1, 1, 0, 1, 0, 1, 0, 1, 1, 1, 1, 0])
--train>>-model--summary---- SimpleNet(
  (fc1): Linear(in_features=12288, out_features=84, bias=True)
  (fc2): Linear(in_features=84, out_features=50, bias=True)
  (fc3): Linear(in_features=50, out_features=2, bias=True)
)
--train>>-model-loss--- tensor(0.7457, device='cuda:0', grad_fn=<NllLossBackward0>)
---targets---- tensor([0, 1, 0, 0, 0, 0, 1, 0, 1, 1, 1, 1, 1, 0, 1, 0, 1, 1, 1, 0, 0, 0, 1, 1,
        0, 0, 0, 1, 1, 0, 1, 0, 0, 0, 1, 1, 0, 0, 1, 0, 1, 0, 0, 0, 1, 0, 0, 1,
        1, 1, 0, 0, 1, 1, 0, 0, 1, 0, 0, 0, 0, 1, 1, 1])
--train>>-model--summary---- SimpleNet(
  (fc1): Linear(in_features=12288, out_features=84, bias=True)
  (fc2): Linear(in_features=84, out_features=50, bias=True)
  (fc3): Linear(in_features=50, out_features=2, bias=True)
)
--train>>-model-loss--- tensor(0.8672, device='cuda:0', grad_fn=<NllLossBackward0>)
---targets---- tensor([0, 0, 1, 1, 1, 1, 1, 1, 0, 1, 1, 1, 1, 1, 0, 1, 0, 0, 0, 0, 1, 1, 1, 0,
        0, 1, 0, 0, 1, 1, 0, 0, 1, 0, 1, 0, 0, 1, 0, 0, 0, 1, 1, 0, 0, 0, 1, 1,
        1, 1, 0, 1, 0, 1, 0, 0, 0, 1, 1, 0, 1, 1, 0, 1])
--train>>-model--summary---- SimpleNet(
  (fc1): Linear(in_features=12288, out_features=84, bias=True)
  (fc2): Linear(in_features=84, out_features=50, bias=True)
  (fc3): Linear(in_features=50, out_features=2, bias=True)
)
--train>>-model-loss--- tensor(0.5694, device='cuda:0', grad_fn=<NllLossBackward0>)
---targets---- tensor([0, 1, 1, 1, 1, 0, 0, 0, 1, 1, 0, 1, 1, 0, 0, 1, 0, 0, 1, 1, 0, 1, 1, 0,
        1, 0, 0, 1, 0, 1, 1, 0, 0, 0, 1, 1, 0, 0, 0, 1, 0, 1, 0, 0, 1, 1, 1, 1,
        0, 1, 1, 0, 0, 0, 1, 0, 0, 1, 0, 0, 1, 1, 0, 0])
--train>>-model--summary---- SimpleNet(
  (fc1): Linear(in_features=12288, out_features=84, bias=True)
  (fc2): Linear(in_features=84, out_features=50, bias=True)
  (fc3): Linear(in_features=50, out_features=2, bias=True)
)
--train>>-model-loss--- tensor(0.2779, device='cuda:0', grad_fn=<NllLossBackward0>)
---targets---- tensor([0, 0, 0, 1, 0, 0, 0, 0, 1, 0, 1, 0, 1, 0, 1, 0, 0, 1, 0, 0, 1, 1, 1, 1,
        1, 0, 0, 0, 0, 0, 0, 0, 0, 1, 0, 1, 1, 1, 0, 1, 0, 1, 0, 0, 0, 0, 0, 1,
        0, 0, 0, 0, 0, 0, 0, 1, 1, 1, 0, 0, 0, 0, 1, 1])
--train>>-model--summary---- SimpleNet(
  (fc1): Linear(in_features=12288, out_features=84, bias=True)
  (fc2): Linear(in_features=84, out_features=50, bias=True)
  (fc3): Linear(in_features=50, out_features=2, bias=True)
)
--train>>-model-loss--- tensor(0.4336, device='cuda:0', grad_fn=<NllLossBackward0>)
---targets---- tensor([1, 1, 1, 0, 0, 0, 1, 0, 1, 1, 1, 0, 0, 1, 1, 0, 1, 1, 1, 1, 0, 1, 0, 0,
        0, 0, 1, 1, 0, 1, 0, 1, 0, 0, 0, 0, 1, 1, 1, 1, 0, 1, 1, 0, 1, 0, 1, 1,
        1, 0, 1, 1, 0, 0, 1, 1, 1, 0, 0, 0, 1, 0, 0, 0])
--train>>-model--summary---- SimpleNet(
  (fc1): Linear(in_features=12288, out_features=84, bias=True)
  (fc2): Linear(in_features=84, out_features=50, bias=True)
  (fc3): Linear(in_features=50, out_features=2, bias=True)
)
--train>>-model-loss--- tensor(0.1725, device='cuda:0', grad_fn=<NllLossBackward0>)
---targets---- tensor([0, 0, 0, 1, 1, 0, 1, 0, 1, 0, 0, 0, 0, 1, 0, 0, 1, 1, 1, 1, 0, 0, 0, 1,
        0, 0, 0, 0, 1, 0, 1, 1, 1, 1, 0, 1, 1, 1, 1, 0, 0, 0, 1, 1, 1, 1, 0, 0,
        0, 0, 0, 0, 1, 1, 0, 0, 1, 0, 0, 0, 0, 1, 0, 1])
--train>>-model--summary---- SimpleNet(
  (fc1): Linear(in_features=12288, out_features=84, bias=True)
  (fc2): Linear(in_features=84, out_features=50, bias=True)
  (fc3): Linear(in_features=50, out_features=2, bias=True)
)
--train>>-model-loss--- tensor(0.1483, device='cuda:0', grad_fn=<NllLossBackward0>)
---targets---- tensor([1, 1, 1, 1, 0, 0, 0, 1, 1, 0, 1, 0, 0, 0, 0, 0, 1, 0, 1, 0, 0, 1, 1, 0,
        0, 0, 1, 0, 1, 1, 0, 0, 1, 1, 1, 1, 0, 1, 0, 0, 0, 1, 0, 1, 0, 0, 1, 1,
        0, 0, 0, 1, 0, 0, 1, 0, 1, 1, 1, 0, 1, 0, 1, 1])
--train>>-model--summary---- SimpleNet(
  (fc1): Linear(in_features=12288, out_features=84, bias=True)
  (fc2): Linear(in_features=84, out_features=50, bias=True)
  (fc3): Linear(in_features=50, out_features=2, bias=True)
)
--train>>-model-loss--- tensor(0.0228, device='cuda:0', grad_fn=<NllLossBackward0>)
---targets---- tensor([1, 0, 0, 0, 0, 1, 1, 0, 0, 0, 1, 0, 0, 0, 0, 0, 1, 0, 1, 1, 0, 1, 1, 1,
        1, 1, 0, 1, 1, 0, 0, 1, 1, 0, 0, 0, 0, 1, 1, 1, 1, 1, 0, 1, 0, 0, 1, 1,
        0, 0, 0, 1, 0, 0, 1, 0, 1, 0, 1, 1, 1, 1, 1, 0])
--train>>-model--summary---- SimpleNet(
  (fc1): Linear(in_features=12288, out_features=84, bias=True)
  (fc2): Linear(in_features=84, out_features=50, bias=True)
  (fc3): Linear(in_features=50, out_features=2, bias=True)
)
--train>>-model-loss--- tensor(0.3302, device='cuda:0', grad_fn=<NllLossBackward0>)
---targets---- tensor([1, 0, 0, 1, 0, 0, 0, 0, 0, 0, 1, 0, 1, 1, 1, 0, 0, 1, 0, 0, 1, 1, 0, 1,
        0, 1, 1, 1, 1, 1, 0, 0, 1, 1, 0, 0, 0, 0, 1, 0, 1, 1, 1, 1, 1, 1, 0, 0,
        0, 1, 1, 0, 1, 0, 0, 1, 0, 0, 0, 1, 1, 1, 1, 1])
--train>>-model--summary---- SimpleNet(
  (fc1): Linear(in_features=12288, out_features=84, bias=True)
  (fc2): Linear(in_features=84, out_features=50, bias=True)
  (fc3): Linear(in_features=50, out_features=2, bias=True)
)
--train>>-model-loss--- tensor(0.2826, device='cuda:0', grad_fn=<NllLossBackward0>)
---targets---- tensor([1, 0, 1, 0, 1, 1, 0, 0, 1, 1, 0, 0, 1, 0, 0, 0, 0, 0, 0, 1, 0, 1, 0, 0,
        0, 0, 1, 1, 0, 1, 0, 0, 1, 1, 0, 1, 0, 1, 1, 1, 1, 1, 1, 0, 0, 1, 0, 0,
        1, 0, 1, 0, 0, 0, 1, 0, 0, 0, 0, 0, 1, 1, 0, 0])
--train>>-model--summary---- SimpleNet(
  (fc1): Linear(in_features=12288, out_features=84, bias=True)
  (fc2): Linear(in_features=84, out_features=50, bias=True)
  (fc3): Linear(in_features=50, out_features=2, bias=True)
)
--train>>-model-loss--- tensor(0.1707, device='cuda:0', grad_fn=<NllLossBackward0>)
---targets---- tensor([0, 0, 1, 0, 1, 0, 0, 1, 1, 1, 1, 0, 1, 0, 0, 0, 0, 1, 1, 1, 1, 0, 0, 0,
        0, 0, 1, 0, 1, 1, 0, 1, 0, 0, 0, 0, 0, 0, 1, 0, 1, 1, 1, 0, 0, 1, 1, 1,
        0, 1, 1, 0, 1, 1, 1, 1, 1, 0, 0, 1, 1, 1, 1, 1])
--train>>-model--summary---- SimpleNet(
  (fc1): Linear(in_features=12288, out_features=84, bias=True)
  (fc2): Linear(in_features=84, out_features=50, bias=True)
  (fc3): Linear(in_features=50, out_features=2, bias=True)
)
--train>>-model-loss--- tensor(0.3055, device='cuda:0', grad_fn=<NllLossBackward0>)
---targets---- tensor([0, 1, 1, 1, 1, 0, 0, 1, 0, 0, 0, 0, 1, 0, 0, 1, 0, 1, 0, 1, 0, 1, 1, 1,
        0, 1, 1, 0, 0, 1, 0, 1, 0, 0, 0, 0, 0, 1, 0, 0, 1, 0, 0, 1, 1, 1, 0, 0,
        0, 0, 1, 0, 1, 0, 1, 1, 0, 0, 0, 0, 0, 1, 1, 0])
--train>>-model--summary---- SimpleNet(
  (fc1): Linear(in_features=12288, out_features=84, bias=True)
  (fc2): Linear(in_features=84, out_features=50, bias=True)
  (fc3): Linear(in_features=50, out_features=2, bias=True)
)
--train>>-model-loss--- tensor(0.1069, device='cuda:0', grad_fn=<NllLossBackward0>)
---targets---- tensor([0, 0, 0, 0, 0, 0, 0, 0, 0, 0, 0, 1, 1, 0, 0, 1, 0, 0, 1, 1, 0, 1, 0, 0,
        1, 0, 1, 1, 1, 1, 1, 0, 0, 0, 1, 0, 1, 0, 1, 1, 1, 0, 0, 1, 1, 0, 0, 0,
        0, 0, 0, 0, 0, 0, 0, 0, 0, 1, 1, 0, 1, 1, 0, 1])
--train>>-model--summary---- SimpleNet(
  (fc1): Linear(in_features=12288, out_features=84, bias=True)
  (fc2): Linear(in_features=84, out_features=50, bias=True)
  (fc3): Linear(in_features=50, out_features=2, bias=True)
)
--train>>-model-loss--- tensor(0.0539, device='cuda:0', grad_fn=<NllLossBackward0>)
---targets---- tensor([0, 1, 0, 1, 0, 0, 0, 0, 0, 1, 1, 1, 0, 0, 0, 0, 0, 0, 1, 0, 1, 1, 0, 0,
        0, 0, 1, 0, 1, 1, 0, 0, 0, 1, 1, 1, 0, 0, 1, 1])
--train>>-model--summary---- SimpleNet(
  (fc1): Linear(in_features=12288, out_features=84, bias=True)
  (fc2): Linear(in_features=84, out_features=50, bias=True)
  (fc3): Linear(in_features=50, out_features=2, bias=True)
)
--train>>-model-loss--- tensor(0.0699, device='cuda:0', grad_fn=<NllLossBackward0>)
--------targets.shape------ torch.Size([64])
--------inputs.size(0)------ 64
--train>>-model--summary-2--- SimpleNet(
  (fc1): Linear(in_features=12288, out_features=84, bias=True)
  (fc2): Linear(in_features=84, out_features=50, bias=True)
  (fc3): Linear(in_features=50, out_features=2, bias=True)
)
--------output.size(0)------ 64
--------targets.shape------ torch.Size([64])
--------inputs.size(0)------ 64
--train>>-model--summary-2--- SimpleNet(
  (fc1): Linear(in_features=12288, out_features=84, bias=True)
  (fc2): Linear(in_features=84, out_features=50, bias=True)
  (fc3): Linear(in_features=50, out_features=2, bias=True)
)
--------output.size(0)------ 64
--------targets.shape------ torch.Size([64])
--------inputs.size(0)------ 64
--train>>-model--summary-2--- SimpleNet(
  (fc1): Linear(in_features=12288, out_features=84, bias=True)
  (fc2): Linear(in_features=84, out_features=50, bias=True)
  (fc3): Linear(in_features=50, out_features=2, bias=True)
)
--------output.size(0)------ 64
--------targets.shape------ torch.Size([64])
--------inputs.size(0)------ 64
--train>>-model--summary-2--- SimpleNet(
  (fc1): Linear(in_features=12288, out_features=84, bias=True)
  (fc2): Linear(in_features=84, out_features=50, bias=True)
  (fc3): Linear(in_features=50, out_features=2, bias=True)
)
--------output.size(0)------ 64
--------targets.shape------ torch.Size([64])
--------inputs.size(0)------ 64
--train>>-model--summary-2--- SimpleNet(
  (fc1): Linear(in_features=12288, out_features=84, bias=True)
  (fc2): Linear(in_features=84, out_features=50, bias=True)
  (fc3): Linear(in_features=50, out_features=2, bias=True)
)
--------output.size(0)------ 64
--------targets.shape------ torch.Size([64])
--------inputs.size(0)------ 64
--train>>-model--summary-2--- SimpleNet(
  (fc1): Linear(in_features=12288, out_features=84, bias=True)
  (fc2): Linear(in_features=84, out_features=50, bias=True)
  (fc3): Linear(in_features=50, out_features=2, bias=True)
)
--------output.size(0)------ 64
--------targets.shape------ torch.Size([64])
--------inputs.size(0)------ 64
--train>>-model--summary-2--- SimpleNet(
  (fc1): Linear(in_features=12288, out_features=84, bias=True)
  (fc2): Linear(in_features=84, out_features=50, bias=True)
  (fc3): Linear(in_features=50, out_features=2, bias=True)
)
--------output.size(0)------ 64
--------targets.shape------ torch.Size([64])
--------inputs.size(0)------ 64
--train>>-model--summary-2--- SimpleNet(
  (fc1): Linear(in_features=12288, out_features=84, bias=True)
  (fc2): Linear(in_features=84, out_features=50, bias=True)
  (fc3): Linear(in_features=50, out_features=2, bias=True)
)
--------output.size(0)------ 64
--------targets.shape------ torch.Size([64])
--------inputs.size(0)------ 64
--train>>-model--summary-2--- SimpleNet(
  (fc1): Linear(in_features=12288, out_features=84, bias=True)
  (fc2): Linear(in_features=84, out_features=50, bias=True)
  (fc3): Linear(in_features=50, out_features=2, bias=True)
)
--------output.size(0)------ 64
--------targets.shape------ torch.Size([64])
--------inputs.size(0)------ 64
--train>>-model--summary-2--- SimpleNet(
  (fc1): Linear(in_features=12288, out_features=84, bias=True)
  (fc2): Linear(in_features=84, out_features=50, bias=True)
  (fc3): Linear(in_features=50, out_features=2, bias=True)
)
--------output.size(0)------ 64
--------targets.shape------ torch.Size([64])
--------inputs.size(0)------ 64
--train>>-model--summary-2--- SimpleNet(
  (fc1): Linear(in_features=12288, out_features=84, bias=True)
  (fc2): Linear(in_features=84, out_features=50, bias=True)
  (fc3): Linear(in_features=50, out_features=2, bias=True)
)
--------output.size(0)------ 64
--------targets.shape------ torch.Size([64])
--------inputs.size(0)------ 64
--train>>-model--summary-2--- SimpleNet(
  (fc1): Linear(in_features=12288, out_features=84, bias=True)
  (fc2): Linear(in_features=84, out_features=50, bias=True)
  (fc3): Linear(in_features=50, out_features=2, bias=True)
)
--------output.size(0)------ 64
--------targets.shape------ torch.Size([64])
--------inputs.size(0)------ 64
--train>>-model--summary-2--- SimpleNet(
  (fc1): Linear(in_features=12288, out_features=84, bias=True)
  (fc2): Linear(in_features=84, out_features=50, bias=True)
  (fc3): Linear(in_features=50, out_features=2, bias=True)
)
--------output.size(0)------ 64
--------targets.shape------ torch.Size([64])
--------inputs.size(0)------ 64
--train>>-model--summary-2--- SimpleNet(
  (fc1): Linear(in_features=12288, out_features=84, bias=True)
  (fc2): Linear(in_features=84, out_features=50, bias=True)
  (fc3): Linear(in_features=50, out_features=2, bias=True)
)
--------output.size(0)------ 64
--------targets.shape------ torch.Size([40])
--------inputs.size(0)------ 40
--train>>-model--summary-2--- SimpleNet(
  (fc1): Linear(in_features=12288, out_features=84, bias=True)
  (fc2): Linear(in_features=84, out_features=50, bias=True)
  (fc3): Linear(in_features=50, out_features=2, bias=True)
)
--------output.size(0)------ 40
-TRAIN----torch.cuda.memory_allocated---> 0.02 GB
Epoch:1,TRAIN_Loss:0.31,VAL_Loss:0.11, Accuracy = 0.96
---targets---- tensor([0, 0, 0, 0, 0, 0, 0, 0, 0, 1, 0, 1, 1, 1, 0, 1, 0, 1, 1, 1, 1, 0, 1, 0,
        1, 0, 0, 1, 1, 1, 0, 1, 1, 0, 0, 1, 0, 0, 0, 1, 0, 1, 1, 1, 1, 0, 0, 1,
        0, 1, 0, 0, 1, 0, 1, 0, 1, 1, 0, 1, 0, 0, 0, 0])
--train>>-model--summary---- SimpleNet(
  (fc1): Linear(in_features=12288, out_features=84, bias=True)
  (fc2): Linear(in_features=84, out_features=50, bias=True)
  (fc3): Linear(in_features=50, out_features=2, bias=True)
)
--train>>-model-loss--- tensor(0.0446, device='cuda:0', grad_fn=<NllLossBackward0>)
---targets---- tensor([1, 1, 0, 1, 1, 1, 0, 1, 0, 0, 1, 0, 0, 1, 1, 1, 0, 0, 0, 0, 1, 0, 0, 1,
        0, 1, 0, 0, 0, 1, 1, 0, 1, 0, 1, 1, 0, 0, 0, 0, 1, 0, 0, 0, 1, 1, 1, 0,
        1, 0, 0, 1, 1, 1, 1, 1, 1, 1, 0, 0, 1, 1, 1, 0])
--train>>-model--summary---- SimpleNet(
  (fc1): Linear(in_features=12288, out_features=84, bias=True)
  (fc2): Linear(in_features=84, out_features=50, bias=True)
  (fc3): Linear(in_features=50, out_features=2, bias=True)
)
--train>>-model-loss--- tensor(0.0932, device='cuda:0', grad_fn=<NllLossBackward0>)
---targets---- tensor([0, 0, 1, 1, 0, 0, 1, 1, 1, 1, 1, 1, 0, 1, 1, 0, 0, 1, 0, 1, 0, 1, 0, 0,
        1, 0, 0, 0, 0, 1, 1, 0, 0, 0, 1, 0, 1, 0, 0, 1, 1, 0, 0, 1, 0, 1, 0, 1,
        0, 1, 0, 1, 1, 0, 1, 1, 1, 1, 0, 0, 0, 0, 1, 0])
--train>>-model--summary---- SimpleNet(
  (fc1): Linear(in_features=12288, out_features=84, bias=True)
  (fc2): Linear(in_features=84, out_features=50, bias=True)
  (fc3): Linear(in_features=50, out_features=2, bias=True)
)
--train>>-model-loss--- tensor(0.2374, device='cuda:0', grad_fn=<NllLossBackward0>)
---targets---- tensor([0, 0, 0, 0, 1, 0, 1, 1, 1, 0, 0, 1, 0, 1, 0, 1, 1, 0, 1, 0, 0, 0, 0, 0,
        1, 0, 1, 0, 1, 0, 0, 1, 0, 1, 1, 0, 1, 0, 1, 0, 1, 0, 0, 1, 1, 0, 1, 1,
        1, 0, 0, 1, 1, 1, 0, 1, 0, 0, 1, 0, 1, 0, 0, 1])
--train>>-model--summary---- SimpleNet(
  (fc1): Linear(in_features=12288, out_features=84, bias=True)
  (fc2): Linear(in_features=84, out_features=50, bias=True)
  (fc3): Linear(in_features=50, out_features=2, bias=True)
)
--train>>-model-loss--- tensor(0.0536, device='cuda:0', grad_fn=<NllLossBackward0>)
---targets---- tensor([1, 1, 1, 0, 0, 0, 0, 1, 0, 1, 0, 1, 0, 0, 1, 1, 1, 1, 1, 0, 0, 0, 1, 1,
        0, 1, 1, 0, 1, 1, 0, 1, 0, 0, 1, 1, 0, 0, 1, 0, 1, 0, 0, 0, 1, 0, 0, 1,
        1, 0, 0, 0, 0, 0, 1, 0, 0, 1, 0, 1, 0, 0, 1, 1])
--train>>-model--summary---- SimpleNet(
  (fc1): Linear(in_features=12288, out_features=84, bias=True)
  (fc2): Linear(in_features=84, out_features=50, bias=True)
  (fc3): Linear(in_features=50, out_features=2, bias=True)
)
--train>>-model-loss--- tensor(0.0647, device='cuda:0', grad_fn=<NllLossBackward0>)
---targets---- tensor([1, 0, 1, 0, 1, 1, 0, 0, 1, 1, 1, 0, 1, 0, 0, 1, 0, 0, 0, 0, 0, 0, 1, 0,
        0, 1, 1, 1, 0, 1, 0, 1, 1, 1, 1, 1, 1, 0, 1, 1, 1, 0, 1, 1, 1, 0, 0, 1,
        0, 0, 1, 0, 0, 1, 1, 1, 0, 0, 0, 0, 0, 0, 0, 0])
--train>>-model--summary---- SimpleNet(
  (fc1): Linear(in_features=12288, out_features=84, bias=True)
  (fc2): Linear(in_features=84, out_features=50, bias=True)
  (fc3): Linear(in_features=50, out_features=2, bias=True)
)
--train>>-model-loss--- tensor(0.1266, device='cuda:0', grad_fn=<NllLossBackward0>)
---targets---- tensor([1, 1, 1, 0, 0, 1, 1, 1, 0, 1, 1, 0, 0, 1, 1, 0, 1, 0, 0, 1, 0, 0, 1, 0,
        0, 0, 0, 1, 0, 1, 1, 1, 0, 0, 0, 1, 1, 1, 1, 0, 1, 1, 1, 0, 0, 1, 0, 0,
        1, 0, 1, 1, 1, 0, 0, 0, 1, 0, 1, 0, 1, 0, 1, 0])
--train>>-model--summary---- SimpleNet(
  (fc1): Linear(in_features=12288, out_features=84, bias=True)
  (fc2): Linear(in_features=84, out_features=50, bias=True)
  (fc3): Linear(in_features=50, out_features=2, bias=True)
)
--train>>-model-loss--- tensor(0.1600, device='cuda:0', grad_fn=<NllLossBackward0>)
---targets---- tensor([1, 0, 0, 0, 0, 1, 1, 1, 1, 1, 0, 0, 0, 0, 1, 1, 0, 1, 1, 0, 0, 0, 0, 0,
        1, 0, 1, 0, 1, 1, 0, 1, 0, 0, 0, 1, 0, 1, 1, 1, 1, 1, 1, 1, 0, 0, 0, 0,
        0, 1, 1, 1, 0, 0, 0, 0, 1, 1, 0, 0, 0, 0, 1, 0])
--train>>-model--summary---- SimpleNet(
  (fc1): Linear(in_features=12288, out_features=84, bias=True)
  (fc2): Linear(in_features=84, out_features=50, bias=True)
  (fc3): Linear(in_features=50, out_features=2, bias=True)
)
--train>>-model-loss--- tensor(0.1302, device='cuda:0', grad_fn=<NllLossBackward0>)
---targets---- tensor([1, 1, 1, 0, 0, 1, 0, 1, 1, 1, 0, 1, 0, 0, 0, 0, 1, 0, 0, 1, 1, 0, 1, 0,
        0, 1, 1, 0, 0, 0, 0, 1, 0, 0, 1, 1, 1, 1, 1, 0, 1, 1, 1, 1, 0, 1, 0, 0,
        0, 1, 1, 0, 0, 1, 1, 1, 0, 1, 1, 0, 1, 0, 1, 1])
--train>>-model--summary---- SimpleNet(
  (fc1): Linear(in_features=12288, out_features=84, bias=True)
  (fc2): Linear(in_features=84, out_features=50, bias=True)
  (fc3): Linear(in_features=50, out_features=2, bias=True)
)
--train>>-model-loss--- tensor(0.0357, device='cuda:0', grad_fn=<NllLossBackward0>)
---targets---- tensor([0, 1, 1, 0, 0, 1, 0, 1, 0, 1, 0, 1, 0, 0, 0, 0, 0, 0, 0, 1, 0, 0, 0, 1,
        0, 0, 0, 1, 0, 0, 1, 0, 0, 1, 1, 0, 1, 0, 1, 1, 0, 0, 0, 0, 1, 1, 1, 0,
        0, 1, 0, 1, 1, 1, 0, 0, 1, 1, 0, 0, 0, 0, 0, 1])
--train>>-model--summary---- SimpleNet(
  (fc1): Linear(in_features=12288, out_features=84, bias=True)
  (fc2): Linear(in_features=84, out_features=50, bias=True)
  (fc3): Linear(in_features=50, out_features=2, bias=True)
)
--train>>-model-loss--- tensor(0.0679, device='cuda:0', grad_fn=<NllLossBackward0>)
---targets---- tensor([1, 1, 0, 1, 0, 1, 1, 1, 1, 1, 0, 1, 1, 0, 1, 1, 1, 0, 1, 0, 0, 0, 1, 1,
        0, 1, 1, 0, 0, 0, 0, 1, 1, 0, 1, 0, 0, 0, 0, 1, 1, 0, 0, 0, 1, 0, 0, 1,
        0, 0, 1, 0, 1, 0, 0, 1, 0, 1, 0, 0, 0, 0, 0, 0])
--train>>-model--summary---- SimpleNet(
  (fc1): Linear(in_features=12288, out_features=84, bias=True)
  (fc2): Linear(in_features=84, out_features=50, bias=True)
  (fc3): Linear(in_features=50, out_features=2, bias=True)
)
--train>>-model-loss--- tensor(0.0609, device='cuda:0', grad_fn=<NllLossBackward0>)
---targets---- tensor([1, 0, 1, 0, 0, 1, 0, 1, 0, 0, 0, 0, 0, 0, 0, 1, 1, 0, 0, 1, 0, 1, 0, 1,
        0, 1, 0, 1, 0, 1, 1, 0, 0, 0, 1, 0, 0, 1, 0, 1, 1, 0, 1, 1, 1, 0, 1, 0,
        0, 1, 1, 1, 0, 1, 0, 0, 1, 0, 1, 1, 1, 0, 1, 0])
--train>>-model--summary---- SimpleNet(
  (fc1): Linear(in_features=12288, out_features=84, bias=True)
  (fc2): Linear(in_features=84, out_features=50, bias=True)
  (fc3): Linear(in_features=50, out_features=2, bias=True)
)
--train>>-model-loss--- tensor(0.1009, device='cuda:0', grad_fn=<NllLossBackward0>)
---targets---- tensor([0, 1, 0, 0, 0, 1, 0, 1, 0, 1, 1, 1, 1, 0, 1, 0, 0, 1, 0, 1, 0, 1, 1, 1,
        0, 0, 0, 1, 0, 0, 0, 1, 0, 0, 0, 1, 0, 0, 1, 0, 0, 0, 1, 1, 1, 0, 0, 0,
        1, 0, 1, 0, 1, 0, 1, 0, 1, 0, 0, 1, 0, 0, 0, 1])
--train>>-model--summary---- SimpleNet(
  (fc1): Linear(in_features=12288, out_features=84, bias=True)
  (fc2): Linear(in_features=84, out_features=50, bias=True)
  (fc3): Linear(in_features=50, out_features=2, bias=True)
)
--train>>-model-loss--- tensor(0.1215, device='cuda:0', grad_fn=<NllLossBackward0>)
---targets---- tensor([0, 0, 0, 1, 1, 1, 0, 0, 0, 0, 1, 0, 1, 1, 1, 1, 0, 1, 0, 0, 0, 0, 0, 0,
        0, 1, 1, 0, 1, 1, 1, 1, 0, 0, 1, 1, 0, 1, 0, 0, 1, 1, 1, 1, 1, 0, 0, 1,
        0, 0, 1, 0, 0, 1, 0, 1, 0, 1, 0, 1, 0, 0, 1, 0])
--train>>-model--summary---- SimpleNet(
  (fc1): Linear(in_features=12288, out_features=84, bias=True)
  (fc2): Linear(in_features=84, out_features=50, bias=True)
  (fc3): Linear(in_features=50, out_features=2, bias=True)
)
--train>>-model-loss--- tensor(0.0622, device='cuda:0', grad_fn=<NllLossBackward0>)
---targets---- tensor([0, 0, 1, 1, 1, 0, 0, 0, 1, 0, 0, 0, 0, 0, 0, 0, 0, 0, 0, 0, 1, 0, 0, 1,
        0, 0, 1, 1, 0, 0, 0, 0, 1, 1, 0, 1, 0, 1, 0, 1])
--train>>-model--summary---- SimpleNet(
  (fc1): Linear(in_features=12288, out_features=84, bias=True)
  (fc2): Linear(in_features=84, out_features=50, bias=True)
  (fc3): Linear(in_features=50, out_features=2, bias=True)
)
--train>>-model-loss--- tensor(0.0013, device='cuda:0', grad_fn=<NllLossBackward0>)
--------targets.shape------ torch.Size([64])
--------inputs.size(0)------ 64
--train>>-model--summary-2--- SimpleNet(
  (fc1): Linear(in_features=12288, out_features=84, bias=True)
  (fc2): Linear(in_features=84, out_features=50, bias=True)
  (fc3): Linear(in_features=50, out_features=2, bias=True)
)
--------output.size(0)------ 64
--------targets.shape------ torch.Size([64])
--------inputs.size(0)------ 64
--train>>-model--summary-2--- SimpleNet(
  (fc1): Linear(in_features=12288, out_features=84, bias=True)
  (fc2): Linear(in_features=84, out_features=50, bias=True)
  (fc3): Linear(in_features=50, out_features=2, bias=True)
)
--------output.size(0)------ 64
--------targets.shape------ torch.Size([64])
--------inputs.size(0)------ 64
--train>>-model--summary-2--- SimpleNet(
  (fc1): Linear(in_features=12288, out_features=84, bias=True)
  (fc2): Linear(in_features=84, out_features=50, bias=True)
  (fc3): Linear(in_features=50, out_features=2, bias=True)
)
--------output.size(0)------ 64
--------targets.shape------ torch.Size([64])
--------inputs.size(0)------ 64
--train>>-model--summary-2--- SimpleNet(
  (fc1): Linear(in_features=12288, out_features=84, bias=True)
  (fc2): Linear(in_features=84, out_features=50, bias=True)
  (fc3): Linear(in_features=50, out_features=2, bias=True)
)
--------output.size(0)------ 64
--------targets.shape------ torch.Size([64])
--------inputs.size(0)------ 64
--train>>-model--summary-2--- SimpleNet(
  (fc1): Linear(in_features=12288, out_features=84, bias=True)
  (fc2): Linear(in_features=84, out_features=50, bias=True)
  (fc3): Linear(in_features=50, out_features=2, bias=True)
)
--------output.size(0)------ 64
--------targets.shape------ torch.Size([64])
--------inputs.size(0)------ 64
--train>>-model--summary-2--- SimpleNet(
  (fc1): Linear(in_features=12288, out_features=84, bias=True)
  (fc2): Linear(in_features=84, out_features=50, bias=True)
  (fc3): Linear(in_features=50, out_features=2, bias=True)
)
--------output.size(0)------ 64
--------targets.shape------ torch.Size([64])
--------inputs.size(0)------ 64
--train>>-model--summary-2--- SimpleNet(
  (fc1): Linear(in_features=12288, out_features=84, bias=True)
  (fc2): Linear(in_features=84, out_features=50, bias=True)
  (fc3): Linear(in_features=50, out_features=2, bias=True)
)
--------output.size(0)------ 64
--------targets.shape------ torch.Size([64])
--------inputs.size(0)------ 64
--train>>-model--summary-2--- SimpleNet(
  (fc1): Linear(in_features=12288, out_features=84, bias=True)
  (fc2): Linear(in_features=84, out_features=50, bias=True)
  (fc3): Linear(in_features=50, out_features=2, bias=True)
)
--------output.size(0)------ 64
--------targets.shape------ torch.Size([64])
--------inputs.size(0)------ 64
--train>>-model--summary-2--- SimpleNet(
  (fc1): Linear(in_features=12288, out_features=84, bias=True)
  (fc2): Linear(in_features=84, out_features=50, bias=True)
  (fc3): Linear(in_features=50, out_features=2, bias=True)
)
--------output.size(0)------ 64
--------targets.shape------ torch.Size([64])
--------inputs.size(0)------ 64
--train>>-model--summary-2--- SimpleNet(
  (fc1): Linear(in_features=12288, out_features=84, bias=True)
  (fc2): Linear(in_features=84, out_features=50, bias=True)
  (fc3): Linear(in_features=50, out_features=2, bias=True)
)
--------output.size(0)------ 64
--------targets.shape------ torch.Size([64])
--------inputs.size(0)------ 64
--train>>-model--summary-2--- SimpleNet(
  (fc1): Linear(in_features=12288, out_features=84, bias=True)
  (fc2): Linear(in_features=84, out_features=50, bias=True)
  (fc3): Linear(in_features=50, out_features=2, bias=True)
)
--------output.size(0)------ 64
--------targets.shape------ torch.Size([64])
--------inputs.size(0)------ 64
--train>>-model--summary-2--- SimpleNet(
  (fc1): Linear(in_features=12288, out_features=84, bias=True)
  (fc2): Linear(in_features=84, out_features=50, bias=True)
  (fc3): Linear(in_features=50, out_features=2, bias=True)
)
--------output.size(0)------ 64
--------targets.shape------ torch.Size([64])
--------inputs.size(0)------ 64
--train>>-model--summary-2--- SimpleNet(
  (fc1): Linear(in_features=12288, out_features=84, bias=True)
  (fc2): Linear(in_features=84, out_features=50, bias=True)
  (fc3): Linear(in_features=50, out_features=2, bias=True)
)
--------output.size(0)------ 64
--------targets.shape------ torch.Size([64])
--------inputs.size(0)------ 64
--train>>-model--summary-2--- SimpleNet(
  (fc1): Linear(in_features=12288, out_features=84, bias=True)
  (fc2): Linear(in_features=84, out_features=50, bias=True)
  (fc3): Linear(in_features=50, out_features=2, bias=True)
)
--------output.size(0)------ 64
--------targets.shape------ torch.Size([40])
--------inputs.size(0)------ 40
--train>>-model--summary-2--- SimpleNet(
  (fc1): Linear(in_features=12288, out_features=84, bias=True)
  (fc2): Linear(in_features=84, out_features=50, bias=True)
  (fc3): Linear(in_features=50, out_features=2, bias=True)
)
--------output.size(0)------ 40
-TRAIN----torch.cuda.memory_allocated---> 0.02 GB
Epoch:2,TRAIN_Loss:0.09,VAL_Loss:0.06, Accuracy = 0.98
---targets---- tensor([1, 1, 1, 1, 0, 1, 1, 1, 1, 1, 1, 1, 0, 1, 1, 0, 1, 1, 0, 0, 0, 1, 1, 0,
        1, 0, 1, 1, 0, 0, 1, 1, 0, 0, 0, 1, 1, 1, 1, 0, 0, 0, 0, 0, 0, 1, 0, 0,
        0, 0, 0, 1, 0, 1, 1, 0, 0, 0, 1, 0, 0, 1, 1, 1])
--train>>-model--summary---- SimpleNet(
  (fc1): Linear(in_features=12288, out_features=84, bias=True)
  (fc2): Linear(in_features=84, out_features=50, bias=True)
  (fc3): Linear(in_features=50, out_features=2, bias=True)
)
--train>>-model-loss--- tensor(0.0430, device='cuda:0', grad_fn=<NllLossBackward0>)
---targets---- tensor([0, 0, 0, 0, 0, 1, 0, 0, 1, 1, 0, 0, 0, 0, 1, 1, 0, 1, 0, 0, 1, 1, 0, 0,
        0, 1, 1, 1, 0, 1, 0, 0, 1, 0, 0, 1, 0, 0, 1, 1, 1, 0, 1, 1, 0, 1, 0, 1,
        0, 1, 1, 0, 1, 0, 1, 0, 1, 1, 1, 0, 0, 1, 1, 1])
--train>>-model--summary---- SimpleNet(
  (fc1): Linear(in_features=12288, out_features=84, bias=True)
  (fc2): Linear(in_features=84, out_features=50, bias=True)
  (fc3): Linear(in_features=50, out_features=2, bias=True)
)
--train>>-model-loss--- tensor(0.0533, device='cuda:0', grad_fn=<NllLossBackward0>)
---targets---- tensor([1, 1, 0, 0, 0, 0, 1, 1, 1, 1, 1, 0, 0, 0, 0, 0, 1, 0, 1, 1, 1, 1, 1, 0,
        1, 0, 1, 1, 1, 1, 0, 0, 1, 1, 0, 0, 1, 0, 1, 1, 1, 1, 0, 0, 1, 0, 1, 1,
        1, 0, 1, 0, 0, 1, 1, 1, 1, 1, 0, 1, 1, 0, 0, 0])
--train>>-model--summary---- SimpleNet(
  (fc1): Linear(in_features=12288, out_features=84, bias=True)
  (fc2): Linear(in_features=84, out_features=50, bias=True)
  (fc3): Linear(in_features=50, out_features=2, bias=True)
)
--train>>-model-loss--- tensor(0.1052, device='cuda:0', grad_fn=<NllLossBackward0>)
---targets---- tensor([0, 1, 0, 0, 1, 1, 0, 0, 0, 1, 0, 1, 0, 1, 0, 1, 0, 0, 1, 0, 1, 0, 0, 0,
        0, 0, 0, 0, 0, 1, 0, 0, 0, 1, 1, 1, 0, 1, 1, 1, 1, 0, 0, 0, 0, 1, 1, 1,
        0, 0, 0, 1, 1, 1, 0, 1, 0, 0, 1, 0, 0, 0, 1, 0])
--train>>-model--summary---- SimpleNet(
  (fc1): Linear(in_features=12288, out_features=84, bias=True)
  (fc2): Linear(in_features=84, out_features=50, bias=True)
  (fc3): Linear(in_features=50, out_features=2, bias=True)
)
--train>>-model-loss--- tensor(0.0492, device='cuda:0', grad_fn=<NllLossBackward0>)
---targets---- tensor([1, 0, 0, 1, 0, 0, 0, 1, 0, 1, 1, 0, 1, 1, 0, 0, 0, 0, 0, 1, 0, 1, 1, 1,
        0, 0, 0, 0, 1, 0, 1, 0, 1, 1, 0, 1, 0, 0, 1, 0, 0, 0, 1, 0, 0, 1, 0, 1,
        1, 1, 1, 1, 0, 1, 1, 1, 1, 0, 0, 1, 1, 0, 0, 1])
--train>>-model--summary---- SimpleNet(
  (fc1): Linear(in_features=12288, out_features=84, bias=True)
  (fc2): Linear(in_features=84, out_features=50, bias=True)
  (fc3): Linear(in_features=50, out_features=2, bias=True)
)
--train>>-model-loss--- tensor(0.0575, device='cuda:0', grad_fn=<NllLossBackward0>)
---targets---- tensor([0, 1, 1, 1, 1, 1, 1, 0, 0, 0, 0, 0, 0, 0, 1, 1, 0, 1, 0, 0, 0, 0, 1, 0,
        0, 1, 1, 1, 0, 1, 0, 1, 0, 1, 0, 0, 0, 1, 0, 1, 0, 1, 0, 1, 0, 1, 0, 1,
        0, 0, 1, 0, 0, 0, 1, 1, 1, 0, 1, 1, 1, 0, 0, 1])
--train>>-model--summary---- SimpleNet(
  (fc1): Linear(in_features=12288, out_features=84, bias=True)
  (fc2): Linear(in_features=84, out_features=50, bias=True)
  (fc3): Linear(in_features=50, out_features=2, bias=True)
)
--train>>-model-loss--- tensor(0.0715, device='cuda:0', grad_fn=<NllLossBackward0>)
---targets---- tensor([0, 1, 0, 0, 0, 0, 1, 1, 0, 1, 1, 0, 0, 1, 1, 0, 0, 1, 0, 0, 1, 1, 1, 1,
        0, 1, 0, 1, 0, 1, 0, 0, 1, 1, 1, 0, 0, 0, 1, 1, 0, 0, 0, 0, 1, 1, 1, 1,
        0, 0, 0, 1, 0, 1, 1, 0, 1, 0, 1, 1, 0, 0, 1, 1])
--train>>-model--summary---- SimpleNet(
  (fc1): Linear(in_features=12288, out_features=84, bias=True)
  (fc2): Linear(in_features=84, out_features=50, bias=True)
  (fc3): Linear(in_features=50, out_features=2, bias=True)
)
--train>>-model-loss--- tensor(0.0702, device='cuda:0', grad_fn=<NllLossBackward0>)
---targets---- tensor([1, 0, 0, 1, 1, 0, 1, 0, 1, 0, 1, 1, 0, 1, 0, 0, 0, 1, 1, 0, 1, 1, 1, 0,
        0, 0, 0, 0, 0, 0, 0, 0, 0, 0, 1, 0, 0, 1, 1, 0, 0, 0, 0, 0, 1, 1, 0, 0,
        0, 0, 1, 0, 0, 0, 0, 0, 0, 1, 0, 1, 1, 0, 1, 1])
--train>>-model--summary---- SimpleNet(
  (fc1): Linear(in_features=12288, out_features=84, bias=True)
  (fc2): Linear(in_features=84, out_features=50, bias=True)
  (fc3): Linear(in_features=50, out_features=2, bias=True)
)
--train>>-model-loss--- tensor(0.0205, device='cuda:0', grad_fn=<NllLossBackward0>)
---targets---- tensor([1, 0, 0, 0, 0, 1, 0, 1, 1, 1, 0, 1, 0, 1, 0, 0, 0, 0, 0, 1, 1, 0, 1, 0,
        0, 0, 1, 0, 0, 1, 1, 1, 1, 1, 0, 0, 0, 0, 0, 1, 1, 1, 0, 1, 1, 1, 0, 0,
        0, 0, 0, 1, 0, 1, 0, 1, 0, 1, 1, 1, 0, 0, 0, 0])
--train>>-model--summary---- SimpleNet(
  (fc1): Linear(in_features=12288, out_features=84, bias=True)
  (fc2): Linear(in_features=84, out_features=50, bias=True)
  (fc3): Linear(in_features=50, out_features=2, bias=True)
)
--train>>-model-loss--- tensor(0.0078, device='cuda:0', grad_fn=<NllLossBackward0>)
---targets---- tensor([1, 0, 1, 1, 0, 0, 0, 0, 1, 1, 0, 0, 1, 0, 0, 1, 1, 0, 0, 0, 0, 1, 0, 0,
        1, 0, 0, 1, 1, 0, 1, 0, 1, 0, 0, 1, 0, 0, 1, 1, 1, 0, 0, 1, 1, 1, 0, 1,
        1, 1, 1, 0, 0, 1, 0, 1, 1, 0, 1, 1, 0, 1, 0, 0])
--train>>-model--summary---- SimpleNet(
  (fc1): Linear(in_features=12288, out_features=84, bias=True)
  (fc2): Linear(in_features=84, out_features=50, bias=True)
  (fc3): Linear(in_features=50, out_features=2, bias=True)
)
--train>>-model-loss--- tensor(0.0054, device='cuda:0', grad_fn=<NllLossBackward0>)
---targets---- tensor([1, 1, 1, 0, 0, 0, 1, 1, 1, 0, 1, 0, 1, 1, 1, 1, 0, 0, 0, 1, 1, 1, 1, 0,
        1, 1, 0, 0, 1, 1, 1, 1, 0, 1, 0, 0, 0, 0, 0, 0, 0, 1, 0, 0, 0, 0, 1, 1,
        1, 0, 0, 0, 1, 0, 1, 0, 1, 1, 0, 0, 0, 0, 0, 0])
--train>>-model--summary---- SimpleNet(
  (fc1): Linear(in_features=12288, out_features=84, bias=True)
  (fc2): Linear(in_features=84, out_features=50, bias=True)
  (fc3): Linear(in_features=50, out_features=2, bias=True)
)
--train>>-model-loss--- tensor(0.0181, device='cuda:0', grad_fn=<NllLossBackward0>)
---targets---- tensor([0, 0, 1, 0, 1, 1, 1, 0, 1, 0, 0, 1, 0, 1, 1, 1, 1, 0, 1, 1, 1, 1, 0, 1,
        1, 1, 0, 0, 0, 0, 0, 1, 0, 0, 0, 0, 0, 1, 0, 0, 0, 0, 1, 0, 0, 1, 0, 1,
        0, 1, 1, 1, 1, 1, 1, 1, 0, 0, 0, 0, 0, 1, 0, 0])
--train>>-model--summary---- SimpleNet(
  (fc1): Linear(in_features=12288, out_features=84, bias=True)
  (fc2): Linear(in_features=84, out_features=50, bias=True)
  (fc3): Linear(in_features=50, out_features=2, bias=True)
)
--train>>-model-loss--- tensor(0.0210, device='cuda:0', grad_fn=<NllLossBackward0>)
---targets---- tensor([0, 0, 0, 1, 0, 0, 1, 1, 0, 1, 1, 1, 0, 1, 0, 0, 0, 0, 0, 0, 1, 0, 1, 1,
        1, 1, 1, 0, 0, 0, 0, 0, 1, 1, 0, 1, 1, 0, 0, 0, 0, 1, 1, 1, 0, 0, 0, 0,
        1, 0, 0, 1, 0, 1, 0, 0, 0, 0, 1, 1, 0, 0, 0, 1])
--train>>-model--summary---- SimpleNet(
  (fc1): Linear(in_features=12288, out_features=84, bias=True)
  (fc2): Linear(in_features=84, out_features=50, bias=True)
  (fc3): Linear(in_features=50, out_features=2, bias=True)
)
--train>>-model-loss--- tensor(0.1246, device='cuda:0', grad_fn=<NllLossBackward0>)
---targets---- tensor([1, 0, 0, 1, 0, 1, 0, 1, 0, 0, 0, 0, 1, 1, 1, 0, 1, 0, 0, 0, 1, 1, 1, 1,
        0, 0, 0, 1, 0, 1, 0, 0, 0, 1, 1, 0, 1, 0, 0, 0, 0, 0, 1, 1, 1, 0, 0, 0,
        0, 1, 1, 0, 1, 0, 1, 1, 0, 0, 1, 1, 0, 1, 0, 1])
--train>>-model--summary---- SimpleNet(
  (fc1): Linear(in_features=12288, out_features=84, bias=True)
  (fc2): Linear(in_features=84, out_features=50, bias=True)
  (fc3): Linear(in_features=50, out_features=2, bias=True)
)
--train>>-model-loss--- tensor(0.0018, device='cuda:0', grad_fn=<NllLossBackward0>)
---targets---- tensor([0, 1, 1, 0, 0, 0, 0, 0, 1, 1, 0, 0, 1, 0, 0, 1, 0, 0, 1, 0, 0, 0, 0, 1,
        0, 0, 1, 1, 0, 1, 0, 0, 0, 1, 1, 0, 0, 1, 1, 1])
--train>>-model--summary---- SimpleNet(
  (fc1): Linear(in_features=12288, out_features=84, bias=True)
  (fc2): Linear(in_features=84, out_features=50, bias=True)
  (fc3): Linear(in_features=50, out_features=2, bias=True)
)
--train>>-model-loss--- tensor(0.0254, device='cuda:0', grad_fn=<NllLossBackward0>)
--------targets.shape------ torch.Size([64])
--------inputs.size(0)------ 64
--train>>-model--summary-2--- SimpleNet(
  (fc1): Linear(in_features=12288, out_features=84, bias=True)
  (fc2): Linear(in_features=84, out_features=50, bias=True)
  (fc3): Linear(in_features=50, out_features=2, bias=True)
)
--------output.size(0)------ 64
--------targets.shape------ torch.Size([64])
--------inputs.size(0)------ 64
--train>>-model--summary-2--- SimpleNet(
  (fc1): Linear(in_features=12288, out_features=84, bias=True)
  (fc2): Linear(in_features=84, out_features=50, bias=True)
  (fc3): Linear(in_features=50, out_features=2, bias=True)
)
--------output.size(0)------ 64
--------targets.shape------ torch.Size([64])
--------inputs.size(0)------ 64
--train>>-model--summary-2--- SimpleNet(
  (fc1): Linear(in_features=12288, out_features=84, bias=True)
  (fc2): Linear(in_features=84, out_features=50, bias=True)
  (fc3): Linear(in_features=50, out_features=2, bias=True)
)
--------output.size(0)------ 64
--------targets.shape------ torch.Size([64])
--------inputs.size(0)------ 64
--train>>-model--summary-2--- SimpleNet(
  (fc1): Linear(in_features=12288, out_features=84, bias=True)
  (fc2): Linear(in_features=84, out_features=50, bias=True)
  (fc3): Linear(in_features=50, out_features=2, bias=True)
)
--------output.size(0)------ 64
--------targets.shape------ torch.Size([64])
--------inputs.size(0)------ 64
--train>>-model--summary-2--- SimpleNet(
  (fc1): Linear(in_features=12288, out_features=84, bias=True)
  (fc2): Linear(in_features=84, out_features=50, bias=True)
  (fc3): Linear(in_features=50, out_features=2, bias=True)
)
--------output.size(0)------ 64
--------targets.shape------ torch.Size([64])
--------inputs.size(0)------ 64
--train>>-model--summary-2--- SimpleNet(
  (fc1): Linear(in_features=12288, out_features=84, bias=True)
  (fc2): Linear(in_features=84, out_features=50, bias=True)
  (fc3): Linear(in_features=50, out_features=2, bias=True)
)
--------output.size(0)------ 64
--------targets.shape------ torch.Size([64])
--------inputs.size(0)------ 64
--train>>-model--summary-2--- SimpleNet(
  (fc1): Linear(in_features=12288, out_features=84, bias=True)
  (fc2): Linear(in_features=84, out_features=50, bias=True)
  (fc3): Linear(in_features=50, out_features=2, bias=True)
)
--------output.size(0)------ 64
--------targets.shape------ torch.Size([64])
--------inputs.size(0)------ 64
--train>>-model--summary-2--- SimpleNet(
  (fc1): Linear(in_features=12288, out_features=84, bias=True)
  (fc2): Linear(in_features=84, out_features=50, bias=True)
  (fc3): Linear(in_features=50, out_features=2, bias=True)
)
--------output.size(0)------ 64
--------targets.shape------ torch.Size([64])
--------inputs.size(0)------ 64
--train>>-model--summary-2--- SimpleNet(
  (fc1): Linear(in_features=12288, out_features=84, bias=True)
  (fc2): Linear(in_features=84, out_features=50, bias=True)
  (fc3): Linear(in_features=50, out_features=2, bias=True)
)
--------output.size(0)------ 64
--------targets.shape------ torch.Size([64])
--------inputs.size(0)------ 64
--train>>-model--summary-2--- SimpleNet(
  (fc1): Linear(in_features=12288, out_features=84, bias=True)
  (fc2): Linear(in_features=84, out_features=50, bias=True)
  (fc3): Linear(in_features=50, out_features=2, bias=True)
)
--------output.size(0)------ 64
--------targets.shape------ torch.Size([64])
--------inputs.size(0)------ 64
--train>>-model--summary-2--- SimpleNet(
  (fc1): Linear(in_features=12288, out_features=84, bias=True)
  (fc2): Linear(in_features=84, out_features=50, bias=True)
  (fc3): Linear(in_features=50, out_features=2, bias=True)
)
--------output.size(0)------ 64
--------targets.shape------ torch.Size([64])
--------inputs.size(0)------ 64
--train>>-model--summary-2--- SimpleNet(
  (fc1): Linear(in_features=12288, out_features=84, bias=True)
  (fc2): Linear(in_features=84, out_features=50, bias=True)
  (fc3): Linear(in_features=50, out_features=2, bias=True)
)
--------output.size(0)------ 64
--------targets.shape------ torch.Size([64])
--------inputs.size(0)------ 64
--train>>-model--summary-2--- SimpleNet(
  (fc1): Linear(in_features=12288, out_features=84, bias=True)
  (fc2): Linear(in_features=84, out_features=50, bias=True)
  (fc3): Linear(in_features=50, out_features=2, bias=True)
)
--------output.size(0)------ 64
--------targets.shape------ torch.Size([64])
--------inputs.size(0)------ 64
--train>>-model--summary-2--- SimpleNet(
  (fc1): Linear(in_features=12288, out_features=84, bias=True)
  (fc2): Linear(in_features=84, out_features=50, bias=True)
  (fc3): Linear(in_features=50, out_features=2, bias=True)
)
--------output.size(0)------ 64
--------targets.shape------ torch.Size([40])
--------inputs.size(0)------ 40
--train>>-model--summary-2--- SimpleNet(
  (fc1): Linear(in_features=12288, out_features=84, bias=True)
  (fc2): Linear(in_features=84, out_features=50, bias=True)
  (fc3): Linear(in_features=50, out_features=2, bias=True)
)
--------output.size(0)------ 40
-TRAIN----torch.cuda.memory_allocated---> 0.02 GB
Epoch:3,TRAIN_Loss:0.05,VAL_Loss:0.09, Accuracy = 0.98
---targets---- tensor([1, 1, 1, 1, 0, 1, 0, 1, 0, 1, 1, 0, 0, 0, 1, 0, 0, 0, 1, 0, 1, 0, 0, 0,
        0, 0, 0, 0, 0, 1, 1, 0, 0, 0, 0, 0, 1, 0, 1, 1, 0, 0, 1, 0, 1, 1, 0, 0,
        1, 1, 1, 0, 1, 0, 0, 0, 1, 0, 0, 0, 0, 0, 1, 0])
--train>>-model--summary---- SimpleNet(
  (fc1): Linear(in_features=12288, out_features=84, bias=True)
  (fc2): Linear(in_features=84, out_features=50, bias=True)
  (fc3): Linear(in_features=50, out_features=2, bias=True)
)
--train>>-model-loss--- tensor(0.0665, device='cuda:0', grad_fn=<NllLossBackward0>)
---targets---- tensor([1, 1, 1, 0, 0, 1, 1, 1, 0, 0, 0, 0, 0, 1, 1, 0, 1, 0, 0, 0, 0, 0, 0, 1,
        1, 1, 1, 0, 1, 1, 0, 0, 0, 1, 1, 0, 1, 0, 0, 1, 0, 0, 1, 0, 0, 0, 0, 0,
        0, 1, 0, 0, 1, 0, 0, 1, 1, 0, 0, 1, 0, 0, 0, 0])
--train>>-model--summary---- SimpleNet(
  (fc1): Linear(in_features=12288, out_features=84, bias=True)
  (fc2): Linear(in_features=84, out_features=50, bias=True)
  (fc3): Linear(in_features=50, out_features=2, bias=True)
)
--train>>-model-loss--- tensor(0.0874, device='cuda:0', grad_fn=<NllLossBackward0>)
---targets---- tensor([0, 1, 1, 1, 1, 1, 1, 1, 0, 1, 1, 1, 1, 0, 0, 1, 0, 1, 0, 1, 0, 1, 0, 0,
        1, 1, 0, 0, 1, 0, 0, 1, 1, 0, 0, 0, 1, 1, 0, 0, 0, 1, 0, 0, 0, 0, 0, 1,
        1, 1, 0, 0, 1, 0, 0, 0, 1, 0, 0, 0, 1, 1, 1, 0])
--train>>-model--summary---- SimpleNet(
  (fc1): Linear(in_features=12288, out_features=84, bias=True)
  (fc2): Linear(in_features=84, out_features=50, bias=True)
  (fc3): Linear(in_features=50, out_features=2, bias=True)
)
--train>>-model-loss--- tensor(0.0032, device='cuda:0', grad_fn=<NllLossBackward0>)
---targets---- tensor([1, 0, 0, 0, 1, 1, 1, 0, 1, 1, 0, 1, 1, 0, 1, 0, 0, 1, 1, 0, 1, 1, 1, 1,
        1, 0, 0, 0, 1, 0, 1, 1, 0, 1, 1, 0, 1, 0, 0, 1, 1, 1, 1, 1, 0, 1, 1, 0,
        0, 1, 0, 0, 0, 0, 1, 1, 0, 0, 0, 0, 1, 1, 0, 0])
--train>>-model--summary---- SimpleNet(
  (fc1): Linear(in_features=12288, out_features=84, bias=True)
  (fc2): Linear(in_features=84, out_features=50, bias=True)
  (fc3): Linear(in_features=50, out_features=2, bias=True)
)
--train>>-model-loss--- tensor(0.0454, device='cuda:0', grad_fn=<NllLossBackward0>)
---targets---- tensor([0, 1, 0, 0, 0, 1, 0, 0, 0, 0, 1, 0, 1, 0, 1, 0, 0, 0, 1, 1, 1, 1, 1, 1,
        0, 0, 1, 0, 1, 1, 0, 0, 1, 1, 0, 0, 0, 0, 0, 0, 0, 1, 0, 1, 1, 0, 0, 0,
        1, 0, 1, 0, 1, 0, 0, 1, 1, 1, 1, 0, 1, 0, 0, 0])
--train>>-model--summary---- SimpleNet(
  (fc1): Linear(in_features=12288, out_features=84, bias=True)
  (fc2): Linear(in_features=84, out_features=50, bias=True)
  (fc3): Linear(in_features=50, out_features=2, bias=True)
)
--train>>-model-loss--- tensor(0.0220, device='cuda:0', grad_fn=<NllLossBackward0>)
---targets---- tensor([1, 1, 0, 0, 0, 1, 0, 1, 1, 0, 1, 0, 1, 0, 1, 1, 1, 1, 1, 1, 0, 1, 1, 1,
        0, 0, 1, 0, 0, 0, 0, 1, 1, 1, 0, 1, 1, 1, 1, 0, 0, 0, 0, 1, 0, 0, 0, 1,
        0, 1, 0, 0, 1, 0, 0, 0, 1, 1, 1, 0, 1, 0, 1, 0])
--train>>-model--summary---- SimpleNet(
  (fc1): Linear(in_features=12288, out_features=84, bias=True)
  (fc2): Linear(in_features=84, out_features=50, bias=True)
  (fc3): Linear(in_features=50, out_features=2, bias=True)
)
--train>>-model-loss--- tensor(0.0175, device='cuda:0', grad_fn=<NllLossBackward0>)
---targets---- tensor([1, 1, 1, 1, 1, 0, 0, 0, 0, 0, 0, 1, 1, 0, 1, 0, 1, 0, 0, 0, 1, 1, 1, 1,
        1, 0, 1, 0, 1, 1, 0, 0, 1, 1, 0, 0, 1, 1, 1, 0, 1, 0, 0, 0, 1, 1, 0, 1,
        0, 0, 1, 0, 1, 1, 0, 1, 1, 0, 1, 1, 0, 1, 1, 0])
--train>>-model--summary---- SimpleNet(
  (fc1): Linear(in_features=12288, out_features=84, bias=True)
  (fc2): Linear(in_features=84, out_features=50, bias=True)
  (fc3): Linear(in_features=50, out_features=2, bias=True)
)
--train>>-model-loss--- tensor(0.0268, device='cuda:0', grad_fn=<NllLossBackward0>)
---targets---- tensor([0, 1, 0, 1, 0, 0, 0, 1, 0, 1, 0, 0, 1, 0, 0, 0, 1, 0, 0, 0, 0, 1, 0, 1,
        0, 0, 0, 0, 0, 0, 1, 1, 0, 0, 0, 1, 0, 1, 0, 0, 1, 1, 0, 1, 1, 1, 0, 1,
        0, 0, 0, 0, 1, 1, 1, 1, 0, 1, 0, 1, 0, 0, 0, 1])
--train>>-model--summary---- SimpleNet(
  (fc1): Linear(in_features=12288, out_features=84, bias=True)
  (fc2): Linear(in_features=84, out_features=50, bias=True)
  (fc3): Linear(in_features=50, out_features=2, bias=True)
)
--train>>-model-loss--- tensor(0.0241, device='cuda:0', grad_fn=<NllLossBackward0>)
---targets---- tensor([1, 1, 0, 1, 0, 1, 1, 1, 1, 1, 1, 0, 1, 1, 1, 1, 0, 0, 0, 0, 0, 0, 1, 0,
        0, 1, 0, 0, 0, 1, 1, 1, 0, 0, 1, 1, 1, 0, 1, 0, 1, 0, 1, 0, 0, 0, 0, 0,
        0, 0, 1, 0, 0, 0, 0, 0, 0, 1, 1, 1, 0, 1, 0, 0])
--train>>-model--summary---- SimpleNet(
  (fc1): Linear(in_features=12288, out_features=84, bias=True)
  (fc2): Linear(in_features=84, out_features=50, bias=True)
  (fc3): Linear(in_features=50, out_features=2, bias=True)
)
--train>>-model-loss--- tensor(0.0375, device='cuda:0', grad_fn=<NllLossBackward0>)
---targets---- tensor([1, 1, 0, 0, 1, 0, 1, 0, 0, 0, 1, 0, 0, 0, 1, 1, 1, 1, 0, 0, 0, 1, 1, 0,
        0, 1, 0, 1, 1, 1, 0, 1, 1, 0, 0, 0, 0, 0, 1, 1, 1, 1, 1, 0, 1, 1, 0, 0,
        1, 0, 1, 1, 1, 0, 1, 0, 1, 1, 0, 0, 0, 0, 1, 1])
--train>>-model--summary---- SimpleNet(
  (fc1): Linear(in_features=12288, out_features=84, bias=True)
  (fc2): Linear(in_features=84, out_features=50, bias=True)
  (fc3): Linear(in_features=50, out_features=2, bias=True)
)
--train>>-model-loss--- tensor(0.0531, device='cuda:0', grad_fn=<NllLossBackward0>)
---targets---- tensor([0, 1, 0, 0, 0, 0, 1, 1, 0, 0, 0, 1, 1, 1, 0, 1, 0, 1, 0, 0, 0, 1, 0, 0,
        0, 1, 0, 1, 0, 1, 1, 1, 1, 0, 1, 0, 1, 1, 0, 0, 1, 1, 0, 0, 0, 0, 1, 0,
        1, 1, 0, 0, 0, 1, 1, 0, 0, 0, 0, 1, 0, 0, 1, 0])
--train>>-model--summary---- SimpleNet(
  (fc1): Linear(in_features=12288, out_features=84, bias=True)
  (fc2): Linear(in_features=84, out_features=50, bias=True)
  (fc3): Linear(in_features=50, out_features=2, bias=True)
)
--train>>-model-loss--- tensor(0.0380, device='cuda:0', grad_fn=<NllLossBackward0>)
---targets---- tensor([1, 0, 1, 1, 1, 0, 1, 1, 1, 0, 0, 0, 0, 0, 1, 0, 0, 0, 0, 1, 1, 1, 1, 1,
        0, 1, 1, 0, 0, 1, 1, 1, 1, 0, 0, 1, 1, 0, 0, 0, 1, 0, 0, 1, 0, 1, 1, 0,
        0, 0, 0, 0, 0, 0, 0, 0, 0, 1, 0, 1, 1, 1, 1, 0])
--train>>-model--summary---- SimpleNet(
  (fc1): Linear(in_features=12288, out_features=84, bias=True)
  (fc2): Linear(in_features=84, out_features=50, bias=True)
  (fc3): Linear(in_features=50, out_features=2, bias=True)
)
--train>>-model-loss--- tensor(0.0040, device='cuda:0', grad_fn=<NllLossBackward0>)
---targets---- tensor([1, 1, 1, 1, 0, 0, 1, 0, 1, 1, 1, 0, 0, 1, 0, 1, 1, 0, 1, 1, 0, 0, 1, 0,
        0, 1, 0, 0, 0, 1, 0, 0, 0, 1, 1, 1, 0, 0, 0, 0, 1, 1, 1, 0, 0, 1, 1, 1,
        1, 1, 0, 0, 0, 0, 1, 0, 1, 1, 1, 1, 0, 1, 1, 1])
--train>>-model--summary---- SimpleNet(
  (fc1): Linear(in_features=12288, out_features=84, bias=True)
  (fc2): Linear(in_features=84, out_features=50, bias=True)
  (fc3): Linear(in_features=50, out_features=2, bias=True)
)
--train>>-model-loss--- tensor(0.0565, device='cuda:0', grad_fn=<NllLossBackward0>)
---targets---- tensor([1, 0, 0, 0, 0, 0, 1, 1, 1, 1, 0, 0, 1, 1, 0, 1, 1, 0, 0, 0, 1, 0, 0, 1,
        1, 1, 1, 1, 0, 1, 1, 0, 1, 1, 1, 0, 1, 1, 0, 0, 0, 1, 1, 1, 0, 0, 0, 0,
        1, 1, 1, 0, 1, 0, 0, 0, 0, 0, 0, 0, 1, 0, 1, 1])
--train>>-model--summary---- SimpleNet(
  (fc1): Linear(in_features=12288, out_features=84, bias=True)
  (fc2): Linear(in_features=84, out_features=50, bias=True)
  (fc3): Linear(in_features=50, out_features=2, bias=True)
)
--train>>-model-loss--- tensor(0.0325, device='cuda:0', grad_fn=<NllLossBackward0>)
---targets---- tensor([1, 0, 1, 0, 1, 0, 0, 0, 0, 0, 0, 0, 1, 1, 0, 0, 1, 0, 0, 0, 1, 1, 1, 0,
        0, 0, 1, 1, 0, 0, 1, 0, 0, 0, 0, 0, 1, 1, 0, 0])
--train>>-model--summary---- SimpleNet(
  (fc1): Linear(in_features=12288, out_features=84, bias=True)
  (fc2): Linear(in_features=84, out_features=50, bias=True)
  (fc3): Linear(in_features=50, out_features=2, bias=True)
)
--train>>-model-loss--- tensor(0.0021, device='cuda:0', grad_fn=<NllLossBackward0>)
--------targets.shape------ torch.Size([64])
--------inputs.size(0)------ 64
--train>>-model--summary-2--- SimpleNet(
  (fc1): Linear(in_features=12288, out_features=84, bias=True)
  (fc2): Linear(in_features=84, out_features=50, bias=True)
  (fc3): Linear(in_features=50, out_features=2, bias=True)
)
--------output.size(0)------ 64
--------targets.shape------ torch.Size([64])
--------inputs.size(0)------ 64
--train>>-model--summary-2--- SimpleNet(
  (fc1): Linear(in_features=12288, out_features=84, bias=True)
  (fc2): Linear(in_features=84, out_features=50, bias=True)
  (fc3): Linear(in_features=50, out_features=2, bias=True)
)
--------output.size(0)------ 64
--------targets.shape------ torch.Size([64])
--------inputs.size(0)------ 64
--train>>-model--summary-2--- SimpleNet(
  (fc1): Linear(in_features=12288, out_features=84, bias=True)
  (fc2): Linear(in_features=84, out_features=50, bias=True)
  (fc3): Linear(in_features=50, out_features=2, bias=True)
)
--------output.size(0)------ 64
--------targets.shape------ torch.Size([64])
--------inputs.size(0)------ 64
--train>>-model--summary-2--- SimpleNet(
  (fc1): Linear(in_features=12288, out_features=84, bias=True)
  (fc2): Linear(in_features=84, out_features=50, bias=True)
  (fc3): Linear(in_features=50, out_features=2, bias=True)
)
--------output.size(0)------ 64
--------targets.shape------ torch.Size([64])
--------inputs.size(0)------ 64
--train>>-model--summary-2--- SimpleNet(
  (fc1): Linear(in_features=12288, out_features=84, bias=True)
  (fc2): Linear(in_features=84, out_features=50, bias=True)
  (fc3): Linear(in_features=50, out_features=2, bias=True)
)
--------output.size(0)------ 64
--------targets.shape------ torch.Size([64])
--------inputs.size(0)------ 64
--train>>-model--summary-2--- SimpleNet(
  (fc1): Linear(in_features=12288, out_features=84, bias=True)
  (fc2): Linear(in_features=84, out_features=50, bias=True)
  (fc3): Linear(in_features=50, out_features=2, bias=True)
)
--------output.size(0)------ 64
--------targets.shape------ torch.Size([64])
--------inputs.size(0)------ 64
--train>>-model--summary-2--- SimpleNet(
  (fc1): Linear(in_features=12288, out_features=84, bias=True)
  (fc2): Linear(in_features=84, out_features=50, bias=True)
  (fc3): Linear(in_features=50, out_features=2, bias=True)
)
--------output.size(0)------ 64
--------targets.shape------ torch.Size([64])
--------inputs.size(0)------ 64
--train>>-model--summary-2--- SimpleNet(
  (fc1): Linear(in_features=12288, out_features=84, bias=True)
  (fc2): Linear(in_features=84, out_features=50, bias=True)
  (fc3): Linear(in_features=50, out_features=2, bias=True)
)
--------output.size(0)------ 64
--------targets.shape------ torch.Size([64])
--------inputs.size(0)------ 64
--train>>-model--summary-2--- SimpleNet(
  (fc1): Linear(in_features=12288, out_features=84, bias=True)
  (fc2): Linear(in_features=84, out_features=50, bias=True)
  (fc3): Linear(in_features=50, out_features=2, bias=True)
)
--------output.size(0)------ 64
--------targets.shape------ torch.Size([64])
--------inputs.size(0)------ 64
--train>>-model--summary-2--- SimpleNet(
  (fc1): Linear(in_features=12288, out_features=84, bias=True)
  (fc2): Linear(in_features=84, out_features=50, bias=True)
  (fc3): Linear(in_features=50, out_features=2, bias=True)
)
--------output.size(0)------ 64
--------targets.shape------ torch.Size([64])
--------inputs.size(0)------ 64
--train>>-model--summary-2--- SimpleNet(
  (fc1): Linear(in_features=12288, out_features=84, bias=True)
  (fc2): Linear(in_features=84, out_features=50, bias=True)
  (fc3): Linear(in_features=50, out_features=2, bias=True)
)
--------output.size(0)------ 64
--------targets.shape------ torch.Size([64])
--------inputs.size(0)------ 64
--train>>-model--summary-2--- SimpleNet(
  (fc1): Linear(in_features=12288, out_features=84, bias=True)
  (fc2): Linear(in_features=84, out_features=50, bias=True)
  (fc3): Linear(in_features=50, out_features=2, bias=True)
)
--------output.size(0)------ 64
--------targets.shape------ torch.Size([64])
--------inputs.size(0)------ 64
--train>>-model--summary-2--- SimpleNet(
  (fc1): Linear(in_features=12288, out_features=84, bias=True)
  (fc2): Linear(in_features=84, out_features=50, bias=True)
  (fc3): Linear(in_features=50, out_features=2, bias=True)
)
--------output.size(0)------ 64
--------targets.shape------ torch.Size([64])
--------inputs.size(0)------ 64
--train>>-model--summary-2--- SimpleNet(
  (fc1): Linear(in_features=12288, out_features=84, bias=True)
  (fc2): Linear(in_features=84, out_features=50, bias=True)
  (fc3): Linear(in_features=50, out_features=2, bias=True)
)
--------output.size(0)------ 64
--------targets.shape------ torch.Size([40])
--------inputs.size(0)------ 40
--train>>-model--summary-2--- SimpleNet(
  (fc1): Linear(in_features=12288, out_features=84, bias=True)
  (fc2): Linear(in_features=84, out_features=50, bias=True)
  (fc3): Linear(in_features=50, out_features=2, bias=True)
)
--------output.size(0)------ 40
-TRAIN----torch.cuda.memory_allocated---> 0.02 GB
Epoch:4,TRAIN_Loss:0.04,VAL_Loss:0.03, Accuracy = 0.99
---targets---- tensor([0, 1, 0, 0, 0, 0, 0, 1, 0, 0, 0, 1, 1, 1, 0, 0, 0, 0, 1, 1, 0, 1, 1, 0,
        1, 1, 0, 1, 1, 0, 1, 0, 0, 1, 1, 1, 1, 0, 0, 0, 1, 0, 0, 1, 1, 0, 1, 1,
        0, 0, 0, 1, 1, 0, 1, 1, 1, 1, 1, 0, 1, 0, 0, 0])
--train>>-model--summary---- SimpleNet(
  (fc1): Linear(in_features=12288, out_features=84, bias=True)
  (fc2): Linear(in_features=84, out_features=50, bias=True)
  (fc3): Linear(in_features=50, out_features=2, bias=True)
)
--train>>-model-loss--- tensor(0.0107, device='cuda:0', grad_fn=<NllLossBackward0>)
---targets---- tensor([0, 1, 0, 1, 1, 1, 1, 0, 0, 1, 1, 1, 1, 0, 0, 0, 1, 0, 0, 0, 1, 0, 0, 0,
        1, 1, 1, 0, 1, 1, 1, 1, 0, 1, 1, 1, 1, 1, 0, 0, 0, 1, 1, 1, 0, 0, 1, 0,
        0, 1, 1, 1, 0, 1, 1, 1, 0, 1, 1, 0, 0, 1, 1, 1])
--train>>-model--summary---- SimpleNet(
  (fc1): Linear(in_features=12288, out_features=84, bias=True)
  (fc2): Linear(in_features=84, out_features=50, bias=True)
  (fc3): Linear(in_features=50, out_features=2, bias=True)
)
--train>>-model-loss--- tensor(0.0071, device='cuda:0', grad_fn=<NllLossBackward0>)
---targets---- tensor([0, 1, 1, 0, 0, 0, 1, 0, 0, 0, 1, 1, 0, 0, 1, 0, 0, 1, 0, 1, 0, 0, 0, 1,
        0, 1, 1, 1, 1, 0, 1, 0, 0, 1, 0, 0, 1, 1, 0, 0, 1, 0, 0, 0, 0, 1, 0, 0,
        1, 1, 0, 0, 0, 1, 1, 1, 1, 1, 0, 0, 0, 0, 0, 1])
--train>>-model--summary---- SimpleNet(
  (fc1): Linear(in_features=12288, out_features=84, bias=True)
  (fc2): Linear(in_features=84, out_features=50, bias=True)
  (fc3): Linear(in_features=50, out_features=2, bias=True)
)
--train>>-model-loss--- tensor(0.0538, device='cuda:0', grad_fn=<NllLossBackward0>)
---targets---- tensor([0, 1, 0, 1, 1, 1, 0, 1, 0, 1, 0, 0, 0, 1, 1, 0, 1, 1, 0, 0, 0, 0, 1, 1,
        0, 1, 1, 0, 1, 0, 0, 0, 0, 0, 1, 0, 1, 0, 1, 0, 1, 1, 0, 0, 0, 0, 0, 0,
        1, 0, 0, 1, 0, 0, 0, 1, 0, 1, 1, 0, 1, 1, 1, 1])
--train>>-model--summary---- SimpleNet(
  (fc1): Linear(in_features=12288, out_features=84, bias=True)
  (fc2): Linear(in_features=84, out_features=50, bias=True)
  (fc3): Linear(in_features=50, out_features=2, bias=True)
)
--train>>-model-loss--- tensor(0.0680, device='cuda:0', grad_fn=<NllLossBackward0>)
---targets---- tensor([1, 0, 1, 1, 0, 0, 0, 1, 0, 1, 0, 1, 1, 0, 0, 1, 0, 1, 0, 1, 0, 0, 0, 1,
        0, 1, 0, 0, 0, 1, 1, 1, 1, 0, 0, 1, 0, 0, 1, 0, 0, 0, 0, 0, 1, 1, 0, 0,
        0, 0, 0, 0, 0, 0, 0, 1, 0, 0, 0, 1, 0, 1, 0, 1])
--train>>-model--summary---- SimpleNet(
  (fc1): Linear(in_features=12288, out_features=84, bias=True)
  (fc2): Linear(in_features=84, out_features=50, bias=True)
  (fc3): Linear(in_features=50, out_features=2, bias=True)
)
--train>>-model-loss--- tensor(0.0316, device='cuda:0', grad_fn=<NllLossBackward0>)
---targets---- tensor([1, 0, 1, 0, 1, 1, 0, 1, 0, 1, 1, 0, 1, 1, 0, 0, 0, 1, 1, 1, 0, 0, 1, 1,
        0, 1, 1, 0, 0, 0, 1, 0, 1, 0, 1, 1, 1, 0, 1, 1, 0, 1, 0, 0, 0, 1, 1, 1,
        0, 0, 0, 0, 0, 1, 1, 1, 0, 0, 1, 1, 0, 1, 1, 0])
--train>>-model--summary---- SimpleNet(
  (fc1): Linear(in_features=12288, out_features=84, bias=True)
  (fc2): Linear(in_features=84, out_features=50, bias=True)
  (fc3): Linear(in_features=50, out_features=2, bias=True)
)
--train>>-model-loss--- tensor(0.0489, device='cuda:0', grad_fn=<NllLossBackward0>)
---targets---- tensor([1, 0, 0, 0, 1, 0, 0, 1, 0, 1, 1, 1, 1, 0, 1, 1, 0, 0, 1, 1, 0, 0, 0, 0,
        0, 0, 0, 1, 0, 1, 0, 0, 0, 1, 0, 1, 1, 0, 0, 1, 1, 0, 1, 0, 1, 0, 0, 1,
        1, 1, 0, 1, 1, 0, 0, 1, 0, 1, 0, 0, 0, 1, 0, 0])
--train>>-model--summary---- SimpleNet(
  (fc1): Linear(in_features=12288, out_features=84, bias=True)
  (fc2): Linear(in_features=84, out_features=50, bias=True)
  (fc3): Linear(in_features=50, out_features=2, bias=True)
)
--train>>-model-loss--- tensor(0.0065, device='cuda:0', grad_fn=<NllLossBackward0>)
---targets---- tensor([1, 0, 0, 1, 0, 0, 1, 1, 0, 1, 0, 1, 0, 1, 1, 0, 1, 0, 1, 1, 1, 1, 0, 1,
        1, 0, 1, 1, 0, 1, 0, 0, 0, 0, 0, 0, 0, 0, 0, 0, 1, 1, 1, 0, 1, 0, 1, 1,
        0, 0, 0, 1, 0, 0, 1, 1, 1, 1, 0, 1, 1, 0, 1, 1])
--train>>-model--summary---- SimpleNet(
  (fc1): Linear(in_features=12288, out_features=84, bias=True)
  (fc2): Linear(in_features=84, out_features=50, bias=True)
  (fc3): Linear(in_features=50, out_features=2, bias=True)
)
--train>>-model-loss--- tensor(0.0595, device='cuda:0', grad_fn=<NllLossBackward0>)
---targets---- tensor([0, 1, 1, 1, 1, 1, 0, 0, 0, 1, 1, 1, 1, 0, 0, 0, 1, 1, 1, 1, 1, 1, 1, 0,
        0, 0, 0, 1, 0, 1, 1, 0, 0, 0, 1, 1, 1, 0, 1, 1, 0, 0, 1, 0, 1, 0, 1, 0,
        0, 1, 0, 0, 1, 0, 1, 0, 1, 1, 1, 1, 1, 1, 1, 1])
--train>>-model--summary---- SimpleNet(
  (fc1): Linear(in_features=12288, out_features=84, bias=True)
  (fc2): Linear(in_features=84, out_features=50, bias=True)
  (fc3): Linear(in_features=50, out_features=2, bias=True)
)
--train>>-model-loss--- tensor(0.0173, device='cuda:0', grad_fn=<NllLossBackward0>)
---targets---- tensor([1, 1, 0, 1, 1, 0, 0, 0, 0, 0, 0, 0, 0, 0, 0, 1, 1, 0, 0, 0, 0, 0, 1, 0,
        0, 0, 0, 0, 1, 0, 1, 1, 1, 1, 0, 0, 0, 0, 0, 1, 0, 0, 0, 0, 0, 0, 0, 1,
        0, 0, 1, 1, 0, 1, 1, 0, 0, 1, 1, 1, 0, 0, 1, 0])
--train>>-model--summary---- SimpleNet(
  (fc1): Linear(in_features=12288, out_features=84, bias=True)
  (fc2): Linear(in_features=84, out_features=50, bias=True)
  (fc3): Linear(in_features=50, out_features=2, bias=True)
)
--train>>-model-loss--- tensor(0.0076, device='cuda:0', grad_fn=<NllLossBackward0>)
---targets---- tensor([0, 0, 0, 1, 1, 0, 0, 0, 1, 0, 0, 1, 0, 1, 1, 0, 0, 0, 1, 1, 1, 0, 0, 0,
        0, 1, 0, 0, 0, 0, 1, 1, 0, 0, 1, 0, 0, 1, 1, 0, 0, 1, 0, 1, 0, 0, 0, 0,
        0, 0, 0, 0, 0, 0, 0, 0, 0, 1, 0, 0, 1, 0, 0, 1])
--train>>-model--summary---- SimpleNet(
  (fc1): Linear(in_features=12288, out_features=84, bias=True)
  (fc2): Linear(in_features=84, out_features=50, bias=True)
  (fc3): Linear(in_features=50, out_features=2, bias=True)
)
--train>>-model-loss--- tensor(0.0323, device='cuda:0', grad_fn=<NllLossBackward0>)
---targets---- tensor([0, 0, 1, 0, 1, 1, 1, 1, 0, 1, 1, 0, 1, 0, 0, 1, 0, 1, 0, 0, 0, 1, 0, 0,
        0, 0, 1, 1, 0, 1, 0, 1, 1, 0, 1, 0, 1, 0, 1, 0, 1, 0, 1, 1, 0, 0, 0, 1,
        0, 0, 1, 0, 0, 0, 0, 0, 0, 1, 0, 1, 1, 0, 1, 0])
--train>>-model--summary---- SimpleNet(
  (fc1): Linear(in_features=12288, out_features=84, bias=True)
  (fc2): Linear(in_features=84, out_features=50, bias=True)
  (fc3): Linear(in_features=50, out_features=2, bias=True)
)
--train>>-model-loss--- tensor(0.0461, device='cuda:0', grad_fn=<NllLossBackward0>)
---targets---- tensor([0, 0, 1, 0, 1, 0, 0, 1, 0, 0, 0, 0, 0, 1, 1, 1, 1, 0, 0, 0, 0, 0, 1, 0,
        1, 0, 1, 0, 0, 1, 1, 1, 1, 0, 0, 0, 1, 0, 1, 0, 1, 1, 1, 1, 0, 1, 1, 0,
        0, 1, 1, 0, 0, 1, 0, 0, 1, 0, 0, 1, 0, 0, 1, 0])
--train>>-model--summary---- SimpleNet(
  (fc1): Linear(in_features=12288, out_features=84, bias=True)
  (fc2): Linear(in_features=84, out_features=50, bias=True)
  (fc3): Linear(in_features=50, out_features=2, bias=True)
)
--train>>-model-loss--- tensor(0.0418, device='cuda:0', grad_fn=<NllLossBackward0>)
---targets---- tensor([0, 1, 0, 1, 0, 1, 0, 0, 0, 1, 1, 1, 0, 0, 1, 0, 1, 0, 1, 0, 1, 1, 0, 1,
        1, 1, 0, 0, 1, 1, 0, 0, 1, 1, 0, 0, 1, 1, 1, 0, 1, 0, 1, 0, 0, 0, 0, 1,
        1, 0, 1, 0, 0, 1, 1, 0, 1, 0, 1, 0, 1, 1, 1, 0])
--train>>-model--summary---- SimpleNet(
  (fc1): Linear(in_features=12288, out_features=84, bias=True)
  (fc2): Linear(in_features=84, out_features=50, bias=True)
  (fc3): Linear(in_features=50, out_features=2, bias=True)
)
--train>>-model-loss--- tensor(0.0220, device='cuda:0', grad_fn=<NllLossBackward0>)
---targets---- tensor([1, 0, 1, 0, 0, 1, 1, 0, 1, 1, 1, 0, 0, 1, 1, 0, 0, 1, 1, 0, 1, 0, 1, 0,
        1, 0, 0, 0, 0, 1, 1, 0, 1, 1, 1, 1, 0, 1, 0, 1])
--train>>-model--summary---- SimpleNet(
  (fc1): Linear(in_features=12288, out_features=84, bias=True)
  (fc2): Linear(in_features=84, out_features=50, bias=True)
  (fc3): Linear(in_features=50, out_features=2, bias=True)
)
--train>>-model-loss--- tensor(0.0020, device='cuda:0', grad_fn=<NllLossBackward0>)
--------targets.shape------ torch.Size([64])
--------inputs.size(0)------ 64
--train>>-model--summary-2--- SimpleNet(
  (fc1): Linear(in_features=12288, out_features=84, bias=True)
  (fc2): Linear(in_features=84, out_features=50, bias=True)
  (fc3): Linear(in_features=50, out_features=2, bias=True)
)
--------output.size(0)------ 64
--------targets.shape------ torch.Size([64])
--------inputs.size(0)------ 64
--train>>-model--summary-2--- SimpleNet(
  (fc1): Linear(in_features=12288, out_features=84, bias=True)
  (fc2): Linear(in_features=84, out_features=50, bias=True)
  (fc3): Linear(in_features=50, out_features=2, bias=True)
)
--------output.size(0)------ 64
--------targets.shape------ torch.Size([64])
--------inputs.size(0)------ 64
--train>>-model--summary-2--- SimpleNet(
  (fc1): Linear(in_features=12288, out_features=84, bias=True)
  (fc2): Linear(in_features=84, out_features=50, bias=True)
  (fc3): Linear(in_features=50, out_features=2, bias=True)
)
--------output.size(0)------ 64
--------targets.shape------ torch.Size([64])
--------inputs.size(0)------ 64
--train>>-model--summary-2--- SimpleNet(
  (fc1): Linear(in_features=12288, out_features=84, bias=True)
  (fc2): Linear(in_features=84, out_features=50, bias=True)
  (fc3): Linear(in_features=50, out_features=2, bias=True)
)
--------output.size(0)------ 64
--------targets.shape------ torch.Size([64])
--------inputs.size(0)------ 64
--train>>-model--summary-2--- SimpleNet(
  (fc1): Linear(in_features=12288, out_features=84, bias=True)
  (fc2): Linear(in_features=84, out_features=50, bias=True)
  (fc3): Linear(in_features=50, out_features=2, bias=True)
)
--------output.size(0)------ 64
--------targets.shape------ torch.Size([64])
--------inputs.size(0)------ 64
--train>>-model--summary-2--- SimpleNet(
  (fc1): Linear(in_features=12288, out_features=84, bias=True)
  (fc2): Linear(in_features=84, out_features=50, bias=True)
  (fc3): Linear(in_features=50, out_features=2, bias=True)
)
--------output.size(0)------ 64
--------targets.shape------ torch.Size([64])
--------inputs.size(0)------ 64
--train>>-model--summary-2--- SimpleNet(
  (fc1): Linear(in_features=12288, out_features=84, bias=True)
  (fc2): Linear(in_features=84, out_features=50, bias=True)
  (fc3): Linear(in_features=50, out_features=2, bias=True)
)
--------output.size(0)------ 64
--------targets.shape------ torch.Size([64])
--------inputs.size(0)------ 64
--train>>-model--summary-2--- SimpleNet(
  (fc1): Linear(in_features=12288, out_features=84, bias=True)
  (fc2): Linear(in_features=84, out_features=50, bias=True)
  (fc3): Linear(in_features=50, out_features=2, bias=True)
)
--------output.size(0)------ 64
--------targets.shape------ torch.Size([64])
--------inputs.size(0)------ 64
--train>>-model--summary-2--- SimpleNet(
  (fc1): Linear(in_features=12288, out_features=84, bias=True)
  (fc2): Linear(in_features=84, out_features=50, bias=True)
  (fc3): Linear(in_features=50, out_features=2, bias=True)
)
--------output.size(0)------ 64
--------targets.shape------ torch.Size([64])
--------inputs.size(0)------ 64
--train>>-model--summary-2--- SimpleNet(
  (fc1): Linear(in_features=12288, out_features=84, bias=True)
  (fc2): Linear(in_features=84, out_features=50, bias=True)
  (fc3): Linear(in_features=50, out_features=2, bias=True)
)
--------output.size(0)------ 64
--------targets.shape------ torch.Size([64])
--------inputs.size(0)------ 64
--train>>-model--summary-2--- SimpleNet(
  (fc1): Linear(in_features=12288, out_features=84, bias=True)
  (fc2): Linear(in_features=84, out_features=50, bias=True)
  (fc3): Linear(in_features=50, out_features=2, bias=True)
)
--------output.size(0)------ 64
--------targets.shape------ torch.Size([64])
--------inputs.size(0)------ 64
--train>>-model--summary-2--- SimpleNet(
  (fc1): Linear(in_features=12288, out_features=84, bias=True)
  (fc2): Linear(in_features=84, out_features=50, bias=True)
  (fc3): Linear(in_features=50, out_features=2, bias=True)
)
--------output.size(0)------ 64
--------targets.shape------ torch.Size([64])
--------inputs.size(0)------ 64
--train>>-model--summary-2--- SimpleNet(
  (fc1): Linear(in_features=12288, out_features=84, bias=True)
  (fc2): Linear(in_features=84, out_features=50, bias=True)
  (fc3): Linear(in_features=50, out_features=2, bias=True)
)
--------output.size(0)------ 64
--------targets.shape------ torch.Size([64])
--------inputs.size(0)------ 64
--train>>-model--summary-2--- SimpleNet(
  (fc1): Linear(in_features=12288, out_features=84, bias=True)
  (fc2): Linear(in_features=84, out_features=50, bias=True)
  (fc3): Linear(in_features=50, out_features=2, bias=True)
)
--------output.size(0)------ 64
--------targets.shape------ torch.Size([40])
--------inputs.size(0)------ 40
--train>>-model--summary-2--- SimpleNet(
  (fc1): Linear(in_features=12288, out_features=84, bias=True)
  (fc2): Linear(in_features=84, out_features=50, bias=True)
  (fc3): Linear(in_features=50, out_features=2, bias=True)
)
--------output.size(0)------ 40
-TRAIN----torch.cuda.memory_allocated---> 0.02 GB
Epoch:5,TRAIN_Loss:0.03,VAL_Loss:0.02, Accuracy = 0.99
---targets---- tensor([0, 1, 0, 0, 0, 1, 0, 1, 1, 0, 1, 0, 1, 1, 1, 1, 0, 1, 0, 0, 1, 0, 1, 1,
        1, 0, 1, 1, 0, 1, 0, 0, 0, 0, 0, 0, 0, 0, 0, 0, 0, 1, 0, 1, 1, 1, 0, 1,
        1, 0, 0, 1, 1, 0, 0, 0, 1, 1, 1, 0, 0, 1, 0, 1])
--train>>-model--summary---- SimpleNet(
  (fc1): Linear(in_features=12288, out_features=84, bias=True)
  (fc2): Linear(in_features=84, out_features=50, bias=True)
  (fc3): Linear(in_features=50, out_features=2, bias=True)
)
--train>>-model-loss--- tensor(0.0243, device='cuda:0', grad_fn=<NllLossBackward0>)
---targets---- tensor([0, 1, 0, 0, 0, 1, 0, 0, 0, 0, 0, 1, 1, 0, 1, 1, 0, 1, 0, 0, 1, 0, 1, 0,
        0, 1, 1, 0, 1, 1, 1, 1, 1, 1, 1, 0, 0, 1, 1, 1, 1, 0, 1, 1, 0, 1, 0, 0,
        1, 0, 0, 0, 0, 0, 0, 0, 0, 1, 1, 0, 0, 0, 1, 0])
--train>>-model--summary---- SimpleNet(
  (fc1): Linear(in_features=12288, out_features=84, bias=True)
  (fc2): Linear(in_features=84, out_features=50, bias=True)
  (fc3): Linear(in_features=50, out_features=2, bias=True)
)
--train>>-model-loss--- tensor(0.0027, device='cuda:0', grad_fn=<NllLossBackward0>)
---targets---- tensor([0, 0, 0, 1, 0, 1, 0, 1, 0, 1, 1, 1, 0, 1, 1, 0, 0, 1, 0, 1, 0, 1, 0, 1,
        0, 0, 0, 0, 0, 0, 1, 0, 1, 0, 1, 0, 1, 1, 1, 1, 1, 0, 0, 1, 1, 0, 0, 1,
        0, 1, 1, 0, 1, 1, 0, 1, 0, 1, 0, 0, 1, 0, 1, 0])
--train>>-model--summary---- SimpleNet(
  (fc1): Linear(in_features=12288, out_features=84, bias=True)
  (fc2): Linear(in_features=84, out_features=50, bias=True)
  (fc3): Linear(in_features=50, out_features=2, bias=True)
)
--train>>-model-loss--- tensor(0.0314, device='cuda:0', grad_fn=<NllLossBackward0>)
---targets---- tensor([1, 1, 1, 0, 0, 0, 1, 0, 0, 1, 1, 0, 0, 1, 1, 0, 0, 0, 0, 1, 1, 1, 1, 0,
        1, 0, 0, 0, 0, 1, 0, 1, 1, 1, 1, 1, 0, 1, 0, 0, 0, 1, 1, 1, 0, 0, 0, 1,
        1, 0, 1, 0, 0, 0, 1, 1, 1, 0, 1, 1, 1, 0, 0, 1])
--train>>-model--summary---- SimpleNet(
  (fc1): Linear(in_features=12288, out_features=84, bias=True)
  (fc2): Linear(in_features=84, out_features=50, bias=True)
  (fc3): Linear(in_features=50, out_features=2, bias=True)
)
--train>>-model-loss--- tensor(0.0134, device='cuda:0', grad_fn=<NllLossBackward0>)
---targets---- tensor([0, 1, 1, 0, 1, 0, 0, 1, 1, 1, 1, 1, 0, 1, 1, 0, 0, 0, 1, 0, 0, 0, 1, 0,
        0, 1, 1, 0, 1, 1, 1, 0, 0, 1, 1, 0, 1, 0, 0, 0, 1, 0, 0, 0, 0, 0, 1, 1,
        1, 1, 0, 1, 0, 0, 0, 0, 1, 0, 0, 0, 1, 0, 1, 1])
--train>>-model--summary---- SimpleNet(
  (fc1): Linear(in_features=12288, out_features=84, bias=True)
  (fc2): Linear(in_features=84, out_features=50, bias=True)
  (fc3): Linear(in_features=50, out_features=2, bias=True)
)
--train>>-model-loss--- tensor(0.0073, device='cuda:0', grad_fn=<NllLossBackward0>)
---targets---- tensor([1, 1, 0, 1, 0, 0, 1, 0, 0, 1, 0, 1, 0, 0, 0, 0, 1, 1, 1, 1, 1, 0, 1, 0,
        0, 1, 0, 1, 0, 0, 1, 0, 0, 0, 1, 0, 1, 1, 0, 1, 1, 0, 0, 1, 0, 0, 0, 0,
        0, 0, 1, 0, 1, 1, 0, 0, 0, 0, 1, 0, 0, 1, 1, 1])
--train>>-model--summary---- SimpleNet(
  (fc1): Linear(in_features=12288, out_features=84, bias=True)
  (fc2): Linear(in_features=84, out_features=50, bias=True)
  (fc3): Linear(in_features=50, out_features=2, bias=True)
)
--train>>-model-loss--- tensor(0.0215, device='cuda:0', grad_fn=<NllLossBackward0>)
---targets---- tensor([0, 0, 0, 0, 0, 0, 1, 0, 1, 0, 0, 1, 1, 1, 0, 1, 1, 0, 0, 0, 0, 1, 1, 0,
        1, 1, 0, 1, 0, 1, 0, 0, 1, 1, 1, 0, 0, 1, 1, 0, 1, 0, 0, 1, 0, 0, 0, 1,
        1, 0, 1, 0, 0, 1, 0, 1, 1, 0, 1, 1, 0, 1, 1, 1])
--train>>-model--summary---- SimpleNet(
  (fc1): Linear(in_features=12288, out_features=84, bias=True)
  (fc2): Linear(in_features=84, out_features=50, bias=True)
  (fc3): Linear(in_features=50, out_features=2, bias=True)
)
--train>>-model-loss--- tensor(0.0100, device='cuda:0', grad_fn=<NllLossBackward0>)
---targets---- tensor([1, 0, 1, 1, 1, 1, 0, 1, 1, 1, 1, 1, 0, 0, 0, 1, 1, 0, 0, 1, 1, 1, 0, 1,
        0, 0, 0, 1, 0, 0, 0, 0, 1, 0, 0, 1, 0, 1, 1, 0, 1, 1, 1, 0, 0, 0, 1, 1,
        1, 0, 1, 1, 1, 0, 0, 1, 0, 0, 0, 0, 1, 0, 1, 1])
--train>>-model--summary---- SimpleNet(
  (fc1): Linear(in_features=12288, out_features=84, bias=True)
  (fc2): Linear(in_features=84, out_features=50, bias=True)
  (fc3): Linear(in_features=50, out_features=2, bias=True)
)
--train>>-model-loss--- tensor(0.0211, device='cuda:0', grad_fn=<NllLossBackward0>)
---targets---- tensor([1, 0, 1, 0, 1, 0, 1, 0, 1, 1, 1, 0, 0, 1, 1, 0, 0, 1, 1, 1, 1, 1, 0, 1,
        1, 0, 0, 1, 1, 1, 1, 0, 1, 0, 1, 0, 0, 1, 0, 1, 0, 0, 0, 0, 0, 1, 1, 1,
        1, 1, 1, 1, 0, 0, 0, 1, 1, 0, 0, 1, 0, 1, 0, 0])
--train>>-model--summary---- SimpleNet(
  (fc1): Linear(in_features=12288, out_features=84, bias=True)
  (fc2): Linear(in_features=84, out_features=50, bias=True)
  (fc3): Linear(in_features=50, out_features=2, bias=True)
)
--train>>-model-loss--- tensor(0.0255, device='cuda:0', grad_fn=<NllLossBackward0>)
---targets---- tensor([0, 0, 1, 1, 0, 1, 1, 0, 1, 1, 1, 0, 0, 1, 0, 0, 0, 0, 1, 0, 0, 1, 1, 0,
        1, 0, 0, 0, 0, 0, 0, 1, 0, 1, 1, 1, 0, 1, 0, 0, 0, 0, 1, 0, 0, 0, 0, 0,
        0, 1, 0, 0, 1, 0, 1, 0, 0, 1, 1, 1, 0, 0, 0, 0])
--train>>-model--summary---- SimpleNet(
  (fc1): Linear(in_features=12288, out_features=84, bias=True)
  (fc2): Linear(in_features=84, out_features=50, bias=True)
  (fc3): Linear(in_features=50, out_features=2, bias=True)
)
--train>>-model-loss--- tensor(0.0484, device='cuda:0', grad_fn=<NllLossBackward0>)
---targets---- tensor([1, 0, 0, 1, 0, 0, 0, 1, 1, 1, 1, 1, 1, 0, 0, 1, 0, 1, 0, 0, 0, 0, 0, 0,
        1, 0, 0, 0, 1, 0, 0, 0, 0, 0, 1, 0, 1, 1, 0, 0, 1, 0, 0, 1, 0, 1, 0, 0,
        0, 0, 0, 0, 0, 0, 1, 1, 0, 1, 1, 1, 1, 0, 0, 1])
--train>>-model--summary---- SimpleNet(
  (fc1): Linear(in_features=12288, out_features=84, bias=True)
  (fc2): Linear(in_features=84, out_features=50, bias=True)
  (fc3): Linear(in_features=50, out_features=2, bias=True)
)
--train>>-model-loss--- tensor(0.0035, device='cuda:0', grad_fn=<NllLossBackward0>)
---targets---- tensor([0, 1, 0, 1, 0, 0, 1, 0, 0, 1, 0, 0, 1, 1, 0, 1, 0, 1, 0, 0, 0, 1, 0, 0,
        1, 0, 1, 0, 0, 0, 1, 1, 1, 1, 1, 0, 1, 0, 0, 1, 1, 0, 0, 1, 0, 0, 1, 1,
        0, 1, 0, 1, 0, 0, 1, 1, 1, 0, 1, 1, 1, 0, 1, 0])
--train>>-model--summary---- SimpleNet(
  (fc1): Linear(in_features=12288, out_features=84, bias=True)
  (fc2): Linear(in_features=84, out_features=50, bias=True)
  (fc3): Linear(in_features=50, out_features=2, bias=True)
)
--train>>-model-loss--- tensor(0.0294, device='cuda:0', grad_fn=<NllLossBackward0>)
---targets---- tensor([0, 0, 0, 0, 0, 0, 1, 0, 1, 0, 0, 1, 0, 0, 0, 1, 1, 0, 0, 1, 1, 1, 0, 1,
        0, 1, 0, 1, 0, 0, 0, 1, 1, 1, 1, 0, 0, 1, 0, 0, 1, 1, 0, 0, 1, 1, 0, 0,
        0, 1, 1, 0, 0, 1, 0, 0, 0, 0, 0, 0, 1, 1, 1, 0])
--train>>-model--summary---- SimpleNet(
  (fc1): Linear(in_features=12288, out_features=84, bias=True)
  (fc2): Linear(in_features=84, out_features=50, bias=True)
  (fc3): Linear(in_features=50, out_features=2, bias=True)
)
--train>>-model-loss--- tensor(0.0169, device='cuda:0', grad_fn=<NllLossBackward0>)
---targets---- tensor([1, 1, 0, 1, 0, 0, 1, 0, 1, 1, 0, 0, 0, 0, 1, 0, 0, 0, 1, 1, 0, 0, 0, 1,
        0, 1, 1, 1, 0, 1, 0, 1, 1, 1, 1, 1, 0, 1, 0, 0, 0, 1, 0, 1, 1, 1, 0, 0,
        1, 0, 1, 0, 0, 0, 0, 0, 1, 0, 1, 0, 0, 1, 1, 0])
--train>>-model--summary---- SimpleNet(
  (fc1): Linear(in_features=12288, out_features=84, bias=True)
  (fc2): Linear(in_features=84, out_features=50, bias=True)
  (fc3): Linear(in_features=50, out_features=2, bias=True)
)
--train>>-model-loss--- tensor(0.0024, device='cuda:0', grad_fn=<NllLossBackward0>)
---targets---- tensor([0, 0, 0, 0, 0, 0, 1, 0, 1, 0, 0, 0, 1, 1, 1, 0, 0, 1, 1, 1, 1, 1, 0, 0,
        1, 0, 0, 1, 1, 1, 1, 0, 0, 1, 0, 0, 0, 0, 1, 1])
--train>>-model--summary---- SimpleNet(
  (fc1): Linear(in_features=12288, out_features=84, bias=True)
  (fc2): Linear(in_features=84, out_features=50, bias=True)
  (fc3): Linear(in_features=50, out_features=2, bias=True)
)
--train>>-model-loss--- tensor(0.0094, device='cuda:0', grad_fn=<NllLossBackward0>)
--------targets.shape------ torch.Size([64])
--------inputs.size(0)------ 64
--train>>-model--summary-2--- SimpleNet(
  (fc1): Linear(in_features=12288, out_features=84, bias=True)
  (fc2): Linear(in_features=84, out_features=50, bias=True)
  (fc3): Linear(in_features=50, out_features=2, bias=True)
)
--------output.size(0)------ 64
--------targets.shape------ torch.Size([64])
--------inputs.size(0)------ 64
--train>>-model--summary-2--- SimpleNet(
  (fc1): Linear(in_features=12288, out_features=84, bias=True)
  (fc2): Linear(in_features=84, out_features=50, bias=True)
  (fc3): Linear(in_features=50, out_features=2, bias=True)
)
--------output.size(0)------ 64
--------targets.shape------ torch.Size([64])
--------inputs.size(0)------ 64
--train>>-model--summary-2--- SimpleNet(
  (fc1): Linear(in_features=12288, out_features=84, bias=True)
  (fc2): Linear(in_features=84, out_features=50, bias=True)
  (fc3): Linear(in_features=50, out_features=2, bias=True)
)
--------output.size(0)------ 64
--------targets.shape------ torch.Size([64])
--------inputs.size(0)------ 64
--train>>-model--summary-2--- SimpleNet(
  (fc1): Linear(in_features=12288, out_features=84, bias=True)
  (fc2): Linear(in_features=84, out_features=50, bias=True)
  (fc3): Linear(in_features=50, out_features=2, bias=True)
)
--------output.size(0)------ 64
--------targets.shape------ torch.Size([64])
--------inputs.size(0)------ 64
--train>>-model--summary-2--- SimpleNet(
  (fc1): Linear(in_features=12288, out_features=84, bias=True)
  (fc2): Linear(in_features=84, out_features=50, bias=True)
  (fc3): Linear(in_features=50, out_features=2, bias=True)
)
--------output.size(0)------ 64
--------targets.shape------ torch.Size([64])
--------inputs.size(0)------ 64
--train>>-model--summary-2--- SimpleNet(
  (fc1): Linear(in_features=12288, out_features=84, bias=True)
  (fc2): Linear(in_features=84, out_features=50, bias=True)
  (fc3): Linear(in_features=50, out_features=2, bias=True)
)
--------output.size(0)------ 64
--------targets.shape------ torch.Size([64])
--------inputs.size(0)------ 64
--train>>-model--summary-2--- SimpleNet(
  (fc1): Linear(in_features=12288, out_features=84, bias=True)
  (fc2): Linear(in_features=84, out_features=50, bias=True)
  (fc3): Linear(in_features=50, out_features=2, bias=True)
)
--------output.size(0)------ 64
--------targets.shape------ torch.Size([64])
--------inputs.size(0)------ 64
--train>>-model--summary-2--- SimpleNet(
  (fc1): Linear(in_features=12288, out_features=84, bias=True)
  (fc2): Linear(in_features=84, out_features=50, bias=True)
  (fc3): Linear(in_features=50, out_features=2, bias=True)
)
--------output.size(0)------ 64
--------targets.shape------ torch.Size([64])
--------inputs.size(0)------ 64
--train>>-model--summary-2--- SimpleNet(
  (fc1): Linear(in_features=12288, out_features=84, bias=True)
  (fc2): Linear(in_features=84, out_features=50, bias=True)
  (fc3): Linear(in_features=50, out_features=2, bias=True)
)
--------output.size(0)------ 64
--------targets.shape------ torch.Size([64])
--------inputs.size(0)------ 64
--train>>-model--summary-2--- SimpleNet(
  (fc1): Linear(in_features=12288, out_features=84, bias=True)
  (fc2): Linear(in_features=84, out_features=50, bias=True)
  (fc3): Linear(in_features=50, out_features=2, bias=True)
)
--------output.size(0)------ 64
--------targets.shape------ torch.Size([64])
--------inputs.size(0)------ 64
--train>>-model--summary-2--- SimpleNet(
  (fc1): Linear(in_features=12288, out_features=84, bias=True)
  (fc2): Linear(in_features=84, out_features=50, bias=True)
  (fc3): Linear(in_features=50, out_features=2, bias=True)
)
--------output.size(0)------ 64
--------targets.shape------ torch.Size([64])
--------inputs.size(0)------ 64
--train>>-model--summary-2--- SimpleNet(
  (fc1): Linear(in_features=12288, out_features=84, bias=True)
  (fc2): Linear(in_features=84, out_features=50, bias=True)
  (fc3): Linear(in_features=50, out_features=2, bias=True)
)
--------output.size(0)------ 64
--------targets.shape------ torch.Size([64])
--------inputs.size(0)------ 64
--train>>-model--summary-2--- SimpleNet(
  (fc1): Linear(in_features=12288, out_features=84, bias=True)
  (fc2): Linear(in_features=84, out_features=50, bias=True)
  (fc3): Linear(in_features=50, out_features=2, bias=True)
)
--------output.size(0)------ 64
--------targets.shape------ torch.Size([64])
--------inputs.size(0)------ 64
--train>>-model--summary-2--- SimpleNet(
  (fc1): Linear(in_features=12288, out_features=84, bias=True)
  (fc2): Linear(in_features=84, out_features=50, bias=True)
  (fc3): Linear(in_features=50, out_features=2, bias=True)
)
--------output.size(0)------ 64
--------targets.shape------ torch.Size([40])
--------inputs.size(0)------ 40
--train>>-model--summary-2--- SimpleNet(
  (fc1): Linear(in_features=12288, out_features=84, bias=True)
  (fc2): Linear(in_features=84, out_features=50, bias=True)
  (fc3): Linear(in_features=50, out_features=2, bias=True)
)
--------output.size(0)------ 40
-TRAIN----torch.cuda.memory_allocated---> 0.02 GB
Epoch:6,TRAIN_Loss:0.02,VAL_Loss:0.01, Accuracy = 0.99
---targets---- tensor([1, 0, 0, 0, 0, 0, 0, 0, 0, 0, 0, 1, 1, 1, 1, 1, 1, 0, 0, 1, 0, 0, 1, 0,
        0, 1, 0, 1, 1, 1, 0, 0, 1, 0, 0, 1, 1, 1, 1, 1, 1, 1, 1, 0, 0, 0, 1, 1,
        0, 0, 0, 1, 0, 0, 1, 0, 0, 0, 0, 0, 0, 0, 1, 0])
--train>>-model--summary---- SimpleNet(
  (fc1): Linear(in_features=12288, out_features=84, bias=True)
  (fc2): Linear(in_features=84, out_features=50, bias=True)
  (fc3): Linear(in_features=50, out_features=2, bias=True)
)
--train>>-model-loss--- tensor(0.0130, device='cuda:0', grad_fn=<NllLossBackward0>)
---targets---- tensor([0, 1, 1, 1, 0, 1, 0, 0, 1, 1, 1, 1, 1, 0, 0, 0, 1, 1, 1, 1, 0, 0, 1, 0,
        0, 1, 0, 1, 0, 1, 0, 0, 0, 1, 0, 1, 1, 1, 0, 1, 1, 0, 0, 0, 0, 0, 0, 0,
        0, 0, 1, 0, 0, 0, 1, 1, 1, 0, 1, 0, 1, 1, 0, 1])
--train>>-model--summary---- SimpleNet(
  (fc1): Linear(in_features=12288, out_features=84, bias=True)
  (fc2): Linear(in_features=84, out_features=50, bias=True)
  (fc3): Linear(in_features=50, out_features=2, bias=True)
)
--train>>-model-loss--- tensor(0.0006, device='cuda:0', grad_fn=<NllLossBackward0>)
---targets---- tensor([0, 1, 0, 0, 1, 1, 0, 0, 0, 0, 0, 0, 1, 1, 1, 1, 1, 1, 1, 0, 1, 1, 1, 0,
        1, 1, 0, 0, 1, 0, 0, 0, 0, 1, 0, 0, 1, 1, 0, 1, 0, 0, 0, 1, 1, 0, 0, 1,
        0, 0, 0, 1, 0, 0, 1, 1, 0, 0, 1, 0, 1, 0, 1, 1])
--train>>-model--summary---- SimpleNet(
  (fc1): Linear(in_features=12288, out_features=84, bias=True)
  (fc2): Linear(in_features=84, out_features=50, bias=True)
  (fc3): Linear(in_features=50, out_features=2, bias=True)
)
--train>>-model-loss--- tensor(0.0234, device='cuda:0', grad_fn=<NllLossBackward0>)
---targets---- tensor([0, 0, 0, 1, 1, 1, 1, 0, 0, 1, 0, 0, 1, 0, 0, 1, 1, 1, 0, 0, 0, 1, 1, 1,
        0, 1, 1, 1, 1, 0, 0, 1, 0, 1, 0, 1, 1, 0, 1, 0, 1, 1, 0, 0, 1, 1, 1, 0,
        0, 1, 1, 0, 1, 1, 0, 1, 1, 0, 0, 0, 1, 1, 0, 1])
--train>>-model--summary---- SimpleNet(
  (fc1): Linear(in_features=12288, out_features=84, bias=True)
  (fc2): Linear(in_features=84, out_features=50, bias=True)
  (fc3): Linear(in_features=50, out_features=2, bias=True)
)
--train>>-model-loss--- tensor(0.0051, device='cuda:0', grad_fn=<NllLossBackward0>)
---targets---- tensor([1, 1, 0, 1, 0, 0, 1, 0, 0, 0, 0, 0, 1, 0, 1, 0, 1, 0, 0, 0, 1, 0, 0, 0,
        0, 1, 0, 0, 1, 0, 0, 1, 0, 1, 0, 0, 0, 0, 1, 1, 1, 0, 0, 1, 0, 1, 0, 0,
        1, 1, 1, 1, 0, 0, 0, 0, 0, 0, 1, 1, 0, 0, 0, 1])
--train>>-model--summary---- SimpleNet(
  (fc1): Linear(in_features=12288, out_features=84, bias=True)
  (fc2): Linear(in_features=84, out_features=50, bias=True)
  (fc3): Linear(in_features=50, out_features=2, bias=True)
)
--train>>-model-loss--- tensor(0.0025, device='cuda:0', grad_fn=<NllLossBackward0>)
---targets---- tensor([0, 1, 1, 1, 1, 0, 1, 0, 0, 1, 0, 1, 0, 1, 1, 1, 1, 0, 1, 0, 1, 1, 1, 0,
        0, 0, 0, 0, 0, 0, 0, 0, 0, 0, 1, 0, 1, 1, 0, 0, 0, 0, 0, 1, 0, 1, 1, 0,
        0, 1, 1, 1, 0, 1, 0, 1, 1, 0, 1, 1, 1, 0, 1, 0])
--train>>-model--summary---- SimpleNet(
  (fc1): Linear(in_features=12288, out_features=84, bias=True)
  (fc2): Linear(in_features=84, out_features=50, bias=True)
  (fc3): Linear(in_features=50, out_features=2, bias=True)
)
--train>>-model-loss--- tensor(0.0034, device='cuda:0', grad_fn=<NllLossBackward0>)
---targets---- tensor([1, 1, 1, 1, 0, 0, 1, 1, 0, 0, 0, 1, 1, 0, 0, 0, 1, 0, 0, 1, 1, 1, 1, 0,
        1, 0, 0, 1, 0, 0, 1, 0, 0, 0, 1, 1, 1, 1, 0, 0, 0, 1, 0, 1, 1, 0, 1, 1,
        0, 0, 0, 1, 0, 0, 0, 1, 0, 1, 1, 1, 0, 0, 0, 1])
--train>>-model--summary---- SimpleNet(
  (fc1): Linear(in_features=12288, out_features=84, bias=True)
  (fc2): Linear(in_features=84, out_features=50, bias=True)
  (fc3): Linear(in_features=50, out_features=2, bias=True)
)
--train>>-model-loss--- tensor(0.0266, device='cuda:0', grad_fn=<NllLossBackward0>)
---targets---- tensor([0, 0, 1, 0, 0, 0, 1, 0, 0, 0, 1, 0, 1, 1, 0, 0, 0, 0, 0, 0, 0, 1, 1, 0,
        0, 1, 1, 1, 0, 1, 1, 0, 0, 0, 1, 0, 1, 0, 0, 1, 1, 0, 1, 0, 0, 0, 0, 1,
        1, 0, 0, 0, 0, 1, 1, 1, 1, 1, 0, 1, 0, 1, 0, 0])
--train>>-model--summary---- SimpleNet(
  (fc1): Linear(in_features=12288, out_features=84, bias=True)
  (fc2): Linear(in_features=84, out_features=50, bias=True)
  (fc3): Linear(in_features=50, out_features=2, bias=True)
)
--train>>-model-loss--- tensor(0.0050, device='cuda:0', grad_fn=<NllLossBackward0>)
---targets---- tensor([1, 0, 0, 1, 0, 0, 0, 0, 0, 0, 1, 0, 1, 1, 1, 0, 0, 0, 1, 0, 1, 0, 1, 1,
        0, 1, 1, 1, 0, 0, 1, 0, 0, 0, 0, 1, 1, 0, 0, 0, 0, 1, 1, 1, 0, 0, 1, 1,
        1, 1, 0, 0, 1, 0, 1, 0, 1, 0, 0, 1, 0, 1, 0, 1])
--train>>-model--summary---- SimpleNet(
  (fc1): Linear(in_features=12288, out_features=84, bias=True)
  (fc2): Linear(in_features=84, out_features=50, bias=True)
  (fc3): Linear(in_features=50, out_features=2, bias=True)
)
--train>>-model-loss--- tensor(0.0135, device='cuda:0', grad_fn=<NllLossBackward0>)
---targets---- tensor([0, 0, 0, 0, 0, 1, 1, 0, 1, 1, 0, 1, 1, 0, 1, 0, 1, 0, 1, 0, 1, 0, 1, 0,
        0, 0, 0, 1, 1, 0, 0, 0, 1, 0, 0, 1, 0, 1, 0, 0, 0, 1, 0, 1, 1, 0, 0, 0,
        0, 0, 1, 1, 1, 0, 0, 0, 1, 1, 0, 0, 1, 0, 1, 0])
--train>>-model--summary---- SimpleNet(
  (fc1): Linear(in_features=12288, out_features=84, bias=True)
  (fc2): Linear(in_features=84, out_features=50, bias=True)
  (fc3): Linear(in_features=50, out_features=2, bias=True)
)
--train>>-model-loss--- tensor(0.0048, device='cuda:0', grad_fn=<NllLossBackward0>)
---targets---- tensor([0, 0, 0, 0, 1, 0, 0, 1, 0, 0, 1, 1, 0, 1, 0, 1, 0, 0, 1, 0, 0, 0, 1, 1,
        1, 0, 0, 0, 1, 0, 0, 1, 0, 1, 1, 0, 0, 0, 1, 1, 1, 1, 0, 1, 1, 0, 1, 1,
        0, 0, 0, 0, 1, 0, 1, 0, 0, 0, 1, 0, 1, 1, 0, 0])
--train>>-model--summary---- SimpleNet(
  (fc1): Linear(in_features=12288, out_features=84, bias=True)
  (fc2): Linear(in_features=84, out_features=50, bias=True)
  (fc3): Linear(in_features=50, out_features=2, bias=True)
)
--train>>-model-loss--- tensor(0.0081, device='cuda:0', grad_fn=<NllLossBackward0>)
---targets---- tensor([0, 1, 0, 1, 0, 0, 1, 0, 1, 0, 1, 0, 1, 0, 1, 1, 0, 0, 1, 0, 0, 0, 1, 1,
        1, 0, 1, 0, 1, 0, 1, 1, 1, 1, 0, 1, 1, 1, 1, 0, 1, 0, 1, 0, 1, 1, 0, 0,
        0, 1, 0, 1, 1, 1, 0, 1, 1, 0, 0, 1, 1, 0, 1, 0])
--train>>-model--summary---- SimpleNet(
  (fc1): Linear(in_features=12288, out_features=84, bias=True)
  (fc2): Linear(in_features=84, out_features=50, bias=True)
  (fc3): Linear(in_features=50, out_features=2, bias=True)
)
--train>>-model-loss--- tensor(0.0138, device='cuda:0', grad_fn=<NllLossBackward0>)
---targets---- tensor([1, 0, 0, 1, 1, 1, 0, 0, 1, 1, 1, 1, 1, 1, 0, 1, 0, 0, 0, 0, 0, 0, 0, 1,
        1, 0, 0, 0, 1, 1, 0, 0, 1, 1, 1, 1, 1, 0, 0, 0, 0, 1, 1, 1, 0, 1, 0, 0,
        0, 0, 0, 1, 1, 0, 1, 0, 1, 1, 0, 1, 0, 0, 0, 0])
--train>>-model--summary---- SimpleNet(
  (fc1): Linear(in_features=12288, out_features=84, bias=True)
  (fc2): Linear(in_features=84, out_features=50, bias=True)
  (fc3): Linear(in_features=50, out_features=2, bias=True)
)
--train>>-model-loss--- tensor(0.0122, device='cuda:0', grad_fn=<NllLossBackward0>)
---targets---- tensor([1, 0, 1, 1, 1, 0, 0, 0, 0, 1, 0, 1, 1, 0, 1, 0, 0, 1, 0, 1, 0, 1, 0, 1,
        1, 1, 1, 1, 1, 1, 1, 0, 0, 1, 1, 1, 1, 0, 1, 0, 0, 0, 1, 1, 0, 0, 1, 1,
        0, 0, 0, 1, 1, 0, 1, 0, 0, 0, 1, 0, 1, 0, 0, 0])
--train>>-model--summary---- SimpleNet(
  (fc1): Linear(in_features=12288, out_features=84, bias=True)
  (fc2): Linear(in_features=84, out_features=50, bias=True)
  (fc3): Linear(in_features=50, out_features=2, bias=True)
)
--train>>-model-loss--- tensor(0.0179, device='cuda:0', grad_fn=<NllLossBackward0>)
---targets---- tensor([0, 0, 0, 0, 1, 1, 0, 0, 1, 0, 0, 1, 1, 1, 1, 0, 1, 1, 0, 1, 0, 0, 1, 1,
        0, 0, 1, 1, 0, 1, 0, 1, 0, 1, 1, 0, 1, 0, 1, 0])
--train>>-model--summary---- SimpleNet(
  (fc1): Linear(in_features=12288, out_features=84, bias=True)
  (fc2): Linear(in_features=84, out_features=50, bias=True)
  (fc3): Linear(in_features=50, out_features=2, bias=True)
)
--train>>-model-loss--- tensor(0.0072, device='cuda:0', grad_fn=<NllLossBackward0>)
--------targets.shape------ torch.Size([64])
--------inputs.size(0)------ 64
--train>>-model--summary-2--- SimpleNet(
  (fc1): Linear(in_features=12288, out_features=84, bias=True)
  (fc2): Linear(in_features=84, out_features=50, bias=True)
  (fc3): Linear(in_features=50, out_features=2, bias=True)
)
--------output.size(0)------ 64
--------targets.shape------ torch.Size([64])
--------inputs.size(0)------ 64
--train>>-model--summary-2--- SimpleNet(
  (fc1): Linear(in_features=12288, out_features=84, bias=True)
  (fc2): Linear(in_features=84, out_features=50, bias=True)
  (fc3): Linear(in_features=50, out_features=2, bias=True)
)
--------output.size(0)------ 64
--------targets.shape------ torch.Size([64])
--------inputs.size(0)------ 64
--train>>-model--summary-2--- SimpleNet(
  (fc1): Linear(in_features=12288, out_features=84, bias=True)
  (fc2): Linear(in_features=84, out_features=50, bias=True)
  (fc3): Linear(in_features=50, out_features=2, bias=True)
)
--------output.size(0)------ 64
--------targets.shape------ torch.Size([64])
--------inputs.size(0)------ 64
--train>>-model--summary-2--- SimpleNet(
  (fc1): Linear(in_features=12288, out_features=84, bias=True)
  (fc2): Linear(in_features=84, out_features=50, bias=True)
  (fc3): Linear(in_features=50, out_features=2, bias=True)
)
--------output.size(0)------ 64
--------targets.shape------ torch.Size([64])
--------inputs.size(0)------ 64
--train>>-model--summary-2--- SimpleNet(
  (fc1): Linear(in_features=12288, out_features=84, bias=True)
  (fc2): Linear(in_features=84, out_features=50, bias=True)
  (fc3): Linear(in_features=50, out_features=2, bias=True)
)
--------output.size(0)------ 64
--------targets.shape------ torch.Size([64])
--------inputs.size(0)------ 64
--train>>-model--summary-2--- SimpleNet(
  (fc1): Linear(in_features=12288, out_features=84, bias=True)
  (fc2): Linear(in_features=84, out_features=50, bias=True)
  (fc3): Linear(in_features=50, out_features=2, bias=True)
)
--------output.size(0)------ 64
--------targets.shape------ torch.Size([64])
--------inputs.size(0)------ 64
--train>>-model--summary-2--- SimpleNet(
  (fc1): Linear(in_features=12288, out_features=84, bias=True)
  (fc2): Linear(in_features=84, out_features=50, bias=True)
  (fc3): Linear(in_features=50, out_features=2, bias=True)
)
--------output.size(0)------ 64
--------targets.shape------ torch.Size([64])
--------inputs.size(0)------ 64
--train>>-model--summary-2--- SimpleNet(
  (fc1): Linear(in_features=12288, out_features=84, bias=True)
  (fc2): Linear(in_features=84, out_features=50, bias=True)
  (fc3): Linear(in_features=50, out_features=2, bias=True)
)
--------output.size(0)------ 64
--------targets.shape------ torch.Size([64])
--------inputs.size(0)------ 64
--train>>-model--summary-2--- SimpleNet(
  (fc1): Linear(in_features=12288, out_features=84, bias=True)
  (fc2): Linear(in_features=84, out_features=50, bias=True)
  (fc3): Linear(in_features=50, out_features=2, bias=True)
)
--------output.size(0)------ 64
--------targets.shape------ torch.Size([64])
--------inputs.size(0)------ 64
--train>>-model--summary-2--- SimpleNet(
  (fc1): Linear(in_features=12288, out_features=84, bias=True)
  (fc2): Linear(in_features=84, out_features=50, bias=True)
  (fc3): Linear(in_features=50, out_features=2, bias=True)
)
--------output.size(0)------ 64
--------targets.shape------ torch.Size([64])
--------inputs.size(0)------ 64
--train>>-model--summary-2--- SimpleNet(
  (fc1): Linear(in_features=12288, out_features=84, bias=True)
  (fc2): Linear(in_features=84, out_features=50, bias=True)
  (fc3): Linear(in_features=50, out_features=2, bias=True)
)
--------output.size(0)------ 64
--------targets.shape------ torch.Size([64])
--------inputs.size(0)------ 64
--train>>-model--summary-2--- SimpleNet(
  (fc1): Linear(in_features=12288, out_features=84, bias=True)
  (fc2): Linear(in_features=84, out_features=50, bias=True)
  (fc3): Linear(in_features=50, out_features=2, bias=True)
)
--------output.size(0)------ 64
--------targets.shape------ torch.Size([64])
--------inputs.size(0)------ 64
--train>>-model--summary-2--- SimpleNet(
  (fc1): Linear(in_features=12288, out_features=84, bias=True)
  (fc2): Linear(in_features=84, out_features=50, bias=True)
  (fc3): Linear(in_features=50, out_features=2, bias=True)
)
--------output.size(0)------ 64
--------targets.shape------ torch.Size([64])
--------inputs.size(0)------ 64
--train>>-model--summary-2--- SimpleNet(
  (fc1): Linear(in_features=12288, out_features=84, bias=True)
  (fc2): Linear(in_features=84, out_features=50, bias=True)
  (fc3): Linear(in_features=50, out_features=2, bias=True)
)
--------output.size(0)------ 64
--------targets.shape------ torch.Size([40])
--------inputs.size(0)------ 40
--train>>-model--summary-2--- SimpleNet(
  (fc1): Linear(in_features=12288, out_features=84, bias=True)
  (fc2): Linear(in_features=84, out_features=50, bias=True)
  (fc3): Linear(in_features=50, out_features=2, bias=True)
)
--------output.size(0)------ 40
-TRAIN----torch.cuda.memory_allocated---> 0.02 GB
Epoch:7,TRAIN_Loss:0.01,VAL_Loss:0.01, Accuracy = 1.00
---targets---- tensor([1, 1, 0, 1, 0, 0, 0, 1, 0, 0, 0, 0, 0, 1, 1, 0, 1, 0, 1, 0, 0, 1, 0, 1,
        1, 0, 1, 1, 1, 0, 0, 0, 1, 1, 0, 1, 0, 0, 0, 0, 0, 1, 0, 0, 1, 1, 0, 1,
        0, 1, 0, 1, 0, 1, 1, 1, 1, 0, 1, 1, 0, 0, 1, 0])
--train>>-model--summary---- SimpleNet(
  (fc1): Linear(in_features=12288, out_features=84, bias=True)
  (fc2): Linear(in_features=84, out_features=50, bias=True)
  (fc3): Linear(in_features=50, out_features=2, bias=True)
)
--train>>-model-loss--- tensor(0.0081, device='cuda:0', grad_fn=<NllLossBackward0>)
---targets---- tensor([0, 1, 0, 0, 1, 1, 0, 0, 1, 0, 1, 0, 0, 0, 0, 1, 0, 0, 1, 0, 1, 1, 1, 1,
        0, 1, 1, 1, 0, 1, 0, 0, 1, 0, 1, 0, 1, 0, 1, 1, 1, 1, 1, 0, 1, 1, 0, 0,
        0, 0, 0, 0, 0, 1, 1, 0, 0, 1, 0, 0, 0, 1, 0, 1])
--train>>-model--summary---- SimpleNet(
  (fc1): Linear(in_features=12288, out_features=84, bias=True)
  (fc2): Linear(in_features=84, out_features=50, bias=True)
  (fc3): Linear(in_features=50, out_features=2, bias=True)
)
--train>>-model-loss--- tensor(0.0018, device='cuda:0', grad_fn=<NllLossBackward0>)
---targets---- tensor([0, 1, 0, 0, 0, 1, 0, 0, 0, 0, 0, 1, 1, 0, 0, 1, 0, 0, 0, 0, 0, 0, 1, 1,
        0, 0, 0, 0, 1, 0, 0, 1, 0, 0, 0, 0, 1, 0, 1, 1, 1, 1, 0, 0, 0, 0, 1, 0,
        0, 0, 1, 1, 1, 1, 0, 1, 0, 0, 0, 0, 1, 0, 1, 0])
--train>>-model--summary---- SimpleNet(
  (fc1): Linear(in_features=12288, out_features=84, bias=True)
  (fc2): Linear(in_features=84, out_features=50, bias=True)
  (fc3): Linear(in_features=50, out_features=2, bias=True)
)
--train>>-model-loss--- tensor(0.0032, device='cuda:0', grad_fn=<NllLossBackward0>)
---targets---- tensor([0, 0, 1, 1, 1, 0, 1, 1, 1, 1, 0, 0, 1, 0, 0, 0, 0, 0, 0, 1, 1, 0, 0, 0,
        1, 0, 0, 1, 1, 0, 0, 1, 1, 0, 0, 0, 1, 1, 0, 0, 1, 1, 1, 1, 1, 0, 0, 1,
        1, 1, 0, 0, 0, 0, 0, 0, 1, 0, 1, 1, 0, 1, 1, 0])
--train>>-model--summary---- SimpleNet(
  (fc1): Linear(in_features=12288, out_features=84, bias=True)
  (fc2): Linear(in_features=84, out_features=50, bias=True)
  (fc3): Linear(in_features=50, out_features=2, bias=True)
)
--train>>-model-loss--- tensor(0.0017, device='cuda:0', grad_fn=<NllLossBackward0>)
---targets---- tensor([1, 0, 0, 1, 0, 0, 0, 1, 0, 1, 0, 1, 1, 1, 1, 0, 0, 0, 0, 1, 1, 0, 0, 0,
        1, 1, 1, 1, 0, 0, 1, 1, 1, 1, 1, 1, 1, 1, 1, 0, 0, 0, 0, 1, 1, 1, 1, 0,
        1, 0, 1, 1, 0, 0, 1, 1, 0, 0, 1, 1, 0, 1, 1, 1])
--train>>-model--summary---- SimpleNet(
  (fc1): Linear(in_features=12288, out_features=84, bias=True)
  (fc2): Linear(in_features=84, out_features=50, bias=True)
  (fc3): Linear(in_features=50, out_features=2, bias=True)
)
--train>>-model-loss--- tensor(0.0206, device='cuda:0', grad_fn=<NllLossBackward0>)
---targets---- tensor([0, 0, 1, 0, 0, 1, 1, 1, 1, 0, 1, 0, 0, 1, 0, 0, 0, 0, 0, 1, 0, 0, 1, 1,
        1, 1, 1, 1, 0, 1, 0, 1, 1, 1, 0, 1, 0, 0, 1, 1, 0, 1, 0, 1, 0, 0, 0, 0,
        0, 0, 1, 1, 1, 0, 0, 0, 1, 0, 0, 0, 1, 0, 0, 1])
--train>>-model--summary---- SimpleNet(
  (fc1): Linear(in_features=12288, out_features=84, bias=True)
  (fc2): Linear(in_features=84, out_features=50, bias=True)
  (fc3): Linear(in_features=50, out_features=2, bias=True)
)
--train>>-model-loss--- tensor(0.0026, device='cuda:0', grad_fn=<NllLossBackward0>)
---targets---- tensor([1, 0, 0, 1, 0, 0, 0, 0, 0, 1, 0, 1, 0, 0, 0, 0, 1, 1, 0, 1, 1, 0, 1, 1,
        1, 1, 1, 1, 1, 1, 1, 0, 1, 0, 0, 1, 0, 0, 1, 0, 0, 1, 0, 1, 1, 1, 0, 0,
        1, 0, 0, 0, 1, 1, 0, 1, 0, 0, 1, 1, 0, 1, 0, 1])
--train>>-model--summary---- SimpleNet(
  (fc1): Linear(in_features=12288, out_features=84, bias=True)
  (fc2): Linear(in_features=84, out_features=50, bias=True)
  (fc3): Linear(in_features=50, out_features=2, bias=True)
)
--train>>-model-loss--- tensor(0.0011, device='cuda:0', grad_fn=<NllLossBackward0>)
---targets---- tensor([0, 0, 1, 0, 1, 1, 1, 0, 0, 1, 1, 0, 0, 0, 0, 1, 1, 1, 1, 1, 0, 0, 1, 1,
        1, 1, 1, 1, 0, 1, 0, 0, 0, 1, 0, 0, 0, 0, 0, 1, 0, 0, 1, 1, 0, 0, 0, 0,
        0, 1, 1, 1, 0, 0, 1, 0, 1, 1, 1, 1, 1, 1, 0, 0])
--train>>-model--summary---- SimpleNet(
  (fc1): Linear(in_features=12288, out_features=84, bias=True)
  (fc2): Linear(in_features=84, out_features=50, bias=True)
  (fc3): Linear(in_features=50, out_features=2, bias=True)
)
--train>>-model-loss--- tensor(0.0075, device='cuda:0', grad_fn=<NllLossBackward0>)
---targets---- tensor([0, 0, 1, 0, 1, 0, 0, 1, 0, 1, 1, 0, 0, 0, 1, 1, 0, 0, 1, 0, 1, 0, 0, 1,
        1, 0, 1, 1, 0, 0, 0, 0, 0, 1, 1, 0, 0, 1, 0, 1, 0, 0, 1, 1, 0, 1, 0, 1,
        0, 0, 1, 0, 1, 0, 1, 0, 1, 1, 0, 1, 0, 1, 1, 0])
--train>>-model--summary---- SimpleNet(
  (fc1): Linear(in_features=12288, out_features=84, bias=True)
  (fc2): Linear(in_features=84, out_features=50, bias=True)
  (fc3): Linear(in_features=50, out_features=2, bias=True)
)
--train>>-model-loss--- tensor(0.0056, device='cuda:0', grad_fn=<NllLossBackward0>)
---targets---- tensor([1, 0, 1, 1, 0, 1, 0, 1, 0, 0, 1, 1, 1, 1, 0, 1, 1, 0, 0, 0, 0, 1, 1, 0,
        1, 1, 0, 1, 1, 1, 0, 0, 0, 1, 1, 0, 1, 0, 1, 1, 1, 0, 0, 0, 1, 0, 1, 0,
        1, 0, 0, 0, 1, 1, 0, 0, 0, 0, 0, 0, 0, 0, 1, 1])
--train>>-model--summary---- SimpleNet(
  (fc1): Linear(in_features=12288, out_features=84, bias=True)
  (fc2): Linear(in_features=84, out_features=50, bias=True)
  (fc3): Linear(in_features=50, out_features=2, bias=True)
)
--train>>-model-loss--- tensor(0.0004, device='cuda:0', grad_fn=<NllLossBackward0>)
---targets---- tensor([0, 1, 0, 0, 0, 1, 0, 0, 0, 0, 1, 1, 0, 0, 0, 1, 1, 0, 1, 1, 0, 0, 1, 1,
        1, 0, 1, 0, 0, 1, 1, 1, 0, 0, 0, 0, 1, 1, 0, 0, 0, 0, 0, 0, 0, 0, 0, 1,
        1, 0, 1, 0, 0, 1, 1, 1, 1, 1, 1, 1, 0, 1, 0, 1])
--train>>-model--summary---- SimpleNet(
  (fc1): Linear(in_features=12288, out_features=84, bias=True)
  (fc2): Linear(in_features=84, out_features=50, bias=True)
  (fc3): Linear(in_features=50, out_features=2, bias=True)
)
--train>>-model-loss--- tensor(0.0079, device='cuda:0', grad_fn=<NllLossBackward0>)
---targets---- tensor([0, 0, 0, 0, 1, 0, 0, 1, 1, 0, 0, 0, 1, 0, 0, 1, 1, 0, 1, 1, 1, 1, 0, 0,
        1, 1, 1, 1, 1, 1, 1, 0, 0, 1, 0, 0, 0, 1, 0, 1, 1, 1, 0, 1, 0, 0, 0, 0,
        0, 1, 1, 0, 0, 1, 1, 1, 0, 0, 0, 0, 0, 1, 0, 0])
--train>>-model--summary---- SimpleNet(
  (fc1): Linear(in_features=12288, out_features=84, bias=True)
  (fc2): Linear(in_features=84, out_features=50, bias=True)
  (fc3): Linear(in_features=50, out_features=2, bias=True)
)
--train>>-model-loss--- tensor(0.0032, device='cuda:0', grad_fn=<NllLossBackward0>)
---targets---- tensor([1, 1, 1, 1, 1, 1, 1, 0, 1, 1, 1, 1, 1, 0, 1, 1, 1, 1, 0, 1, 0, 0, 1, 0,
        0, 0, 0, 0, 1, 0, 1, 0, 0, 0, 1, 0, 1, 0, 0, 0, 0, 0, 1, 1, 1, 1, 1, 0,
        0, 0, 0, 1, 0, 0, 1, 0, 0, 1, 0, 0, 0, 0, 0, 1])
--train>>-model--summary---- SimpleNet(
  (fc1): Linear(in_features=12288, out_features=84, bias=True)
  (fc2): Linear(in_features=84, out_features=50, bias=True)
  (fc3): Linear(in_features=50, out_features=2, bias=True)
)
--train>>-model-loss--- tensor(0.0270, device='cuda:0', grad_fn=<NllLossBackward0>)
---targets---- tensor([0, 0, 0, 1, 0, 0, 1, 0, 0, 1, 1, 1, 1, 1, 1, 1, 1, 1, 0, 0, 1, 0, 1, 1,
        0, 0, 1, 1, 0, 0, 1, 1, 0, 0, 1, 0, 1, 1, 1, 0, 1, 0, 1, 0, 1, 0, 1, 0,
        1, 0, 0, 1, 1, 1, 0, 1, 0, 1, 0, 1, 0, 1, 0, 1])
--train>>-model--summary---- SimpleNet(
  (fc1): Linear(in_features=12288, out_features=84, bias=True)
  (fc2): Linear(in_features=84, out_features=50, bias=True)
  (fc3): Linear(in_features=50, out_features=2, bias=True)
)
--train>>-model-loss--- tensor(0.0028, device='cuda:0', grad_fn=<NllLossBackward0>)
---targets---- tensor([0, 1, 0, 1, 1, 1, 0, 0, 0, 1, 0, 0, 0, 0, 0, 0, 0, 0, 0, 0, 0, 0, 0, 1,
        0, 0, 0, 1, 0, 0, 0, 0, 0, 1, 0, 0, 1, 0, 0, 0])
--train>>-model--summary---- SimpleNet(
  (fc1): Linear(in_features=12288, out_features=84, bias=True)
  (fc2): Linear(in_features=84, out_features=50, bias=True)
  (fc3): Linear(in_features=50, out_features=2, bias=True)
)
--train>>-model-loss--- tensor(0.0116, device='cuda:0', grad_fn=<NllLossBackward0>)
--------targets.shape------ torch.Size([64])
--------inputs.size(0)------ 64
--train>>-model--summary-2--- SimpleNet(
  (fc1): Linear(in_features=12288, out_features=84, bias=True)
  (fc2): Linear(in_features=84, out_features=50, bias=True)
  (fc3): Linear(in_features=50, out_features=2, bias=True)
)
--------output.size(0)------ 64
--------targets.shape------ torch.Size([64])
--------inputs.size(0)------ 64
--train>>-model--summary-2--- SimpleNet(
  (fc1): Linear(in_features=12288, out_features=84, bias=True)
  (fc2): Linear(in_features=84, out_features=50, bias=True)
  (fc3): Linear(in_features=50, out_features=2, bias=True)
)
--------output.size(0)------ 64
--------targets.shape------ torch.Size([64])
--------inputs.size(0)------ 64
--train>>-model--summary-2--- SimpleNet(
  (fc1): Linear(in_features=12288, out_features=84, bias=True)
  (fc2): Linear(in_features=84, out_features=50, bias=True)
  (fc3): Linear(in_features=50, out_features=2, bias=True)
)
--------output.size(0)------ 64
--------targets.shape------ torch.Size([64])
--------inputs.size(0)------ 64
--train>>-model--summary-2--- SimpleNet(
  (fc1): Linear(in_features=12288, out_features=84, bias=True)
  (fc2): Linear(in_features=84, out_features=50, bias=True)
  (fc3): Linear(in_features=50, out_features=2, bias=True)
)
--------output.size(0)------ 64
--------targets.shape------ torch.Size([64])
--------inputs.size(0)------ 64
--train>>-model--summary-2--- SimpleNet(
  (fc1): Linear(in_features=12288, out_features=84, bias=True)
  (fc2): Linear(in_features=84, out_features=50, bias=True)
  (fc3): Linear(in_features=50, out_features=2, bias=True)
)
--------output.size(0)------ 64
--------targets.shape------ torch.Size([64])
--------inputs.size(0)------ 64
--train>>-model--summary-2--- SimpleNet(
  (fc1): Linear(in_features=12288, out_features=84, bias=True)
  (fc2): Linear(in_features=84, out_features=50, bias=True)
  (fc3): Linear(in_features=50, out_features=2, bias=True)
)
--------output.size(0)------ 64
--------targets.shape------ torch.Size([64])
--------inputs.size(0)------ 64
--train>>-model--summary-2--- SimpleNet(
  (fc1): Linear(in_features=12288, out_features=84, bias=True)
  (fc2): Linear(in_features=84, out_features=50, bias=True)
  (fc3): Linear(in_features=50, out_features=2, bias=True)
)
--------output.size(0)------ 64
--------targets.shape------ torch.Size([64])
--------inputs.size(0)------ 64
--train>>-model--summary-2--- SimpleNet(
  (fc1): Linear(in_features=12288, out_features=84, bias=True)
  (fc2): Linear(in_features=84, out_features=50, bias=True)
  (fc3): Linear(in_features=50, out_features=2, bias=True)
)
--------output.size(0)------ 64
--------targets.shape------ torch.Size([64])
--------inputs.size(0)------ 64
--train>>-model--summary-2--- SimpleNet(
  (fc1): Linear(in_features=12288, out_features=84, bias=True)
  (fc2): Linear(in_features=84, out_features=50, bias=True)
  (fc3): Linear(in_features=50, out_features=2, bias=True)
)
--------output.size(0)------ 64
--------targets.shape------ torch.Size([64])
--------inputs.size(0)------ 64
--train>>-model--summary-2--- SimpleNet(
  (fc1): Linear(in_features=12288, out_features=84, bias=True)
  (fc2): Linear(in_features=84, out_features=50, bias=True)
  (fc3): Linear(in_features=50, out_features=2, bias=True)
)
--------output.size(0)------ 64
--------targets.shape------ torch.Size([64])
--------inputs.size(0)------ 64
--train>>-model--summary-2--- SimpleNet(
  (fc1): Linear(in_features=12288, out_features=84, bias=True)
  (fc2): Linear(in_features=84, out_features=50, bias=True)
  (fc3): Linear(in_features=50, out_features=2, bias=True)
)
--------output.size(0)------ 64
--------targets.shape------ torch.Size([64])
--------inputs.size(0)------ 64
--train>>-model--summary-2--- SimpleNet(
  (fc1): Linear(in_features=12288, out_features=84, bias=True)
  (fc2): Linear(in_features=84, out_features=50, bias=True)
  (fc3): Linear(in_features=50, out_features=2, bias=True)
)
--------output.size(0)------ 64
--------targets.shape------ torch.Size([64])
--------inputs.size(0)------ 64
--train>>-model--summary-2--- SimpleNet(
  (fc1): Linear(in_features=12288, out_features=84, bias=True)
  (fc2): Linear(in_features=84, out_features=50, bias=True)
  (fc3): Linear(in_features=50, out_features=2, bias=True)
)
--------output.size(0)------ 64
--------targets.shape------ torch.Size([64])
--------inputs.size(0)------ 64
--train>>-model--summary-2--- SimpleNet(
  (fc1): Linear(in_features=12288, out_features=84, bias=True)
  (fc2): Linear(in_features=84, out_features=50, bias=True)
  (fc3): Linear(in_features=50, out_features=2, bias=True)
)
--------output.size(0)------ 64
--------targets.shape------ torch.Size([40])
--------inputs.size(0)------ 40
--train>>-model--summary-2--- SimpleNet(
  (fc1): Linear(in_features=12288, out_features=84, bias=True)
  (fc2): Linear(in_features=84, out_features=50, bias=True)
  (fc3): Linear(in_features=50, out_features=2, bias=True)
)
--------output.size(0)------ 40
-TRAIN----torch.cuda.memory_allocated---> 0.02 GB
Epoch:8,TRAIN_Loss:0.01,VAL_Loss:0.00, Accuracy = 1.00
---targets---- tensor([1, 0, 0, 1, 0, 1, 1, 0, 0, 0, 0, 1, 1, 1, 1, 0, 1, 0, 1, 0, 1, 1, 0, 1,
        1, 1, 0, 0, 0, 1, 0, 1, 0, 1, 0, 0, 0, 0, 1, 0, 1, 1, 0, 1, 0, 1, 0, 0,
        1, 0, 1, 1, 1, 0, 0, 1, 0, 0, 0, 1, 1, 1, 0, 1])
--train>>-model--summary---- SimpleNet(
  (fc1): Linear(in_features=12288, out_features=84, bias=True)
  (fc2): Linear(in_features=84, out_features=50, bias=True)
  (fc3): Linear(in_features=50, out_features=2, bias=True)
)
--train>>-model-loss--- tensor(0.0011, device='cuda:0', grad_fn=<NllLossBackward0>)
---targets---- tensor([1, 1, 0, 1, 0, 1, 0, 1, 0, 1, 1, 0, 1, 0, 0, 1, 1, 1, 0, 0, 1, 0, 1, 0,
        0, 1, 0, 0, 1, 1, 0, 1, 0, 0, 0, 1, 1, 0, 1, 0, 1, 0, 0, 1, 0, 1, 0, 1,
        0, 0, 0, 1, 1, 0, 1, 1, 0, 1, 0, 0, 0, 1, 1, 0])
--train>>-model--summary---- SimpleNet(
  (fc1): Linear(in_features=12288, out_features=84, bias=True)
  (fc2): Linear(in_features=84, out_features=50, bias=True)
  (fc3): Linear(in_features=50, out_features=2, bias=True)
)
--train>>-model-loss--- tensor(0.0073, device='cuda:0', grad_fn=<NllLossBackward0>)
---targets---- tensor([1, 0, 1, 0, 0, 0, 0, 0, 1, 1, 0, 0, 0, 1, 0, 0, 1, 1, 1, 1, 0, 1, 0, 1,
        1, 0, 0, 1, 1, 0, 1, 0, 0, 0, 1, 0, 1, 1, 1, 0, 1, 0, 0, 1, 0, 1, 0, 0,
        0, 0, 1, 0, 0, 1, 1, 1, 0, 0, 0, 0, 0, 1, 1, 0])
--train>>-model--summary---- SimpleNet(
  (fc1): Linear(in_features=12288, out_features=84, bias=True)
  (fc2): Linear(in_features=84, out_features=50, bias=True)
  (fc3): Linear(in_features=50, out_features=2, bias=True)
)
--train>>-model-loss--- tensor(0.0098, device='cuda:0', grad_fn=<NllLossBackward0>)
---targets---- tensor([0, 0, 0, 0, 0, 0, 1, 0, 1, 0, 0, 0, 0, 1, 1, 1, 0, 1, 0, 0, 1, 1, 0, 1,
        1, 1, 1, 1, 1, 0, 1, 1, 0, 1, 1, 0, 0, 0, 1, 0, 1, 0, 0, 1, 1, 0, 0, 0,
        1, 0, 1, 1, 0, 0, 0, 0, 0, 1, 0, 0, 0, 0, 0, 0])
--train>>-model--summary---- SimpleNet(
  (fc1): Linear(in_features=12288, out_features=84, bias=True)
  (fc2): Linear(in_features=84, out_features=50, bias=True)
  (fc3): Linear(in_features=50, out_features=2, bias=True)
)
--train>>-model-loss--- tensor(0.0044, device='cuda:0', grad_fn=<NllLossBackward0>)
---targets---- tensor([1, 0, 1, 0, 0, 0, 1, 1, 0, 1, 1, 1, 0, 0, 0, 1, 0, 1, 0, 1, 0, 1, 0, 1,
        1, 0, 0, 1, 1, 0, 1, 1, 0, 1, 0, 1, 0, 0, 0, 1, 0, 0, 0, 1, 1, 1, 0, 0,
        1, 1, 1, 1, 0, 0, 1, 0, 0, 1, 0, 0, 0, 0, 1, 0])
--train>>-model--summary---- SimpleNet(
  (fc1): Linear(in_features=12288, out_features=84, bias=True)
  (fc2): Linear(in_features=84, out_features=50, bias=True)
  (fc3): Linear(in_features=50, out_features=2, bias=True)
)
--train>>-model-loss--- tensor(0.0035, device='cuda:0', grad_fn=<NllLossBackward0>)
---targets---- tensor([1, 0, 0, 0, 1, 0, 1, 1, 0, 0, 0, 0, 1, 0, 0, 0, 1, 1, 0, 1, 0, 1, 1, 0,
        1, 0, 1, 0, 0, 0, 0, 0, 1, 0, 1, 0, 1, 0, 1, 0, 0, 0, 0, 0, 0, 0, 0, 1,
        1, 0, 1, 0, 0, 1, 1, 0, 0, 0, 1, 0, 1, 1, 1, 0])
--train>>-model--summary---- SimpleNet(
  (fc1): Linear(in_features=12288, out_features=84, bias=True)
  (fc2): Linear(in_features=84, out_features=50, bias=True)
  (fc3): Linear(in_features=50, out_features=2, bias=True)
)
--train>>-model-loss--- tensor(0.0571, device='cuda:0', grad_fn=<NllLossBackward0>)
---targets---- tensor([1, 0, 0, 1, 1, 0, 1, 1, 1, 1, 1, 1, 0, 1, 0, 0, 0, 0, 0, 1, 1, 1, 1, 0,
        1, 0, 0, 0, 0, 0, 1, 0, 0, 0, 1, 0, 0, 1, 0, 0, 0, 0, 0, 1, 0, 0, 1, 1,
        1, 0, 0, 1, 0, 0, 0, 1, 1, 0, 0, 1, 1, 0, 0, 0])
--train>>-model--summary---- SimpleNet(
  (fc1): Linear(in_features=12288, out_features=84, bias=True)
  (fc2): Linear(in_features=84, out_features=50, bias=True)
  (fc3): Linear(in_features=50, out_features=2, bias=True)
)
--train>>-model-loss--- tensor(9.2663e-05, device='cuda:0', grad_fn=<NllLossBackward0>)
---targets---- tensor([1, 0, 1, 0, 1, 1, 1, 0, 1, 1, 1, 0, 0, 1, 1, 0, 0, 0, 0, 0, 1, 0, 1, 1,
        0, 0, 0, 0, 1, 1, 0, 1, 0, 1, 0, 1, 1, 1, 0, 0, 0, 1, 1, 1, 0, 0, 1, 1,
        1, 0, 0, 0, 1, 0, 1, 1, 0, 0, 0, 0, 1, 1, 1, 0])
--train>>-model--summary---- SimpleNet(
  (fc1): Linear(in_features=12288, out_features=84, bias=True)
  (fc2): Linear(in_features=84, out_features=50, bias=True)
  (fc3): Linear(in_features=50, out_features=2, bias=True)
)
--train>>-model-loss--- tensor(0.0014, device='cuda:0', grad_fn=<NllLossBackward0>)
---targets---- tensor([0, 1, 0, 0, 0, 0, 0, 1, 0, 0, 0, 1, 0, 1, 1, 1, 1, 1, 1, 0, 1, 1, 1, 0,
        1, 0, 1, 1, 0, 1, 1, 1, 1, 0, 0, 1, 0, 1, 0, 0, 0, 1, 1, 1, 1, 0, 1, 1,
        0, 1, 1, 1, 0, 0, 0, 1, 0, 0, 1, 0, 1, 1, 0, 0])
--train>>-model--summary---- SimpleNet(
  (fc1): Linear(in_features=12288, out_features=84, bias=True)
  (fc2): Linear(in_features=84, out_features=50, bias=True)
  (fc3): Linear(in_features=50, out_features=2, bias=True)
)
--train>>-model-loss--- tensor(0.0014, device='cuda:0', grad_fn=<NllLossBackward0>)
---targets---- tensor([1, 1, 1, 1, 0, 1, 0, 1, 1, 0, 0, 0, 0, 0, 0, 0, 0, 1, 0, 0, 1, 0, 0, 1,
        1, 0, 1, 0, 1, 1, 0, 1, 0, 0, 0, 1, 0, 0, 0, 0, 1, 1, 1, 0, 1, 1, 0, 1,
        1, 0, 0, 1, 0, 1, 0, 1, 1, 0, 0, 0, 1, 1, 0, 1])
--train>>-model--summary---- SimpleNet(
  (fc1): Linear(in_features=12288, out_features=84, bias=True)
  (fc2): Linear(in_features=84, out_features=50, bias=True)
  (fc3): Linear(in_features=50, out_features=2, bias=True)
)
--train>>-model-loss--- tensor(0.0035, device='cuda:0', grad_fn=<NllLossBackward0>)
---targets---- tensor([0, 0, 1, 0, 1, 1, 0, 1, 1, 0, 1, 1, 0, 0, 0, 1, 0, 1, 0, 1, 0, 0, 1, 0,
        1, 1, 1, 1, 0, 1, 0, 0, 0, 0, 0, 1, 0, 0, 1, 1, 1, 0, 1, 0, 0, 0, 0, 0,
        0, 1, 0, 1, 0, 0, 1, 0, 0, 1, 1, 0, 0, 0, 1, 1])
--train>>-model--summary---- SimpleNet(
  (fc1): Linear(in_features=12288, out_features=84, bias=True)
  (fc2): Linear(in_features=84, out_features=50, bias=True)
  (fc3): Linear(in_features=50, out_features=2, bias=True)
)
--train>>-model-loss--- tensor(0.0095, device='cuda:0', grad_fn=<NllLossBackward0>)
---targets---- tensor([1, 1, 1, 1, 0, 0, 1, 0, 1, 1, 1, 1, 1, 0, 1, 0, 0, 0, 1, 0, 0, 0, 0, 1,
        0, 1, 0, 0, 0, 0, 0, 0, 0, 0, 0, 1, 0, 0, 1, 0, 1, 1, 0, 1, 1, 0, 0, 0,
        1, 0, 1, 0, 0, 1, 0, 0, 1, 0, 0, 1, 0, 0, 1, 0])
--train>>-model--summary---- SimpleNet(
  (fc1): Linear(in_features=12288, out_features=84, bias=True)
  (fc2): Linear(in_features=84, out_features=50, bias=True)
  (fc3): Linear(in_features=50, out_features=2, bias=True)
)
--train>>-model-loss--- tensor(0.0040, device='cuda:0', grad_fn=<NllLossBackward0>)
---targets---- tensor([1, 1, 0, 0, 0, 0, 1, 0, 1, 0, 0, 1, 0, 1, 0, 0, 1, 1, 0, 0, 0, 1, 0, 0,
        1, 1, 0, 0, 1, 0, 0, 1, 1, 1, 1, 0, 0, 1, 0, 0, 1, 1, 1, 1, 1, 0, 0, 0,
        1, 1, 1, 0, 0, 0, 1, 0, 1, 1, 0, 1, 0, 1, 0, 0])
--train>>-model--summary---- SimpleNet(
  (fc1): Linear(in_features=12288, out_features=84, bias=True)
  (fc2): Linear(in_features=84, out_features=50, bias=True)
  (fc3): Linear(in_features=50, out_features=2, bias=True)
)
--train>>-model-loss--- tensor(0.0106, device='cuda:0', grad_fn=<NllLossBackward0>)
---targets---- tensor([1, 0, 0, 1, 1, 0, 0, 0, 1, 0, 0, 0, 1, 0, 1, 0, 0, 1, 1, 1, 0, 0, 0, 1,
        0, 0, 0, 0, 1, 0, 0, 1, 0, 1, 1, 1, 1, 0, 1, 1, 1, 1, 1, 1, 0, 1, 0, 1,
        1, 1, 0, 0, 1, 0, 0, 0, 1, 0, 1, 0, 1, 1, 1, 1])
--train>>-model--summary---- SimpleNet(
  (fc1): Linear(in_features=12288, out_features=84, bias=True)
  (fc2): Linear(in_features=84, out_features=50, bias=True)
  (fc3): Linear(in_features=50, out_features=2, bias=True)
)
--train>>-model-loss--- tensor(0.0049, device='cuda:0', grad_fn=<NllLossBackward0>)
---targets---- tensor([1, 1, 0, 0, 1, 1, 1, 1, 1, 1, 1, 0, 1, 0, 0, 0, 0, 1, 1, 0, 1, 1, 0, 1,
        0, 0, 0, 1, 1, 1, 0, 0, 0, 1, 0, 1, 0, 1, 1, 1])
--train>>-model--summary---- SimpleNet(
  (fc1): Linear(in_features=12288, out_features=84, bias=True)
  (fc2): Linear(in_features=84, out_features=50, bias=True)
  (fc3): Linear(in_features=50, out_features=2, bias=True)
)
--train>>-model-loss--- tensor(0.0030, device='cuda:0', grad_fn=<NllLossBackward0>)
--------targets.shape------ torch.Size([64])
--------inputs.size(0)------ 64
--train>>-model--summary-2--- SimpleNet(
  (fc1): Linear(in_features=12288, out_features=84, bias=True)
  (fc2): Linear(in_features=84, out_features=50, bias=True)
  (fc3): Linear(in_features=50, out_features=2, bias=True)
)
--------output.size(0)------ 64
--------targets.shape------ torch.Size([64])
--------inputs.size(0)------ 64
--train>>-model--summary-2--- SimpleNet(
  (fc1): Linear(in_features=12288, out_features=84, bias=True)
  (fc2): Linear(in_features=84, out_features=50, bias=True)
  (fc3): Linear(in_features=50, out_features=2, bias=True)
)
--------output.size(0)------ 64
--------targets.shape------ torch.Size([64])
--------inputs.size(0)------ 64
--train>>-model--summary-2--- SimpleNet(
  (fc1): Linear(in_features=12288, out_features=84, bias=True)
  (fc2): Linear(in_features=84, out_features=50, bias=True)
  (fc3): Linear(in_features=50, out_features=2, bias=True)
)
--------output.size(0)------ 64
--------targets.shape------ torch.Size([64])
--------inputs.size(0)------ 64
--train>>-model--summary-2--- SimpleNet(
  (fc1): Linear(in_features=12288, out_features=84, bias=True)
  (fc2): Linear(in_features=84, out_features=50, bias=True)
  (fc3): Linear(in_features=50, out_features=2, bias=True)
)
--------output.size(0)------ 64
--------targets.shape------ torch.Size([64])
--------inputs.size(0)------ 64
--train>>-model--summary-2--- SimpleNet(
  (fc1): Linear(in_features=12288, out_features=84, bias=True)
  (fc2): Linear(in_features=84, out_features=50, bias=True)
  (fc3): Linear(in_features=50, out_features=2, bias=True)
)
--------output.size(0)------ 64
--------targets.shape------ torch.Size([64])
--------inputs.size(0)------ 64
--train>>-model--summary-2--- SimpleNet(
  (fc1): Linear(in_features=12288, out_features=84, bias=True)
  (fc2): Linear(in_features=84, out_features=50, bias=True)
  (fc3): Linear(in_features=50, out_features=2, bias=True)
)
--------output.size(0)------ 64
--------targets.shape------ torch.Size([64])
--------inputs.size(0)------ 64
--train>>-model--summary-2--- SimpleNet(
  (fc1): Linear(in_features=12288, out_features=84, bias=True)
  (fc2): Linear(in_features=84, out_features=50, bias=True)
  (fc3): Linear(in_features=50, out_features=2, bias=True)
)
--------output.size(0)------ 64
--------targets.shape------ torch.Size([64])
--------inputs.size(0)------ 64
--train>>-model--summary-2--- SimpleNet(
  (fc1): Linear(in_features=12288, out_features=84, bias=True)
  (fc2): Linear(in_features=84, out_features=50, bias=True)
  (fc3): Linear(in_features=50, out_features=2, bias=True)
)
--------output.size(0)------ 64
--------targets.shape------ torch.Size([64])
--------inputs.size(0)------ 64
--train>>-model--summary-2--- SimpleNet(
  (fc1): Linear(in_features=12288, out_features=84, bias=True)
  (fc2): Linear(in_features=84, out_features=50, bias=True)
  (fc3): Linear(in_features=50, out_features=2, bias=True)
)
--------output.size(0)------ 64
--------targets.shape------ torch.Size([64])
--------inputs.size(0)------ 64
--train>>-model--summary-2--- SimpleNet(
  (fc1): Linear(in_features=12288, out_features=84, bias=True)
  (fc2): Linear(in_features=84, out_features=50, bias=True)
  (fc3): Linear(in_features=50, out_features=2, bias=True)
)
--------output.size(0)------ 64
--------targets.shape------ torch.Size([64])
--------inputs.size(0)------ 64
--train>>-model--summary-2--- SimpleNet(
  (fc1): Linear(in_features=12288, out_features=84, bias=True)
  (fc2): Linear(in_features=84, out_features=50, bias=True)
  (fc3): Linear(in_features=50, out_features=2, bias=True)
)
--------output.size(0)------ 64
--------targets.shape------ torch.Size([64])
--------inputs.size(0)------ 64
--train>>-model--summary-2--- SimpleNet(
  (fc1): Linear(in_features=12288, out_features=84, bias=True)
  (fc2): Linear(in_features=84, out_features=50, bias=True)
  (fc3): Linear(in_features=50, out_features=2, bias=True)
)
--------output.size(0)------ 64
--------targets.shape------ torch.Size([64])
--------inputs.size(0)------ 64
--train>>-model--summary-2--- SimpleNet(
  (fc1): Linear(in_features=12288, out_features=84, bias=True)
  (fc2): Linear(in_features=84, out_features=50, bias=True)
  (fc3): Linear(in_features=50, out_features=2, bias=True)
)
--------output.size(0)------ 64
--------targets.shape------ torch.Size([64])
--------inputs.size(0)------ 64
--train>>-model--summary-2--- SimpleNet(
  (fc1): Linear(in_features=12288, out_features=84, bias=True)
  (fc2): Linear(in_features=84, out_features=50, bias=True)
  (fc3): Linear(in_features=50, out_features=2, bias=True)
)
--------output.size(0)------ 64
--------targets.shape------ torch.Size([40])
--------inputs.size(0)------ 40
--train>>-model--summary-2--- SimpleNet(
  (fc1): Linear(in_features=12288, out_features=84, bias=True)
  (fc2): Linear(in_features=84, out_features=50, bias=True)
  (fc3): Linear(in_features=50, out_features=2, bias=True)
)
--------output.size(0)------ 40
-TRAIN----torch.cuda.memory_allocated---> 0.02 GB
Epoch:9,TRAIN_Loss:0.01,VAL_Loss:0.00, Accuracy = 1.00
---targets---- tensor([0, 1, 1, 1, 1, 0, 1, 1, 1, 0, 0, 1, 0, 0, 0, 0, 0, 0, 0, 1, 1, 1, 0, 0,
        1, 1, 0, 1, 0, 1, 1, 1, 0, 1, 0, 0, 0, 0, 1, 1, 1, 0, 1, 1, 0, 1, 0, 0,
        0, 1, 1, 1, 1, 1, 0, 1, 1, 0, 1, 1, 1, 0, 0, 1])
--train>>-model--summary---- SimpleNet(
  (fc1): Linear(in_features=12288, out_features=84, bias=True)
  (fc2): Linear(in_features=84, out_features=50, bias=True)
  (fc3): Linear(in_features=50, out_features=2, bias=True)
)
--train>>-model-loss--- tensor(0.0016, device='cuda:0', grad_fn=<NllLossBackward0>)
---targets---- tensor([1, 1, 0, 0, 0, 0, 0, 0, 1, 0, 1, 0, 0, 1, 1, 0, 0, 0, 1, 0, 0, 0, 1, 0,
        1, 0, 1, 0, 1, 1, 0, 0, 1, 0, 0, 0, 0, 1, 1, 0, 0, 1, 1, 0, 1, 0, 0, 1,
        0, 1, 1, 0, 1, 0, 1, 1, 0, 1, 0, 1, 1, 0, 0, 1])
--train>>-model--summary---- SimpleNet(
  (fc1): Linear(in_features=12288, out_features=84, bias=True)
  (fc2): Linear(in_features=84, out_features=50, bias=True)
  (fc3): Linear(in_features=50, out_features=2, bias=True)
)
--train>>-model-loss--- tensor(0.0141, device='cuda:0', grad_fn=<NllLossBackward0>)
---targets---- tensor([0, 1, 0, 0, 0, 1, 0, 0, 0, 0, 1, 0, 0, 0, 1, 1, 1, 1, 1, 1, 0, 0, 1, 0,
        1, 1, 0, 0, 0, 0, 1, 1, 1, 1, 0, 1, 1, 1, 0, 1, 1, 1, 1, 0, 0, 1, 1, 1,
        0, 0, 0, 0, 1, 0, 0, 0, 1, 1, 1, 1, 1, 0, 0, 0])
--train>>-model--summary---- SimpleNet(
  (fc1): Linear(in_features=12288, out_features=84, bias=True)
  (fc2): Linear(in_features=84, out_features=50, bias=True)
  (fc3): Linear(in_features=50, out_features=2, bias=True)
)
--train>>-model-loss--- tensor(0.0004, device='cuda:0', grad_fn=<NllLossBackward0>)
---targets---- tensor([1, 0, 0, 0, 1, 1, 1, 0, 1, 0, 1, 0, 0, 0, 1, 0, 1, 0, 0, 1, 0, 1, 1, 0,
        0, 0, 0, 0, 1, 0, 1, 1, 0, 0, 0, 0, 0, 1, 1, 1, 0, 0, 1, 0, 0, 0, 0, 1,
        0, 1, 0, 1, 0, 0, 1, 1, 1, 0, 0, 1, 0, 0, 0, 1])
--train>>-model--summary---- SimpleNet(
  (fc1): Linear(in_features=12288, out_features=84, bias=True)
  (fc2): Linear(in_features=84, out_features=50, bias=True)
  (fc3): Linear(in_features=50, out_features=2, bias=True)
)
--train>>-model-loss--- tensor(0.0055, device='cuda:0', grad_fn=<NllLossBackward0>)
---targets---- tensor([1, 0, 0, 1, 0, 0, 1, 1, 0, 0, 1, 0, 0, 0, 1, 1, 0, 0, 1, 0, 1, 1, 0, 1,
        0, 0, 0, 0, 0, 0, 0, 0, 0, 0, 0, 1, 0, 0, 0, 0, 0, 1, 1, 1, 1, 1, 0, 0,
        0, 0, 0, 1, 1, 0, 0, 0, 0, 1, 1, 0, 0, 0, 1, 1])
--train>>-model--summary---- SimpleNet(
  (fc1): Linear(in_features=12288, out_features=84, bias=True)
  (fc2): Linear(in_features=84, out_features=50, bias=True)
  (fc3): Linear(in_features=50, out_features=2, bias=True)
)
--train>>-model-loss--- tensor(0.0041, device='cuda:0', grad_fn=<NllLossBackward0>)
---targets---- tensor([1, 0, 1, 0, 1, 1, 1, 0, 1, 1, 1, 0, 0, 1, 1, 1, 1, 1, 1, 0, 0, 0, 0, 1,
        0, 1, 1, 1, 0, 0, 0, 1, 1, 1, 0, 0, 1, 1, 1, 0, 0, 1, 1, 0, 0, 0, 0, 0,
        1, 0, 1, 0, 1, 0, 1, 0, 0, 0, 1, 1, 1, 1, 1, 1])
--train>>-model--summary---- SimpleNet(
  (fc1): Linear(in_features=12288, out_features=84, bias=True)
  (fc2): Linear(in_features=84, out_features=50, bias=True)
  (fc3): Linear(in_features=50, out_features=2, bias=True)
)
--train>>-model-loss--- tensor(0.0009, device='cuda:0', grad_fn=<NllLossBackward0>)
---targets---- tensor([0, 0, 0, 0, 1, 1, 0, 1, 0, 1, 1, 1, 1, 1, 1, 0, 1, 0, 1, 0, 1, 1, 0, 1,
        1, 1, 0, 1, 0, 1, 0, 1, 1, 0, 0, 1, 0, 0, 1, 1, 1, 1, 0, 0, 1, 1, 0, 0,
        1, 0, 0, 0, 1, 1, 1, 0, 1, 0, 0, 0, 0, 1, 1, 1])
--train>>-model--summary---- SimpleNet(
  (fc1): Linear(in_features=12288, out_features=84, bias=True)
  (fc2): Linear(in_features=84, out_features=50, bias=True)
  (fc3): Linear(in_features=50, out_features=2, bias=True)
)
--train>>-model-loss--- tensor(0.0005, device='cuda:0', grad_fn=<NllLossBackward0>)
---targets---- tensor([1, 1, 0, 0, 0, 0, 1, 1, 1, 0, 0, 0, 1, 0, 1, 1, 1, 0, 0, 1, 0, 0, 0, 0,
        1, 0, 1, 1, 0, 1, 1, 0, 0, 1, 0, 0, 1, 1, 1, 1, 1, 0, 1, 0, 1, 0, 0, 1,
        0, 0, 0, 1, 1, 0, 0, 0, 1, 1, 0, 1, 0, 1, 1, 0])
--train>>-model--summary---- SimpleNet(
  (fc1): Linear(in_features=12288, out_features=84, bias=True)
  (fc2): Linear(in_features=84, out_features=50, bias=True)
  (fc3): Linear(in_features=50, out_features=2, bias=True)
)
--train>>-model-loss--- tensor(0.0023, device='cuda:0', grad_fn=<NllLossBackward0>)
---targets---- tensor([1, 1, 1, 0, 1, 0, 1, 0, 0, 0, 0, 1, 1, 0, 1, 1, 0, 1, 1, 1, 0, 0, 0, 0,
        0, 0, 0, 1, 1, 1, 0, 1, 0, 0, 0, 0, 0, 0, 0, 0, 1, 1, 0, 0, 1, 1, 0, 0,
        0, 0, 0, 0, 0, 1, 1, 0, 0, 1, 0, 1, 1, 1, 1, 0])
--train>>-model--summary---- SimpleNet(
  (fc1): Linear(in_features=12288, out_features=84, bias=True)
  (fc2): Linear(in_features=84, out_features=50, bias=True)
  (fc3): Linear(in_features=50, out_features=2, bias=True)
)
--train>>-model-loss--- tensor(0.0012, device='cuda:0', grad_fn=<NllLossBackward0>)
---targets---- tensor([0, 1, 1, 1, 0, 0, 1, 1, 1, 1, 0, 0, 0, 0, 1, 0, 0, 0, 0, 1, 1, 1, 1, 0,
        0, 0, 0, 1, 1, 0, 0, 0, 0, 0, 1, 1, 1, 0, 0, 0, 1, 0, 1, 0, 1, 1, 1, 0,
        0, 0, 0, 0, 1, 0, 0, 0, 0, 1, 1, 0, 1, 0, 1, 0])
--train>>-model--summary---- SimpleNet(
  (fc1): Linear(in_features=12288, out_features=84, bias=True)
  (fc2): Linear(in_features=84, out_features=50, bias=True)
  (fc3): Linear(in_features=50, out_features=2, bias=True)
)
--train>>-model-loss--- tensor(0.0015, device='cuda:0', grad_fn=<NllLossBackward0>)
---targets---- tensor([0, 1, 1, 0, 1, 0, 1, 1, 0, 1, 0, 0, 0, 1, 1, 1, 1, 1, 0, 1, 0, 0, 0, 0,
        1, 0, 1, 1, 1, 1, 1, 0, 1, 0, 0, 0, 1, 0, 1, 1, 0, 0, 1, 0, 0, 0, 0, 0,
        0, 0, 0, 0, 1, 1, 0, 1, 0, 1, 0, 0, 1, 1, 1, 0])
--train>>-model--summary---- SimpleNet(
  (fc1): Linear(in_features=12288, out_features=84, bias=True)
  (fc2): Linear(in_features=84, out_features=50, bias=True)
  (fc3): Linear(in_features=50, out_features=2, bias=True)
)
--train>>-model-loss--- tensor(0.0002, device='cuda:0', grad_fn=<NllLossBackward0>)
---targets---- tensor([0, 0, 1, 1, 1, 0, 0, 1, 1, 1, 0, 0, 0, 1, 1, 1, 1, 1, 0, 0, 0, 1, 1, 0,
        0, 0, 1, 0, 0, 1, 0, 0, 0, 1, 0, 1, 0, 0, 0, 0, 0, 0, 0, 0, 0, 1, 1, 1,
        1, 0, 0, 0, 0, 0, 1, 1, 1, 1, 0, 1, 1, 1, 0, 1])
--train>>-model--summary---- SimpleNet(
  (fc1): Linear(in_features=12288, out_features=84, bias=True)
  (fc2): Linear(in_features=84, out_features=50, bias=True)
  (fc3): Linear(in_features=50, out_features=2, bias=True)
)
--train>>-model-loss--- tensor(0.0020, device='cuda:0', grad_fn=<NllLossBackward0>)
---targets---- tensor([1, 0, 0, 0, 0, 1, 1, 1, 0, 0, 1, 0, 0, 0, 1, 1, 0, 1, 0, 1, 1, 0, 0, 1,
        1, 0, 0, 1, 0, 0, 1, 1, 1, 0, 0, 0, 0, 0, 0, 0, 0, 1, 1, 0, 0, 0, 0, 0,
        1, 1, 1, 1, 0, 1, 1, 0, 0, 0, 1, 0, 0, 0, 0, 1])
--train>>-model--summary---- SimpleNet(
  (fc1): Linear(in_features=12288, out_features=84, bias=True)
  (fc2): Linear(in_features=84, out_features=50, bias=True)
  (fc3): Linear(in_features=50, out_features=2, bias=True)
)
--train>>-model-loss--- tensor(0.0013, device='cuda:0', grad_fn=<NllLossBackward0>)
---targets---- tensor([1, 0, 0, 0, 0, 1, 1, 0, 1, 0, 1, 1, 1, 0, 1, 0, 1, 1, 0, 1, 1, 1, 1, 0,
        0, 0, 1, 0, 1, 0, 0, 0, 0, 0, 1, 1, 1, 0, 1, 1, 1, 0, 0, 1, 1, 0, 0, 0,
        0, 0, 0, 0, 1, 1, 0, 0, 1, 1, 1, 0, 0, 0, 0, 1])
--train>>-model--summary---- SimpleNet(
  (fc1): Linear(in_features=12288, out_features=84, bias=True)
  (fc2): Linear(in_features=84, out_features=50, bias=True)
  (fc3): Linear(in_features=50, out_features=2, bias=True)
)
--train>>-model-loss--- tensor(0.0004, device='cuda:0', grad_fn=<NllLossBackward0>)
---targets---- tensor([0, 0, 1, 0, 0, 0, 1, 1, 0, 1, 0, 1, 0, 1, 1, 1, 1, 0, 1, 0, 1, 1, 0, 1,
        0, 0, 1, 1, 1, 0, 1, 0, 1, 0, 0, 0, 1, 1, 0, 0])
--train>>-model--summary---- SimpleNet(
  (fc1): Linear(in_features=12288, out_features=84, bias=True)
  (fc2): Linear(in_features=84, out_features=50, bias=True)
  (fc3): Linear(in_features=50, out_features=2, bias=True)
)
--train>>-model-loss--- tensor(0.0003, device='cuda:0', grad_fn=<NllLossBackward0>)
--------targets.shape------ torch.Size([64])
--------inputs.size(0)------ 64
--train>>-model--summary-2--- SimpleNet(
  (fc1): Linear(in_features=12288, out_features=84, bias=True)
  (fc2): Linear(in_features=84, out_features=50, bias=True)
  (fc3): Linear(in_features=50, out_features=2, bias=True)
)
--------output.size(0)------ 64
--------targets.shape------ torch.Size([64])
--------inputs.size(0)------ 64
--train>>-model--summary-2--- SimpleNet(
  (fc1): Linear(in_features=12288, out_features=84, bias=True)
  (fc2): Linear(in_features=84, out_features=50, bias=True)
  (fc3): Linear(in_features=50, out_features=2, bias=True)
)
--------output.size(0)------ 64
--------targets.shape------ torch.Size([64])
--------inputs.size(0)------ 64
--train>>-model--summary-2--- SimpleNet(
  (fc1): Linear(in_features=12288, out_features=84, bias=True)
  (fc2): Linear(in_features=84, out_features=50, bias=True)
  (fc3): Linear(in_features=50, out_features=2, bias=True)
)
--------output.size(0)------ 64
--------targets.shape------ torch.Size([64])
--------inputs.size(0)------ 64
--train>>-model--summary-2--- SimpleNet(
  (fc1): Linear(in_features=12288, out_features=84, bias=True)
  (fc2): Linear(in_features=84, out_features=50, bias=True)
  (fc3): Linear(in_features=50, out_features=2, bias=True)
)
--------output.size(0)------ 64
--------targets.shape------ torch.Size([64])
--------inputs.size(0)------ 64
--train>>-model--summary-2--- SimpleNet(
  (fc1): Linear(in_features=12288, out_features=84, bias=True)
  (fc2): Linear(in_features=84, out_features=50, bias=True)
  (fc3): Linear(in_features=50, out_features=2, bias=True)
)
--------output.size(0)------ 64
--------targets.shape------ torch.Size([64])
--------inputs.size(0)------ 64
--train>>-model--summary-2--- SimpleNet(
  (fc1): Linear(in_features=12288, out_features=84, bias=True)
  (fc2): Linear(in_features=84, out_features=50, bias=True)
  (fc3): Linear(in_features=50, out_features=2, bias=True)
)
--------output.size(0)------ 64
--------targets.shape------ torch.Size([64])
--------inputs.size(0)------ 64
--train>>-model--summary-2--- SimpleNet(
  (fc1): Linear(in_features=12288, out_features=84, bias=True)
  (fc2): Linear(in_features=84, out_features=50, bias=True)
  (fc3): Linear(in_features=50, out_features=2, bias=True)
)
--------output.size(0)------ 64
--------targets.shape------ torch.Size([64])
--------inputs.size(0)------ 64
--train>>-model--summary-2--- SimpleNet(
  (fc1): Linear(in_features=12288, out_features=84, bias=True)
  (fc2): Linear(in_features=84, out_features=50, bias=True)
  (fc3): Linear(in_features=50, out_features=2, bias=True)
)
--------output.size(0)------ 64
--------targets.shape------ torch.Size([64])
--------inputs.size(0)------ 64
--train>>-model--summary-2--- SimpleNet(
  (fc1): Linear(in_features=12288, out_features=84, bias=True)
  (fc2): Linear(in_features=84, out_features=50, bias=True)
  (fc3): Linear(in_features=50, out_features=2, bias=True)
)
--------output.size(0)------ 64
--------targets.shape------ torch.Size([64])
--------inputs.size(0)------ 64
--train>>-model--summary-2--- SimpleNet(
  (fc1): Linear(in_features=12288, out_features=84, bias=True)
  (fc2): Linear(in_features=84, out_features=50, bias=True)
  (fc3): Linear(in_features=50, out_features=2, bias=True)
)
--------output.size(0)------ 64
--------targets.shape------ torch.Size([64])
--------inputs.size(0)------ 64
--train>>-model--summary-2--- SimpleNet(
  (fc1): Linear(in_features=12288, out_features=84, bias=True)
  (fc2): Linear(in_features=84, out_features=50, bias=True)
  (fc3): Linear(in_features=50, out_features=2, bias=True)
)
--------output.size(0)------ 64
--------targets.shape------ torch.Size([64])
--------inputs.size(0)------ 64
--train>>-model--summary-2--- SimpleNet(
  (fc1): Linear(in_features=12288, out_features=84, bias=True)
  (fc2): Linear(in_features=84, out_features=50, bias=True)
  (fc3): Linear(in_features=50, out_features=2, bias=True)
)
--------output.size(0)------ 64
--------targets.shape------ torch.Size([64])
--------inputs.size(0)------ 64
--train>>-model--summary-2--- SimpleNet(
  (fc1): Linear(in_features=12288, out_features=84, bias=True)
  (fc2): Linear(in_features=84, out_features=50, bias=True)
  (fc3): Linear(in_features=50, out_features=2, bias=True)
)
--------output.size(0)------ 64
--------targets.shape------ torch.Size([64])
--------inputs.size(0)------ 64
--train>>-model--summary-2--- SimpleNet(
  (fc1): Linear(in_features=12288, out_features=84, bias=True)
  (fc2): Linear(in_features=84, out_features=50, bias=True)
  (fc3): Linear(in_features=50, out_features=2, bias=True)
)
--------output.size(0)------ 64
--------targets.shape------ torch.Size([40])
--------inputs.size(0)------ 40
--train>>-model--summary-2--- SimpleNet(
  (fc1): Linear(in_features=12288, out_features=84, bias=True)
  (fc2): Linear(in_features=84, out_features=50, bias=True)
  (fc3): Linear(in_features=50, out_features=2, bias=True)
)
--------output.size(0)------ 40
-TRAIN----torch.cuda.memory_allocated---> 0.02 GB
Epoch:10,TRAIN_Loss:0.00,VAL_Loss:0.00, Accuracy = 1.00
---labels[prediction]----
 glass
---labels[prediction]----
 not_glass
---labels[prediction]----
 glass
---labels[prediction]----
 glass
---labels[prediction]----
 not_glass
---labels[prediction]----
 not_glass
---labels[prediction]----
…
