…
│    │    └─Conv2d: 3-42                 (2,359,296)
│    │    └─BatchNorm2d: 3-43            (1,024)
├─AdaptiveAvgPool2d: 1-9                 --
├─Linear: 1-10                           5,130
=================================================================
Total params: 11,181,642
Trainable params: 5,130
Non-trainable params: 11,176,512
=================================================================



----------------------------------------------------------------
        Layer (type)               Output Shape         Param #
================================================================
            Conv2d-1         [-1, 64, 112, 112]           9,408
       BatchNorm2d-2         [-1, 64, 112, 112]             128
              ReLU-3         [-1, 64, 112, 112]               0
         MaxPool2d-4           [-1, 64, 56, 56]               0
        Conv2dAuto-5           [-1, 64, 56, 56]          36,864
       BatchNorm2d-6           [-1, 64, 56, 56]             128
              ReLU-7           [-1, 64, 56, 56]               0
        Conv2dAuto-8           [-1, 64, 56, 56]          36,864
       BatchNorm2d-9           [-1, 64, 56, 56]             128
             ReLU-10           [-1, 64, 56, 56]               0
 ResNetBasicBlock-11           [-1, 64, 56, 56]               0
       Conv2dAuto-12           [-1, 64, 56, 56]          36,864
      BatchNorm2d-13           [-1, 64, 56, 56]             128
             ReLU-14           [-1, 64, 56, 56]               0
       Conv2dAuto-15           [-1, 64, 56, 56]          36,864
      BatchNorm2d-16           [-1, 64, 56, 56]             128
             ReLU-17           [-1, 64, 56, 56]               0
 ResNetBasicBlock-18           [-1, 64, 56, 56]               0
      ResNetLayer-19           [-1, 64, 56, 56]               0
           Conv2d-20          [-1, 128, 28, 28]           8,192
      BatchNorm2d-21          [-1, 128, 28, 28]             256
       Conv2dAuto-22          [-1, 128, 28, 28]          73,728
      BatchNorm2d-23          [-1, 128, 28, 28]             256
             ReLU-24          [-1, 128, 28, 28]               0
       Conv2dAuto-25          [-1, 128, 28, 28]         147,456
      BatchNorm2d-26          [-1, 128, 28, 28]             256
             ReLU-27          [-1, 128, 28, 28]               0
 ResNetBasicBlock-28          [-1, 128, 28, 28]               0
       Conv2dAuto-29          [-1, 128, 28, 28]         147,456
      BatchNorm2d-30          [-1, 128, 28, 28]             256
             ReLU-31          [-1, 128, 28, 28]               0
       Conv2dAuto-32          [-1, 128, 28, 28]         147,456
      BatchNorm2d-33          [-1, 128, 28, 28]             256
             ReLU-34          [-1, 128, 28, 28]               0
 ResNetBasicBlock-35          [-1, 128, 28, 28]               0
      ResNetLayer-36          [-1, 128, 28, 28]               0
           Conv2d-37          [-1, 256, 14, 14]          32,768
      BatchNorm2d-38          [-1, 256, 14, 14]             512
       Conv2dAuto-39          [-1, 256, 14, 14]         294,912
      BatchNorm2d-40          [-1, 256, 14, 14]             512
             ReLU-41          [-1, 256, 14, 14]               0
       Conv2dAuto-42          [-1, 256, 14, 14]         589,824
      BatchNorm2d-43          [-1, 256, 14, 14]             512
             ReLU-44          [-1, 256, 14, 14]               0
 ResNetBasicBlock-45          [-1, 256, 14, 14]               0
       Conv2dAuto-46          [-1, 256, 14, 14]         589,824
      BatchNorm2d-47          [-1, 256, 14, 14]             512
             ReLU-48          [-1, 256, 14, 14]               0
       Conv2dAuto-49          [-1, 256, 14, 14]         589,824
      BatchNorm2d-50          [-1, 256, 14, 14]             512
             ReLU-51          [-1, 256, 14, 14]               0
 ResNetBasicBlock-52          [-1, 256, 14, 14]               0
      ResNetLayer-53          [-1, 256, 14, 14]               0
           Conv2d-54            [-1, 512, 7, 7]         131,072
      BatchNorm2d-55            [-1, 512, 7, 7]           1,024
       Conv2dAuto-56            [-1, 512, 7, 7]       1,179,648
      BatchNorm2d-57            [-1, 512, 7, 7]           1,024
             ReLU-58            [-1, 512, 7, 7]               0
       Conv2dAuto-59            [-1, 512, 7, 7]       2,359,296
      BatchNorm2d-60            [-1, 512, 7, 7]           1,024
             ReLU-61            [-1, 512, 7, 7]               0
 ResNetBasicBlock-62            [-1, 512, 7, 7]               0
       Conv2dAuto-63            [-1, 512, 7, 7]       2,359,296
      BatchNorm2d-64            [-1, 512, 7, 7]           1,024
             ReLU-65            [-1, 512, 7, 7]               0
       Conv2dAuto-66            [-1, 512, 7, 7]       2,359,296
      BatchNorm2d-67            [-1, 512, 7, 7]           1,024
             ReLU-68            [-1, 512, 7, 7]               0
 ResNetBasicBlock-69            [-1, 512, 7, 7]               0
      ResNetLayer-70            [-1, 512, 7, 7]               0
    ResNetEncoder-71            [-1, 512, 7, 7]               0
AdaptiveAvgPool2d-72            [-1, 512, 1, 1]               0
           Linear-73                 [-1, 1000]         513,000
    ResnetDecoder-74                 [-1, 1000]               0
================================================================
Total params: 11,689,512
Trainable params: 11,689,512
Non-trainable params: 0
----------------------------------------------------------------
Input size (MB): 0.57
Forward/backward pass size (MB): 65.86
Params size (MB): 44.59
Estimated Total Size (MB): 111.03




------model.summary()----- =================================================================
…
