…
---model.fc.in_features--
 512
---type(model.fc---- <class 'torch.nn.modules.linear.Linear'>
==========================================================================================
Layer (type:depth-idx)                   Output Shape              Param #
==========================================================================================
ResNet                                   --                        --
├─Conv2d: 1-1                            [10, 64, 14, 14]          (9,408)
├─BatchNorm2d: 1-2                       [10, 64, 14, 14]          (128)
├─ReLU: 1-3                              [10, 64, 14, 14]          --
├─MaxPool2d: 1-4                         [10, 64, 7, 7]            --
├─Sequential: 1-5                        [10, 64, 7, 7]            --
│    └─BasicBlock: 2-1                   [10, 64, 7, 7]            --
│    │    └─Conv2d: 3-1                  [10, 64, 7, 7]            (36,864)
│    │    └─BatchNorm2d: 3-2             [10, 64, 7, 7]            (128)
│    │    └─ReLU: 3-3                    [10, 64, 7, 7]            --
│    │    └─Conv2d: 3-4                  [10, 64, 7, 7]            (36,864)
│    │    └─BatchNorm2d: 3-5             [10, 64, 7, 7]            (128)
│    │    └─ReLU: 3-6                    [10, 64, 7, 7]            --
│    └─BasicBlock: 2-2                   [10, 64, 7, 7]            --
│    │    └─Conv2d: 3-7                  [10, 64, 7, 7]            (36,864)
│    │    └─BatchNorm2d: 3-8             [10, 64, 7, 7]            (128)
│    │    └─ReLU: 3-9                    [10, 64, 7, 7]            --
│    │    └─Conv2d: 3-10                 [10, 64, 7, 7]            (36,864)
│    │    └─BatchNorm2d: 3-11            [10, 64, 7, 7]            (128)
│    │    └─ReLU: 3-12                   [10, 64, 7, 7]            --
├─Sequential: 1-6                        [10, 128, 4, 4]           --
│    └─BasicBlock: 2-3                   [10, 128, 4, 4]           --
│    │    └─Conv2d: 3-13                 [10, 128, 4, 4]           (73,728)
│    │    └─BatchNorm2d: 3-14            [10, 128, 4, 4]           (256)
│    │    └─ReLU: 3-15                   [10, 128, 4, 4]           --
│    │    └─Conv2d: 3-16                 [10, 128, 4, 4]           (147,456)
│    │    └─BatchNorm2d: 3-17            [10, 128, 4, 4]           (256)
│    │    └─Sequential: 3-18             [10, 128, 4, 4]           (8,448)
│    │    └─ReLU: 3-19                   [10, 128, 4, 4]           --
│    └─BasicBlock: 2-4                   [10, 128, 4, 4]           --
│    │    └─Conv2d: 3-20                 [10, 128, 4, 4]           (147,456)
│    │    └─BatchNorm2d: 3-21            [10, 128, 4, 4]           (256)
│    │    └─ReLU: 3-22                   [10, 128, 4, 4]           --
│    │    └─Conv2d: 3-23                 [10, 128, 4, 4]           (147,456)
│    │    └─BatchNorm2d: 3-24            [10, 128, 4, 4]           (256)
│    │    └─ReLU: 3-25                   [10, 128, 4, 4]           --
├─Sequential: 1-7                        [10, 256, 2, 2]           --
│    └─BasicBlock: 2-5                   [10, 256, 2, 2]           --
│    │    └─Conv2d: 3-26                 [10, 256, 2, 2]           (294,912)
│    │    └─BatchNorm2d: 3-27            [10, 256, 2, 2]           (512)
│    │    └─ReLU: 3-28                   [10, 256, 2, 2]           --
│    │    └─Conv2d: 3-29                 [10, 256, 2, 2]           (589,824)
│    │    └─BatchNorm2d: 3-30            [10, 256, 2, 2]           (512)
│    │    └─Sequential: 3-31             [10, 256, 2, 2]           (33,280)
│    │    └─ReLU: 3-32                   [10, 256, 2, 2]           --
│    └─BasicBlock: 2-6                   [10, 256, 2, 2]           --
│    │    └─Conv2d: 3-33                 [10, 256, 2, 2]           (589,824)
│    │    └─BatchNorm2d: 3-34            [10, 256, 2, 2]           (512)
│    │    └─ReLU: 3-35                   [10, 256, 2, 2]           --
│    │    └─Conv2d: 3-36                 [10, 256, 2, 2]           (589,824)
│    │    └─BatchNorm2d: 3-37            [10, 256, 2, 2]           (512)
│    │    └─ReLU: 3-38                   [10, 256, 2, 2]           --
├─Sequential: 1-8                        [10, 512, 1, 1]           --
│    └─BasicBlock: 2-7                   [10, 512, 1, 1]           --
│    │    └─Conv2d: 3-39                 [10, 512, 1, 1]           (1,179,648)
│    │    └─BatchNorm2d: 3-40            [10, 512, 1, 1]           (1,024)
│    │    └─ReLU: 3-41                   [10, 512, 1, 1]           --
│    │    └─Conv2d: 3-42                 [10, 512, 1, 1]           (2,359,296)
│    │    └─BatchNorm2d: 3-43            [10, 512, 1, 1]           (1,024)
│    │    └─Sequential: 3-44             [10, 512, 1, 1]           (132,096)
│    │    └─ReLU: 3-45                   [10, 512, 1, 1]           --
│    └─BasicBlock: 2-8                   [10, 512, 1, 1]           --
│    │    └─Conv2d: 3-46                 [10, 512, 1, 1]           (2,359,296)
│    │    └─BatchNorm2d: 3-47            [10, 512, 1, 1]           (1,024)
│    │    └─ReLU: 3-48                   [10, 512, 1, 1]           --
│    │    └─Conv2d: 3-49                 [10, 512, 1, 1]           (2,359,296)
│    │    └─BatchNorm2d: 3-50            [10, 512, 1, 1]           (1,024)
│    │    └─ReLU: 3-51                   [10, 512, 1, 1]           --
├─AdaptiveAvgPool2d: 1-9                 [10, 512, 1, 1]           --
├─Linear: 1-10                           [10, 10]                  5,130
==========================================================================================
Total params: 11,181,642
Trainable params: 5,130
Non-trainable params: 11,176,512
Total mult-adds (M): 342.50
==========================================================================================
Input size (MB): 0.09
Forward/backward pass size (MB): 6.88
Params size (MB): 44.73
Estimated Total Size (MB): 51.70
…
