…
The decoder is the last piece we need to create the full network. It is a fully connected layer that maps the features learned by the network to their respective classes. Easily, we can define it as:
ResNet
Finally, we can put all the pieces together and create the final model.

ResNet34
We can now define the five models proposed by the authors, 
resnet18,34,50,101,152
Let’s use torchsummary to test the model



----------------------------------------------------------------
        Layer (type)               Output Shape         Param #
================================================================
            Conv2d-1         [-1, 64, 112, 112]           9,408
       BatchNorm2d-2         [-1, 64, 112, 112]             128
              ReLU-3         [-1, 64, 112, 112]               0
         MaxPool2d-4           [-1, 64, 56, 56]               0
        Conv2dAuto-5           [-1, 64, 56, 56]          36,864
       BatchNorm2d-6           [-1, 64, 56, 56]             128
              ReLU-7           [-1, 64, 56, 56]               0
        Conv2dAuto-8           [-1, 64, 56, 56]          36,864
       BatchNorm2d-9           [-1, 64, 56, 56]             128
             ReLU-10           [-1, 64, 56, 56]               0
 ResNetBasicBlock-11           [-1, 64, 56, 56]               0
       Conv2dAuto-12           [-1, 64, 56, 56]          36,864
      BatchNorm2d-13           [-1, 64, 56, 56]             128
             ReLU-14           [-1, 64, 56, 56]               0
       Conv2dAuto-15           [-1, 64, 56, 56]          36,864
      BatchNorm2d-16           [-1, 64, 56, 56]             128
             ReLU-17           [-1, 64, 56, 56]               0
 ResNetBasicBlock-18           [-1, 64, 56, 56]               0
      ResNetLayer-19           [-1, 64, 56, 56]               0
           Conv2d-20          [-1, 128, 28, 28]           8,192
      BatchNorm2d-21          [-1, 128, 28, 28]             256
       Conv2dAuto-22          [-1, 128, 28, 28]          73,728
      BatchNorm2d-23          [-1, 128, 28, 28]             256
             ReLU-24          [-1, 128, 28, 28]               0
       Conv2dAuto-25          [-1, 128, 28, 28]         147,456
      BatchNorm2d-26          [-1, 128, 28, 28]             256
             ReLU-27          [-1, 128, 28, 28]               0
 ResNetBasicBlock-28          [-1, 128, 28, 28]               0
       Conv2dAuto-29          [-1, 128, 28, 28]         147,456
      BatchNorm2d-30          [-1, 128, 28, 28]             256
             ReLU-31          [-1, 128, 28, 28]               0
       Conv2dAuto-32          [-1, 128, 28, 28]         147,456
      BatchNorm2d-33          [-1, 128, 28, 28]             256
             ReLU-34          [-1, 128, 28, 28]               0
 ResNetBasicBlock-35          [-1, 128, 28, 28]               0
      ResNetLayer-36          [-1, 128, 28, 28]               0
           Conv2d-37          [-1, 256, 14, 14]          32,768
      BatchNorm2d-38          [-1, 256, 14, 14]             512
       Conv2dAuto-39          [-1, 256, 14, 14]         294,912
      BatchNorm2d-40          [-1, 256, 14, 14]             512
             ReLU-41          [-1, 256, 14, 14]               0
       Conv2dAuto-42          [-1, 256, 14, 14]         589,824
      BatchNorm2d-43          [-1, 256, 14, 14]             512
             ReLU-44          [-1, 256, 14, 14]               0
 ResNetBasicBlock-45          [-1, 256, 14, 14]               0
       Conv2dAuto-46          [-1, 256, 14, 14]         589,824
      BatchNorm2d-47          [-1, 256, 14, 14]             512
             ReLU-48          [-1, 256, 14, 14]               0
       Conv2dAuto-49          [-1, 256, 14, 14]         589,824
      BatchNorm2d-50          [-1, 256, 14, 14]             512
             ReLU-51          [-1, 256, 14, 14]               0
 ResNetBasicBlock-52          [-1, 256, 14, 14]               0
      ResNetLayer-53          [-1, 256, 14, 14]               0
           Conv2d-54            [-1, 512, 7, 7]         131,072
      BatchNorm2d-55            [-1, 512, 7, 7]           1,024
       Conv2dAuto-56            [-1, 512, 7, 7]       1,179,648
      BatchNorm2d-57            [-1, 512, 7, 7]           1,024
             ReLU-58            [-1, 512, 7, 7]               0
       Conv2dAuto-59            [-1, 512, 7, 7]       2,359,296
      BatchNorm2d-60            [-1, 512, 7, 7]           1,024
             ReLU-61            [-1, 512, 7, 7]               0
 ResNetBasicBlock-62            [-1, 512, 7, 7]               0
       Conv2dAuto-63            [-1, 512, 7, 7]       2,359,296
      BatchNorm2d-64            [-1, 512, 7, 7]           1,024
             ReLU-65            [-1, 512, 7, 7]               0
       Conv2dAuto-66            [-1, 512, 7, 7]       2,359,296
      BatchNorm2d-67            [-1, 512, 7, 7]           1,024
             ReLU-68            [-1, 512, 7, 7]               0
 ResNetBasicBlock-69            [-1, 512, 7, 7]               0
      ResNetLayer-70            [-1, 512, 7, 7]               0
    ResNetEncoder-71            [-1, 512, 7, 7]               0
AdaptiveAvgPool2d-72            [-1, 512, 1, 1]               0
           Linear-73                 [-1, 1000]         513,000
    ResnetDecoder-74                 [-1, 1000]               0
================================================================
Total params: 11,689,512
Trainable params: 11,689,512
Non-trainable params: 0
----------------------------------------------------------------
Input size (MB): 0.57
Forward/backward pass size (MB): 65.86
Params size (MB): 44.59
Estimated Total Size (MB): 111.03
----------------------------------------------------------------
To check the correctness let’s see the number of parameters with the original implementation
----------------------------------------------------------------
        Layer (type)               Output Shape         Param #
================================================================
            Conv2d-1         [-1, 64, 112, 112]           9,408
       BatchNorm2d-2         [-1, 64, 112, 112]             128
              ReLU-3         [-1, 64, 112, 112]               0
         MaxPool2d-4           [-1, 64, 56, 56]               0
            Conv2d-5           [-1, 64, 56, 56]          36,864
       BatchNorm2d-6           [-1, 64, 56, 56]             128
              ReLU-7           [-1, 64, 56, 56]               0
            Conv2d-8           [-1, 64, 56, 56]          36,864
       BatchNorm2d-9           [-1, 64, 56, 56]             128
             ReLU-10           [-1, 64, 56, 56]               0
       BasicBlock-11           [-1, 64, 56, 56]               0
           Conv2d-12           [-1, 64, 56, 56]          36,864
      BatchNorm2d-13           [-1, 64, 56, 56]             128
             ReLU-14           [-1, 64, 56, 56]               0
           Conv2d-15           [-1, 64, 56, 56]          36,864
      BatchNorm2d-16           [-1, 64, 56, 56]             128
             ReLU-17           [-1, 64, 56, 56]               0
       BasicBlock-18           [-1, 64, 56, 56]               0
           Conv2d-19          [-1, 128, 28, 28]          73,728
      BatchNorm2d-20          [-1, 128, 28, 28]             256
             ReLU-21          [-1, 128, 28, 28]               0
           Conv2d-22          [-1, 128, 28, 28]         147,456
      BatchNorm2d-23          [-1, 128, 28, 28]             256
           Conv2d-24          [-1, 128, 28, 28]           8,192
      BatchNorm2d-25          [-1, 128, 28, 28]             256
             ReLU-26          [-1, 128, 28, 28]               0
       BasicBlock-27          [-1, 128, 28, 28]               0
           Conv2d-28          [-1, 128, 28, 28]         147,456
      BatchNorm2d-29          [-1, 128, 28, 28]             256
             ReLU-30          [-1, 128, 28, 28]               0
           Conv2d-31          [-1, 128, 28, 28]         147,456
      BatchNorm2d-32          [-1, 128, 28, 28]             256
             ReLU-33          [-1, 128, 28, 28]               0
       BasicBlock-34          [-1, 128, 28, 28]               0
           Conv2d-35          [-1, 256, 14, 14]         294,912
      BatchNorm2d-36          [-1, 256, 14, 14]             512
             ReLU-37          [-1, 256, 14, 14]               0
           Conv2d-38          [-1, 256, 14, 14]         589,824
      BatchNorm2d-39          [-1, 256, 14, 14]             512
           Conv2d-40          [-1, 256, 14, 14]          32,768
      BatchNorm2d-41          [-1, 256, 14, 14]             512
             ReLU-42          [-1, 256, 14, 14]               0
       BasicBlock-43          [-1, 256, 14, 14]               0
           Conv2d-44          [-1, 256, 14, 14]         589,824
      BatchNorm2d-45          [-1, 256, 14, 14]             512
             ReLU-46          [-1, 256, 14, 14]               0
           Conv2d-47          [-1, 256, 14, 14]         589,824
      BatchNorm2d-48          [-1, 256, 14, 14]             512
             ReLU-49          [-1, 256, 14, 14]               0
       BasicBlock-50          [-1, 256, 14, 14]               0
           Conv2d-51            [-1, 512, 7, 7]       1,179,648
      BatchNorm2d-52            [-1, 512, 7, 7]           1,024
             ReLU-53            [-1, 512, 7, 7]               0
           Conv2d-54            [-1, 512, 7, 7]       2,359,296
      BatchNorm2d-55            [-1, 512, 7, 7]           1,024
           Conv2d-56            [-1, 512, 7, 7]         131,072
      BatchNorm2d-57            [-1, 512, 7, 7]           1,024
             ReLU-58            [-1, 512, 7, 7]               0
       BasicBlock-59            [-1, 512, 7, 7]               0
           Conv2d-60            [-1, 512, 7, 7]       2,359,296
      BatchNorm2d-61            [-1, 512, 7, 7]           1,024
             ReLU-62            [-1, 512, 7, 7]               0
           Conv2d-63            [-1, 512, 7, 7]       2,359,296
      BatchNorm2d-64            [-1, 512, 7, 7]           1,024
             ReLU-65            [-1, 512, 7, 7]               0
       BasicBlock-66            [-1, 512, 7, 7]               0
AdaptiveAvgPool2d-67            [-1, 512, 1, 1]               0
           Linear-68                 [-1, 1000]         513,000
================================================================
Total params: 11,689,512
Trainable params: 11,689,512
Non-trainable params: 0
----------------------------------------------------------------
Input size (MB): 0.57
Forward/backward pass size (MB): 62.79
Params size (MB): 44.59
Estimated Total Size (MB): 107.96
----------------------------------------------------------------
It’s the same!
…
Customization
One advantage of Object Orienting Programming is that we can easily customize our network.
Change the Block
What if we want to use a different basic block? 
Maybe we want only one 3x3 conv and maybe with Dropout?. 
In this case, we can just subclass ResNetResidualBlock 
and change the .blocks field!


Let’s pass this new block to resnet18 and create a new architecture!
----------------------------------------------------------------
        Layer (type)               Output Shape         Param #
================================================================
            Conv2d-1         [-1, 64, 112, 112]           9,408
       BatchNorm2d-2         [-1, 64, 112, 112]             128
              ReLU-3         [-1, 64, 112, 112]               0
         MaxPool2d-4           [-1, 64, 56, 56]               0
        Conv2dAuto-5           [-1, 64, 56, 56]          36,864
         Dropout2d-6           [-1, 64, 56, 56]               0
              ReLU-7           [-1, 64, 56, 56]               0
              ReLU-8           [-1, 64, 56, 56]               0
AnOtherResNetBlock-9           [-1, 64, 56, 56]               0
       Conv2dAuto-10           [-1, 64, 56, 56]          36,864
        Dropout2d-11           [-1, 64, 56, 56]               0
             ReLU-12           [-1, 64, 56, 56]               0
             ReLU-13           [-1, 64, 56, 56]               0
AnOtherResNetBlock-14           [-1, 64, 56, 56]               0
      ResNetLayer-15           [-1, 64, 56, 56]               0
           Conv2d-16          [-1, 128, 28, 28]           8,192
      BatchNorm2d-17          [-1, 128, 28, 28]             256
       Conv2dAuto-18          [-1, 128, 28, 28]          73,728
        Dropout2d-19          [-1, 128, 28, 28]               0
             ReLU-20          [-1, 128, 28, 28]               0
             ReLU-21          [-1, 128, 28, 28]               0
AnOtherResNetBlock-22          [-1, 128, 28, 28]               0
       Conv2dAuto-23          [-1, 128, 28, 28]         147,456
        Dropout2d-24          [-1, 128, 28, 28]               0
             ReLU-25          [-1, 128, 28, 28]               0
             ReLU-26          [-1, 128, 28, 28]               0
AnOtherResNetBlock-27          [-1, 128, 28, 28]               0
      ResNetLayer-28          [-1, 128, 28, 28]               0
           Conv2d-29          [-1, 256, 14, 14]          32,768
      BatchNorm2d-30          [-1, 256, 14, 14]             512
       Conv2dAuto-31          [-1, 256, 14, 14]         294,912
        Dropout2d-32          [-1, 256, 14, 14]               0
             ReLU-33          [-1, 256, 14, 14]               0
             ReLU-34          [-1, 256, 14, 14]               0
AnOtherResNetBlock-35          [-1, 256, 14, 14]               0
       Conv2dAuto-36          [-1, 256, 14, 14]         589,824
        Dropout2d-37          [-1, 256, 14, 14]               0
             ReLU-38          [-1, 256, 14, 14]               0
             ReLU-39          [-1, 256, 14, 14]               0
AnOtherResNetBlock-40          [-1, 256, 14, 14]               0
      ResNetLayer-41          [-1, 256, 14, 14]               0
           Conv2d-42            [-1, 512, 7, 7]         131,072
      BatchNorm2d-43            [-1, 512, 7, 7]           1,024
       Conv2dAuto-44            [-1, 512, 7, 7]       1,179,648
        Dropout2d-45            [-1, 512, 7, 7]               0
             ReLU-46            [-1, 512, 7, 7]               0
             ReLU-47            [-1, 512, 7, 7]               0
AnOtherResNetBlock-48            [-1, 512, 7, 7]               0
       Conv2dAuto-49            [-1, 512, 7, 7]       2,359,296
        Dropout2d-50            [-1, 512, 7, 7]               0
             ReLU-51            [-1, 512, 7, 7]               0
             ReLU-52            [-1, 512, 7, 7]               0
AnOtherResNetBlock-53            [-1, 512, 7, 7]               0
      ResNetLayer-54            [-1, 512, 7, 7]               0
    ResNetEncoder-55            [-1, 512, 7, 7]               0
AdaptiveAvgPool2d-56            [-1, 512, 1, 1]               0
           Linear-57                 [-1, 1000]         513,000
    ResnetDecoder-58                 [-1, 1000]               0
================================================================
Total params: 5,414,952
Trainable params: 5,414,952
Non-trainable params: 0
----------------------------------------------------------------
Input size (MB): 0.57
Forward/backward pass size (MB): 54.38
Params size (MB): 20.66
Estimated Total Size (MB): 75.61
----------------------------------------------------------------
Change activation function
Easy peasy
----------------------------------------------------------------
        Layer (type)               Output Shape         Param #
================================================================
            Conv2d-1         [-1, 64, 112, 112]           9,408
       BatchNorm2d-2         [-1, 64, 112, 112]             128
         LeakyReLU-3         [-1, 64, 112, 112]               0
         MaxPool2d-4           [-1, 64, 56, 56]               0
        Conv2dAuto-5           [-1, 64, 56, 56]          36,864
       BatchNorm2d-6           [-1, 64, 56, 56]             128
         LeakyReLU-7           [-1, 64, 56, 56]               0
        Conv2dAuto-8           [-1, 64, 56, 56]          36,864
       BatchNorm2d-9           [-1, 64, 56, 56]             128
        LeakyReLU-10           [-1, 64, 56, 56]               0
 ResNetBasicBlock-11           [-1, 64, 56, 56]               0
       Conv2dAuto-12           [-1, 64, 56, 56]          36,864
      BatchNorm2d-13           [-1, 64, 56, 56]             128
        LeakyReLU-14           [-1, 64, 56, 56]               0
       Conv2dAuto-15           [-1, 64, 56, 56]          36,864
      BatchNorm2d-16           [-1, 64, 56, 56]             128
        LeakyReLU-17           [-1, 64, 56, 56]               0
 ResNetBasicBlock-18           [-1, 64, 56, 56]               0
      ResNetLayer-19           [-1, 64, 56, 56]               0
           Conv2d-20          [-1, 128, 28, 28]           8,192
      BatchNorm2d-21          [-1, 128, 28, 28]             256
       Conv2dAuto-22          [-1, 128, 28, 28]          73,728
      BatchNorm2d-23          [-1, 128, 28, 28]             256
        LeakyReLU-24          [-1, 128, 28, 28]               0
       Conv2dAuto-25          [-1, 128, 28, 28]         147,456
      BatchNorm2d-26          [-1, 128, 28, 28]             256
        LeakyReLU-27          [-1, 128, 28, 28]               0
 ResNetBasicBlock-28          [-1, 128, 28, 28]               0
       Conv2dAuto-29          [-1, 128, 28, 28]         147,456
      BatchNorm2d-30          [-1, 128, 28, 28]             256
        LeakyReLU-31          [-1, 128, 28, 28]               0
       Conv2dAuto-32          [-1, 128, 28, 28]         147,456
      BatchNorm2d-33          [-1, 128, 28, 28]             256
        LeakyReLU-34          [-1, 128, 28, 28]               0
 ResNetBasicBlock-35          [-1, 128, 28, 28]               0
      ResNetLayer-36          [-1, 128, 28, 28]               0
           Conv2d-37          [-1, 256, 14, 14]          32,768
      BatchNorm2d-38          [-1, 256, 14, 14]             512
       Conv2dAuto-39          [-1, 256, 14, 14]         294,912
      BatchNorm2d-40          [-1, 256, 14, 14]             512
        LeakyReLU-41          [-1, 256, 14, 14]               0
       Conv2dAuto-42          [-1, 256, 14, 14]         589,824
      BatchNorm2d-43          [-1, 256, 14, 14]             512
        LeakyReLU-44          [-1, 256, 14, 14]               0
 ResNetBasicBlock-45          [-1, 256, 14, 14]               0
       Conv2dAuto-46          [-1, 256, 14, 14]         589,824
      BatchNorm2d-47          [-1, 256, 14, 14]             512
        LeakyReLU-48          [-1, 256, 14, 14]               0
       Conv2dAuto-49          [-1, 256, 14, 14]         589,824
      BatchNorm2d-50          [-1, 256, 14, 14]             512
        LeakyReLU-51          [-1, 256, 14, 14]               0
 ResNetBasicBlock-52          [-1, 256, 14, 14]               0
      ResNetLayer-53          [-1, 256, 14, 14]               0
           Conv2d-54            [-1, 512, 7, 7]         131,072
      BatchNorm2d-55            [-1, 512, 7, 7]           1,024
       Conv2dAuto-56            [-1, 512, 7, 7]       1,179,648
      BatchNorm2d-57            [-1, 512, 7, 7]           1,024
        LeakyReLU-58            [-1, 512, 7, 7]               0
       Conv2dAuto-59            [-1, 512, 7, 7]       2,359,296
      BatchNorm2d-60            [-1, 512, 7, 7]           1,024
        LeakyReLU-61            [-1, 512, 7, 7]               0
 ResNetBasicBlock-62            [-1, 512, 7, 7]               0
       Conv2dAuto-63            [-1, 512, 7, 7]       2,359,296
      BatchNorm2d-64            [-1, 512, 7, 7]           1,024
        LeakyReLU-65            [-1, 512, 7, 7]               0
       Conv2dAuto-66            [-1, 512, 7, 7]       2,359,296
      BatchNorm2d-67            [-1, 512, 7, 7]           1,024
        LeakyReLU-68            [-1, 512, 7, 7]               0
 ResNetBasicBlock-69            [-1, 512, 7, 7]               0
      ResNetLayer-70            [-1, 512, 7, 7]               0
    ResNetEncoder-71            [-1, 512, 7, 7]               0
AdaptiveAvgPool2d-72            [-1, 512, 1, 1]               0
           Linear-73                 [-1, 1000]         513,000
    ResnetDecoder-74                 [-1, 1000]               0
================================================================
Total params: 11,689,512
Trainable params: 11,689,512
Non-trainable params: 0
----------------------------------------------------------------
Input size (MB): 0.57
Forward/backward pass size (MB): 65.86
Params size (MB): 44.59
Estimated Total Size (MB): 111.03
----------------------------------------------------------------
Conclusions
…
