…
----train_dataset---- <keras.preprocessing.image.DirectoryIterator object at 0x7fcb737c74f0>
Found 875 images belonging to 2 classes.
----validation_dataset---- <keras.preprocessing.image.DirectoryIterator object at 0x7fcb736ee2b0>
train_dataset.class_indices--- {'airplanes': 0, 'not_airplanes': 1}
validation_dataset.class_indices--- {'airplanes': 0, 'not_airplanes': 1}
Model: "sequential"
_________________________________________________________________
 Layer (type)                Output Shape              Param #   
=================================================================
 conv2d (Conv2D)             (None, 222, 222, 8)       224       
                                                                 
 max_pooling2d (MaxPooling2D  (None, 111, 111, 8)      0         
 )                                                               
                                                                 
 conv2d_1 (Conv2D)           (None, 109, 109, 16)      1168      
                                                                 
 max_pooling2d_1 (MaxPooling  (None, 54, 54, 16)       0         
 2D)                                                             
                                                                 
 conv2d_2 (Conv2D)           (None, 52, 52, 32)        4640      
                                                                 
 max_pooling2d_2 (MaxPooling  (None, 26, 26, 32)       0         
 2D)                                                             
                                                                 
 flatten (Flatten)           (None, 21632)             0         
                                                                 
 dense (Dense)               (None, 64)                1384512   
                                                                 
 dense_1 (Dense)             (None, 2)                 130       
                                                                 
=================================================================
Total params: 1,390,674
Trainable params: 1,390,674
Non-trainable params: 0
_________________________________________________________________
None
Epoch 1/10

1/3 [=========>....................] - ETA: 0s - loss: 0.4917 - accuracy: 1.0000
…
